artifacts/lstm/d0_best.pt (torch, 77153 bytes, 6 tensors)

lstm.weight_ih_l0 f4 [256, 1]
0	0x3e4391f1	0.19098641
1	0xbc82e072	-0.015976164
2	0x3e94a8fb	0.29035172
3	0xbe20417c	-0.1564998
4	0x3e8c841f	0.2744455
5	0x3db38292	0.08765139
6	0x3ce1bf59	0.027557062
7	0xbd1c6651	-0.038183514
8	0x3ee5768e	0.44817013
9	0x3e2b6ee6	0.16741523
10	0x3de383ee	0.11109148
11	0x3f4eb002	0.80737317
12	0x3ec3f5cb	0.38273463
13	0x3da2919d	0.0793793
14	0x3d60a952	0.054848976
15	0xbd7a6172	-0.061128087
16	0x3ebee92e	0.37287277
17	0x3e83bd10	0.2573018
18	0xbe7e6d22	-0.24846318
19	0x3e9818e4	0.2970649
20	0x3da5b1a2	0.080905214
21	0xbd410c96	-0.047131144
22	0x3d7ddb47	0.061976697
23	0x3e57d016	0.21075472
24	0x3eb918e1	0.36151794
25	0x3da36e03	0.079799674
26	0xbe1bf497	-0.15230022
27	0x3e02c24c	0.12769431
28	0x3eabc210	0.33546495
29	0x3e22e349	0.15907015
30	0xbe3bd6a1	-0.18343593
31	0x3e9352c7	0.28774092
32	0x3f23041e	0.6367816
33	0x3e035f9f	0.12829445
34	0x3ec9331f	0.39296815
35	0x3f0f60f7	0.5600733
36	0x3f03ebd4	0.5153172
37	0x3ed13ec6	0.40868205
38	0x3d1ca93d	0.038247336
39	0x3debd0ee	0.115144596
40	0x3ea200bb	0.31641182
41	0x3c8630e1	0.01638073
42	0x3e8c0bd9	0.2735279
43	0x3f0261ba	0.5093037
44	0x3f0939c4	0.5360377
45	0x3d69472d	0.056952644
46	0x3eaaae48	0.3333609
47	0x3e64fad4	0.22361308
48	0x3eada7f6	0.33917207
49	0x3e85a00b	0.26098666
50	0xbdc8bb79	-0.098013826
51	0x3eec659a	0.46171266
52	0x3e87d22f	0.26527545
53	0x3dc85656	0.09782092
54	0x3e6b6114	0.22986251
55	0x3e16b5c1	0.14717771
56	0x3f972f42	1.1811297
57	0x3e85f6f0	0.2616496
58	0x3e6bf05c	0.23040909
59	0x3e9d3a74	0.3070866
60	0x3efa59d2	0.48896652
61	0xbdacdf54	-0.08441034
62	0x3edc057c	0.42972934
63	0x3e7b0290	0.24512696
64	0xbd01f452	-0.031727143
65	0x3e71b624	0.23604637
66	0x3ec3601f	0.38159272
67	0x3deff4e6	0.117166325
68	0x3c6d977e	0.014501451
69	0x3e3ab114	0.18231612
70	0x3eb00f62	0.34386736
71	0x3ea3dbfe	0.32003778
72	0xbdcb23d6	-0.099189445
73	0xbc0bee72	-0.0085407365
74	0xbe49c316	-0.19703326
75	0x3f4892da	0.7834908
76	0x3cc88a39	0.024479972
77	0x3e8fda57	0.28096268
78	0xbdc1d682	-0.09464742
79	0x3dc87ad5	0.09789053
80	0x3ddbdd3e	0.10735558
81	0x3e1f173a	0.15536204
82	0xbd31e725	-0.043433327
83	0x3e67ee3f	0.22649477
84	0x3e22023d	0.15821166
85	0x3ca1a203	0.019730574
86	0x3d648795	0.055793364
87	0xbe14e600	-0.14540863
88	0x3e975262	0.2955504
89	0x3cdb54ac	0.026773773
90	0xbd76161b	-0.060079675
91	0x3b8fa7b3	0.004384005
92	0xbd2cb22b	-0.0421621
93	0x3d984b06	0.074361846
94	0x3d1465bd	0.036229838
95	0x3e44c89e	0.19217154
96	0x3f6337c0	0.8875694
97	0x3e69889f	0.22806023
98	0x3e389ad2	0.1802781
99	0x3f1704b1	0.58991534
100	0x3eb11580	0.34586716
101	0x3e29dc82	0.16588023
102	0xbde58015	-0.1120607
103	0xbe651ce0	-0.22374296
104	0xba81bda0	-0.0009898432
105	0x3ce85be0	0.028364122
106	0x3dfdf54f	0.124003045
107	0x3e8b66dc	0.27226913
108	0x3e888703	0.26665506
109	0x3edf1220	0.43568516
110	0x3e9d6959	0.30744436
111	0x3e93d3ea	0.28872615
112	0x3f001af0	0.50041103
113	0x3ca25b9c	0.019819073
114	0xbea628df	-0.32453057
115	0xbd3e0999	-0.04639587
116	0x3c9c83e4	0.01910586
117	0xbd97aced	-0.0740603
118	0x3e841389	0.25796154
119	0xbe12b9e9	-0.14328732
120	0x3f612fe7	0.8796372
121	0x3f19e970	0.6012182
122	0x3ef93045	0.4866964
123	0x3f0d039c	0.5508363
124	0x3ecbbc86	0.3979227
125	0xbe69ad1b	-0.22819941
126	0xbc0d28e1	-0.008615703
127	0xbdf8e26f	-0.12152564
128	0xbe54b3e0	-0.20771742
129	0x3ee8d91e	0.45478147
130	0xbd9b13e2	-0.07572152
131	0xbe70979c	-0.23495334
132	0xbd839693	-0.06425204
133	0x3e7f5235	0.24933703
134	0xbedb1778	-0.42791343
135	0x3cd95d1c	0.026533656
136	0x3d68f15c	0.056870803
137	0x3f008878	0.50208235
138	0x3c8f62d0	0.017503172
139	0xbeacb3d3	-0.33730945
140	0xbe8173e6	-0.25283736
141	0xbde4cc03	-0.11171725
142	0x3c9beb8a	0.019033212
143	0x3e2307f1	0.15920998
144	0xbbda5989	-0.0066635055
145	0xbf012417	-0.50445694
146	0x3d8c8735	0.06861726
147	0xbf3dcaa9	-0.7413736
148	0x3dfd7814	0.12376419
149	0x3cb80a62	0.022465888
150	0xbe0ce5cf	-0.1375954
151	0x3cf41a38	0.029797658
152	0xbde5a605	-0.11213306
153	0xbd89924a	-0.067173555
154	0x3c7a5ded	0.015281183
155	0x3e022ada	0.12711659
156	0xbe910fd2	-0.28332382
157	0xbd2c2a64	-0.042032614
158	0x3ef8a877	0.48566028
159	0x3d8131a8	0.06308299
160	0x3eecd01a	0.4625252
161	0xbd33e747	-0.043921735
162	0x3d98c377	0.07459157
163	0x3e589b39	0.21152963
164	0xbe893348	-0.26796937
165	0xbf02f191	-0.5114985
166	0xbecbe135	-0.39820257
167	0xbe44b2ee	-0.19208881
168	0xbb7b7a04	-0.0038372288
169	0xbeb49455	-0.35269418
170	0xbf003ffb	-0.50097626
171	0x3ec22160	0.37916088
172	0x3eb6eac0	0.35725975
173	0xbdc8b61b	-0.09800359
174	0xbf555903	-0.83338946
175	0x3e82b089	0.2552531
176	0x3edf97dd	0.4367055
177	0x3ea54ea2	0.32286555
178	0xbca4058c	-0.020022176
179	0xbd49b089	-0.049240623
180	0xbef0aa25	-0.4700481
181	0x3ea13644	0.31486714
182	0x3e37fa42	0.1796656
183	0x3d8ad31d	0.06778548
184	0x3e96e782	0.294735
185	0xbdcbd6e8	-0.099530995
186	0x3f06ddcf	0.52682203
187	0xbea6d110	-0.32581377
188	0x3e1a575b	0.15072386
189	0x3e86c99b	0.26325688
190	0x3d245451	0.040119473
191	0xbea71ea4	-0.32640564
192	0x3e9e1430	0.30874777
193	0x3eb9d0f4	0.3629223
194	0x3fc742eb	1.5567297
195	0x3faa5dbb	1.3309854
196	0x3f01caec	0.5070026
197	0x3f01513f	0.50514597
198	0x3f9af72d	1.2106682
199	0x3f0f6a22	0.5602132
200	0x3ed3a8e7	0.413398
201	0x3e0aac4b	0.13542287
202	0x3f29309b	0.6608979
203	0x4001fabd	2.0309289
204	0x3fb530d6	1.4155529
205	0x3f361902	0.7113191
206	0x3dda5278	0.10660261
207	0x3e1fa688	0.1559087
208	0x3f8e6bf1	1.1126691
209	0x3e8b323a	0.27186757
210	0x3dff3ebf	0.1246314
211	0x3d113bad	0.035457302
212	0x3eba58f1	0.36395982
213	0x3f1f6912	0.622697
214	0x3ec51360	0.38491344
215	0x3de55d08	0.11199385
216	0x3fc2b208	1.5210581
217	0x3e2796bf	0.16366099
218	0x3e88fd36	0.26755685
219	0x3e35e975	0.17764838
220	0x3f18bc08	0.5966191
221	0x3e4f3c08	0.20237744
222	0xbe2bd4d8	-0.16780412
223	0x3f9c3352	1.2203162
224	0xbe358525	-0.17726572
225	0x3fd3985e	1.6530874
226	0x3e929b47	0.28634092
227	0x3f3c6c8c	0.7360313
228	0x3e9e9422	0.3097239
229	0x3d8e26ea	0.06941016
230	0xbdd682d6	-0.10474174
231	0x3fa908d3	1.3205818
232	0x3f2f9d8e	0.68599784
233	0x3e2e0fa3	0.16998152
234	0x3e44c10d	0.19214268
235	0x3e74a248	0.2389003
236	0x3f9dd813	1.2331566
237	0x3f8d126f	1.102125
238	0xbd90b4ec	-0.07065758
239	0x3eb03eea	0.34423
240	0x3e0e9f69	0.13927998
241	0x3e2f5ccb	0.17125241
242	0x3da62cf3	0.08114042
243	0x3e918157	0.2841899
244	0x3e35e4bc	0.17763036
245	0x3ef1c0b2	0.47217327
246	0x3ed19694	0.40935194
247	0x3eca974d	0.39568558
248	0x3e45143d	0.19246002
249	0x401ad3a1	2.4191668
250	0x3d6d8fb4	0.057998374
251	0x3f2dcb5f	0.67888445
252	0x3ef0387b	0.4691809
253	0xbdb0b216	-0.08627717
254	0x3eb8b1c9	0.3607314
255	0x3ee0dcce	0.4391846

lstm.weight_hh_l0 f4 [256, 64]
0	0x3da6c7f9	0.081436105
1	0xbe4627cd	-0.1935112
2	0xbe37b572	-0.1794031
3	0xbdfe6967	-0.12422448
4	0xbde8ca43	-0.11366703
5	0xbe0545c7	-0.13014899
6	0xbe761739	-0.24032296
7	0xbd043f04	-0.03228666
8	0xbddb3228	-0.10702926
9	0x3e2032f1	0.15644433
10	0x3e50c99d	0.2038941
11	0xbe9383fd	-0.28811637
12	0x3dab0592	0.08350672
13	0x3eff7937	0.49897167
14	0x3e005c83	0.1253529
15	0x3d97c258	0.07410115
16	0xbdf1ee33	-0.11813011
17	0xbce36a3e	-0.027760621
18	0x3b00c9b6	0.001965148
19	0xbea77212	-0.32704216
20	0x3d763981	0.060113434
21	0x3e184cc3	0.14873032
22	0x3ea3a343	0.31960496
23	0x3d8668c5	0.06562952
24	0xbe4f33d7	-0.20234619
25	0xbdb3109a	-0.08743401
26	0x3e819b63	0.25313863
27	0x3d152d79	0.03642032
28	0xbdf0fbf0	-0.11766803
29	0x3e96f95c	0.2948712
30	0x3e4e0a82	0.20121196
31	0xbe75ce06	-0.24004373
32	0xbcd1427d	-0.0255444
33	0xbe6357a7	-0.22201405
34	0x3d352b45	0.04423072
35	0x3d527b46	0.051387094
36	0xbdedf5d1	-0.116191514
37	0xbc496b14	-0.012293596
38	0x3d247a71	0.04015583
39	0x3e2a76b3	0.16646843
40	0x3d3d49f1	0.046213094
41	0xbdd5854d	-0.10425816
42	0xbd1ab262	-0.037767775
43	0x3e49d436	0.19709858
44	0x3d778059	0.060425136
45	0x3e3482a2	0.17627957
46	0xbe3d3cf9	-0.1848029
47	0x3dbdb3ed	0.09262834
48	0x3e7b3320	0.24531221
49	0xbe56ca13	-0.20975523
50	0x3e2c7cad	0.16844435
51	0xbe097734	-0.13424379
52	0x3de520bd	0.11187885
53	0xbd872716	-0.06599252
54	0x3e088a44	0.13333994
55	0xbd4d411c	-0.05011092
56	0x3d92ad31	0.0716194
57	0xbdd6beaf	-0.10485589
58	0x3c9b1451	0.018930586
59	0xbe938a15	-0.28816286
60	0xbe0e663f	-0.13906191
61	0xbd38bdc4	-0.04510285
62	0xbd7f6e79	-0.062361214
63	0xbe24510e	-0.16046545
64	0xbe1721e3	-0.1475902
65	0xbe831b01	-0.2560654
66	0xbea9a410	-0.33132982
67	0xbe0df156	-0.13861594
68	0xbcac022c	-0.02099713
69	0x3d170e04	0.0368786
70	0xbdcd0069	-0.10009844
71	0xbda9a568	-0.08283502
72	0x3df0a1c2	0.11749603
73	0xbc42030b	-0.011841546
74	0x3c18ed35	0.009333898
75	0xbe406d00	-0.1879158
76	0xbd24d293	-0.04023988
77	0xbca9ef35	-0.020743946
78	0x3d4a9c8f	0.049465712
79	0x3e7634d3	0.24043588
80	0xbbec0646	-0.0072028963
81	0xbe0a9cc1	-0.1353636
82	0xbea5f055	-0.3240992
83	0x3e15211e	0.14563414
84	0x3d5436c6	0.05181005
85	0xbe0425fc	-0.12905115
86	0x3e25d3aa	0.16194025
87	0xbdb2eee5	-0.08736972
88	0x3e7d060d	0.2470934
89	0x3d036458	0.032078117
90	0x3dadf340	0.08493662
91	0x3d2aec20	0.041729093
92	0xbe435fc8	-0.19079506
93	0x3d9a44e1	0.07532669
94	0x3c8986e3	0.016787952
95	0x3e01c558	0.12672937
96	0x3e169122	0.14703801
97	0xbe08285d	-0.13296647
98	0x3e8fbc81	0.28073505
99	0x3e96e562	0.2947188
100	0xbe156587	-0.14589511
101	0x3e1a436b	0.1506478
102	0xbdc9b572	-0.09849061
103	0x3c512fd7	0.012767754
104	0xbe037aad	-0.12839766
105	0xbdb005d0	-0.08594859
106	0xbdb902d7	-0.09033745
107	0x3e26cb8b	0.16288583
108	0x3df00142	0.1171899
109	0xbdbf621a	-0.09344883
110	0xbe27b670	-0.16378188
111	0x3e960288	0.29298806
112	0x3e4d495b	0.20047514
113	0x3e1cd8b4	0.1531704
114	0x3e23db85	0.16001709
115	0x3d0c5f8d	0.03427081
116	0xbd999bd0	-0.07500422
117	0x3d1eea70	0.038797796
118	0xbd259877	-0.040428605
119	0x3d880e50	0.06643355
120	0xbd8b6e4b	-0.06808146
121	0xbe4a6225	-0.19764002
122	0x3dbfc9a8	0.09364635
123	0xbd1c0cac	-0.038098022
124	0x3e9e3ab5	0.30904165
125	0x3dd68a0c	0.10475549
126	0xbd33f619	-0.04393587
127	0xbde9d608	-0.11417776
128	0x3d9cef37	0.07662814
129	0x3d7552d0	0.05989343
130	0xbe4d6511	-0.20058085
131	0x3e6c8953	0.2309926
132	0x3e55bb03	0.2087212
133	0xbddc2be2	-0.107505575
134	0xbe7c1478	-0.24617183
135	0xbe28792a	-0.1645247
136	0xbdc319c9	-0.095264025
137	0xbde549d7	-0.111957245
138	0xbeb6e3ee	-0.35720772
139	0x3d9a7c9d	0.07543299
140	0x3e74b2b9	0.23896302
141	0x3e5dbc90	0.21653962
142	0x3e0c3138	0.1369065
143	0x3e51824f	0.20459865
144	0x3defb55c	0.117045134
145	0x3db14241	0.08655215
146	0xbe27fd04	-0.16405112
147	0xbd3a4adb	-0.045481544
148	0xbc0b1775	-0.008489479
149	0xbd4d7e0e	-0.050169043
150	0x3e4d59ff	0.20053862
151	0x3d7dbec6	0.061949514
152	0x3d5d2b7d	0.05399655
153	0x3c47f38f	0.012204065
154	0x3e393d9b	0.18089907
155	0x3e017d41	0.12645437
156	0x3ccaf1d7	0.024773521
157	0xbd41b1b6	-0.04728862
158	0xbdb906b9	-0.09034485
159	0x3ea62beb	0.32455382
160	0xbd915662	-0.07096554
161	0xbe8616b3	-0.26189193
162	0xba2ee36d	-0.00066714623
163	0x3dc74efc	0.09731862
164	0xbc5a7853	-0.013334352
165	0x3e03887f	0.12845038
166	0xbc74f6d5	-0.0149514275
167	0x3e7151fc	0.23566431
168	0x3e40e7db	0.18838446
169	0xbe605388	-0.21906865
170	0x3db8ad94	0.090174824
171	0x3cf9779c	0.030452542
172	0xbc607b12	-0.013701217
173	0x3e042d15	0.12907822
174	0x3c07fc18	0.00829985
175	0x3dc1de19	0.0946619
176	0x3e952614	0.29130614
177	0xbe289b22	-0.16465428
178	0xbdb4e1ab	-0.08832105
179	0xbde979ad	-0.11400161
180	0x3e394bcd	0.18095322
181	0x3df52e76	0.11971752
182	0xbdea97fe	-0.114547715
183	0xbdd0d9ff	-0.101978295
184	0xbd5c3993	-0.053765845
185	0xbe9256a5	-0.2858173
186	0xbd5cee84	-0.053938404
187	0xbdc5e87c	-0.096634835
188	0x3d992aa3	0.074788354
189	0xbba59f20	-0.0050543696
190	0x3dc207a6	0.09474115
191	0xbdb7e0b7	-0.08978408
192	0x3d8028ba	0.06257768
193	0x3c846cc4	0.016165145
194	0xbe08b8a7	-0.1335169
195	0xbde43039	-0.1114201
196	0x3d281be6	0.04104223
197	0x3e281122	0.16412786
198	0xbe791d6e	-0.24327633
199	0xbd9fcb91	-0.07802499
200	0xbcdd0abc	-0.026982658
201	0x3dd6c486	0.104867026
202	0x3c824ec7	0.015906705
203	0xbd15ca6b	-0.036569994
204	0xbe83432d	-0.2563719
205	0x3e149fa1	0.14514019
206	0x3d2ddbb7	0.042445865
207	0x3ca927e1	0.020648899
208	0xbe336fd1	-0.17523123
209	0x3dc2761d	0.094951846
210	0x3cf805ec	0.030276261
211	0xbe28c23d	-0.16480346
212	0x3d06c6c7	0.032904413
213	0x3e32edb4	0.17473489
214	0xbe10db9b	-0.14146273
215	0xbdbe20d7	-0.092836075
216	0x3e248433	0.16066055
217	0xbe46fd49	-0.19432558
218	0xbdc4c7bd	-0.096084096
219	0xbdd93218	-0.10605258
220	0x3e834137	0.25635692
221	0xbdd6ad50	-0.104822755
222	0x3dea6ad4	0.11446157
223	0xbd655f14	-0.055998877
224	0xbd1c0746	-0.038092874
225	0xbe71d830	-0.23617625
226	0xbce4f4d9	-0.027948784
227	0xbbaac418	-0.0052113645
228	0x3e02d94b	0.12778203
229	0xbe1f063f	-0.15529726
230	0xbd5c9bed	-0.05385964
231	0x3bd27370	0.0064224526
232	0x3e1e196b	0.15439384
233	0xbd38d1c1	-0.045121912
234	0xbe1c0a8f	-0.15238403
235	0xbdf43b65	-0.11925391
236	0x3dff83af	0.124762885
237	0xbd93cc82	-0.07216741
238	0x3e3d0e17	0.18462406
239	0xbdc0ff86	-0.09423737
240	0x3e198546	0.14992246
241	0xbdff058c	-0.1245223
242	0xbcf9b8c3	-0.030483609
243	0xbd8e82f6	-0.069585726
244	0xbd3e718c	-0.046495005
245	0xbd01cf48	-0.03169182
246	0xbe66a86c	-0.22525185
247	0xbe92b803	-0.28656015
248	0xbe88ad38	-0.26694655
249	0xbb6a6669	-0.0035766608
250	0xbda62578	-0.08112615
251	0x3e0f16ea	0.13973585
252	0x3dccdbbe	0.1000285
253	0x3e5a7a6d	0.21335764
254	0x3d8dc40b	0.06922158
255	0x3d84410c	0.06457719

lstm.bias_ih_l0 f4 [256]
0	0x3f026572	0.50936043
1	0xbe41d609	-0.18929304
2	0xbd19c690	-0.03754288
3	0xbde563f4	-0.11200705
4	0x3e9c2214	0.3049475
5	0x3e8c91cd	0.27454987
6	0xbd458981	-0.048226837
7	0xbcca2651	-0.024676474
8	0x3ead9b90	0.33907747
9	0xbd4c72c3	-0.049914133
10	0x3dc49a9c	0.09599802
11	0xbd83edf5	-0.06441871
12	0x3de2b598	0.110697925
13	0xbd12b5b2	-0.03581781
14	0x3d7168db	0.05893789
15	0x3dc0f565	0.09421805
16	0x3d118897	0.035530653
17	0x3e139ed3	0.14416055
18	0xbdf20142	-0.11816646
19	0x3ccc6895	0.024952212
20	0xbd43e0f5	-0.047821958
21	0x3e467ac5	0.1938277
22	0x3df7a51f	0.12092041
23	0x3e31b7e2	0.17355302
24	0x3db6c737	0.08924716
25	0x3e6f4cc3	0.23369126
26	0x3dab0c33	0.08351936
27	0xbe4bb0c9	-0.19891657
28	0x3eae8bde	0.34091085
29	0x3e81a738	0.2532289
30	0x3dc32474	0.09528437
31	0xbd524857	-0.05133852
32	0xbe2ff180	-0.17181969
33	0xbcf930ff	-0.030418871
34	0x3d3911e6	0.045183085
35	0xbd4962b3	-0.049166393
36	0xbb0404da	-0.0020144493
37	0x3e823867	0.25433657
38	0x3d1d36c1	0.038382296
39	0xbb0ecf72	-0.0021791128
40	0x3ea5a47b	0.3235205
41	0x3e4861f7	0.1956862
42	0x3de9cff2	0.114166155
43	0x3eea6935	0.45783392
44	0x3e06389b	0.13107531
45	0xba793bbc	-0.00095074973
46	0xbe14244d	-0.14466973
47	0x3d7cc7f7	0.06171414
48	0xbd1e247a	-0.038609006
49	0x3dc1997d	0.09453104
50	0xbd82e5a0	-0.06391454
51	0x3e77ea11	0.24210383
52	0xbc5f86b3	-0.013642955
53	0x3e108a5a	0.14115277
54	0x3cde9caa	0.027174313
55	0x3f0133fa	0.50469935
56	0x3e29e327	0.16590558
57	0xbe7f6b12	-0.24943188
58	0xbdee7e0a	-0.11645134
59	0x3e1119f3	0.14170055
60	0x3d514ba6	0.051097535
61	0x3da01126	0.07815771
62	0x3e7ff0e9	0.24994244
63	0x3e5ccdb8	0.2156285
64	0x3e1fd073	0.15606861
65	0x3e2af8c3	0.16696458
66	0xbd2d33a4	-0.042285576
67	0xbcb81ccb	-0.022474667
68	0x3e525ba5	0.20542772
69	0x3d85349a	0.065041736
70	0x3e66d6dd	0.22542901
71	0x3eb0867b	0.344776
72	0x3dcac429	0.09900696
73	0xbce082f4	-0.027406193
74	0xbd0f21b8	-0.034944266
75	0xbd4b831c	-0.049685583
76	0x3e999958	0.29999804
77	0x3ebc0ed4	0.36730063
78	0x3ca763cd	0.02043333
79	0x3e68dbc1	0.2274008
80	0xbdca357a	-0.09873481
81	0x3e14d265	0.14533384
82	0x3def3152	0.11679329
83	0x3da16477	0.0788049
84	0x3d5eec0f	0.05442434
85	0x3e6341a0	0.22193003
86	0x3dfc9137	0.12332385
87	0x3e60f673	0.21969013
88	0xbb2cf5fc	-0.0026391735
89	0x3e8c61d8	0.274184
90	0x3e171b0f	0.14756416
91	0x3dbfdadf	0.09367918
92	0x3ea5b5ce	0.32365268
93	0x3ea74bb2	0.32674938
94	0x3d8c6b43	0.06856396
95	0x3d4b6469	0.049656305
96	0xbe37c337	-0.17945562
97	0x3e102306	0.1407586
98	0xbd8fcf1b	-0.07021924
99	0xbe40d49d	-0.18831106
100	0x3de68820	0.112564325
101	0x3d4cab8e	0.049968295
102	0xbd5a90aa	-0.05336062
103	0xbdd202b3	-0.10254421
104	0x3ea981c0	0.33106804
105	0x3e212674	0.15737325
106	0x3e7660a4	0.24060303
107	0x3e683cb4	0.22679406
108	0x3e3e1c5f	0.1856551
109	0xbd4e7eb2	-0.050413795
110	0x3de993ec	0.11405167
111	0x3e49561f	0.19661759
112	0x3e556993	0.20841055
113	0x3e44bbe9	0.19212307
114	0x3ec24e69	0.37950447
115	0x3e83eedf	0.25768182
116	0xbde63481	-0.11240483
117	0x3b650d06	0.003495039
118	0x3e5660e1	0.20935394
119	0x3ec18b73	0.37801704
120	0x3e18a05c	0.14904922
121	0xbd4e9895	-0.050438482
122	0xbc244820	-0.010026962
123	0x3e941ac7	0.2892668
124	0xbc0bad90	-0.008525267
125	0xbe3b2be4	-0.18278462
126	0x3e970ebc	0.2950343
127	0x3e3a7bc0	0.1821127
128	0x3e375e10	0.17906976
129	0x3d9ad229	0.07559616
130	0x3decc709	0.115614004
131	0x3e2f16b4	0.17098504
132	0xbe9bbda8	-0.30418134
133	0x3dfd15a6	0.12357645
134	0xbddc0f90	-0.10745156
135	0x3cfbcfcc	0.030738734
136	0x3d8d24d9	0.06891794
137	0xbd15bb3f	-0.036555525
138	0xbd333f49	-0.043761525
139	0xbc08f23d	-0.008358535
140	0x3e11af77	0.14227091
141	0x3dd2c2c0	0.10291052
142	0xbda3df3c	-0.08001563
143	0x3cd5f30c	0.02611687
144	0xbd757bff	-0.059932705
145	0x3d3d40de	0.04620444
146	0x3d29f615	0.041494448
147	0xbd998ff8	-0.07498163
148	0x3dc9af3a	0.09847875
149	0x3dc44195	0.09582821
150	0x3e7474d5	0.23872693
151	0x3e9bc8cc	0.30426633
152	0xbe62b2d9	-0.22138537
153	0x3d69281c	0.056923017
154	0x3e29eca0	0.16594172
155	0x3e16e3a3	0.14735274
156	0x3c4079e5	0.011747812
157	0x3eb07d37	0.3447053
158	0x3e723367	0.23652421
159	0xbe527e05	-0.20555885
160	0x3dccdb21	0.10002733
161	0x3e63bee3	0.22240786
162	0xbd9786c4	-0.073987514
163	0xbe9b7ffe	-0.30371088
164	0xbe50cb2e	-0.20390007
165	0xbdb23278	-0.087010324
166	0x3dd19837	0.10234111
167	0x3dee4f32	0.11636199
168	0xbd5f749d	-0.05455457
169	0x3c5cabe8	0.01346872
170	0x3dd70777	0.10499471
171	0x3e0d7879	0.13815488
172	0xbe1b3af3	-0.15159206
173	0x3dff7959	0.12474317
174	0x3ce8bea9	0.028411226
175	0x3e14bf8f	0.14526199
176	0xbd26a4dc	-0.040684566
177	0xbe67ed17	-0.22649036
178	0x3deeb29b	0.1165516
179	0x3e031961	0.1280265
180	0xbd1a21f2	-0.03763003
181	0xbe497a0f	-0.19675468
182	0x3e128a62	0.14310601
183	0x3e6c5dc9	0.23082651
184	0x3dc7909a	0.097443774
185	0x3cf75548	0.030192032
186	0xbd74e95f	-0.059792873
187	0xbd0c8391	-0.03430516
188	0xbdf2ed39	-0.11861653
189	0xbe793a3b	-0.2433862
190	0xbe99bf25	-0.30028644
191	0x3d714cb9	0.05891106
192	0x3eafcb5e	0.34334844
193	0xbd7f20f6	-0.062287293
194	0xbddbe192	-0.107363835
195	0xbd9a6985	-0.075396575
196	0x3ef88b8e	0.48543972
197	0x3e9b0821	0.3027964
198	0xbe6e71c6	-0.23285589
199	0x3e30fd3c	0.17284101
200	0x3ee255b9	0.44206026
201	0x3def44a8	0.11683017
202	0x3e001a83	0.12510113
203	0xbde670d6	-0.112519905
204	0xbc3edc56	-0.011649212
205	0x3d9ece27	0.07754164
206	0xbe9dff05	-0.30858627
207	0x3dd3dc1c	0.10344717
208	0xbddabf91	-0.1068107
209	0xbccd4ab6	-0.025060039
210	0x3dbd6499	0.09247703
211	0x3e3770b8	0.17914093
212	0xbd17eede	-0.037093036
213	0x3e28f4c4	0.1649962
214	0x3e4be16c	0.1991021
215	0x3ecb1c30	0.39669943
216	0xbdd9928b	-0.10623654
217	0x3e3a4439	0.18190087
218	0x3e566a53	0.20938997
219	0xbd1329f0	-0.035928667
220	0x3e81bb54	0.25338233
221	0x3e23c1ae	0.15991852
222	0x3eaa177b	0.3322104
223	0xbe3a297f	-0.18179892
224	0x3d467ded	0.048459936
225	0xbc49831e	-0.012299327
226	0xbdae279a	-0.08503647
227	0xbd305a69	-0.04305497
228	0x3e143fd9	0.14477481
229	0x3e0ccc58	0.13749826
230	0xbd57c791	-0.052680556
231	0xbc03948f	-0.008031025
232	0x3f07c2d7	0.53031677
233	0xbde55890	-0.111985326
234	0x3e147e44	0.14501292
235	0x3eb5c2db	0.35500225
236	0xbc578842	-0.013155045
237	0x3cf4e90c	0.029896282
238	0x3dd77366	0.105200574
239	0x3dcdbd7f	0.10045909
240	0xbdae09ce	-0.08497964
241	0x3e5b9585	0.21443756
242	0x3eb34665	0.35014644
243	0x3ee0f91d	0.43940058
244	0x3e2832b1	0.16425587
245	0xbc6bd46c	-0.014393907
246	0xbe23d020	-0.15997362
247	0x3f02c780	0.5108566
248	0x3e5d0d78	0.21587169
249	0xbe8a8f89	-0.27062634
250	0x3df2dbb8	0.11858314
251	0x3e0e0b9f	0.1387162
252	0xbdb810b5	-0.089875616
253	0xbcecf60c	-0.028925918
254	0x3ecf45c4	0.40482914
255	0x3cb6f471	0.022333356

lstm.bias_hh_l0 f4 [256]
0	0x3eb660be	0.35620683
1	0xbdbd4d11	-0.09243215
2	0x3db24dcc	0.08706245
3	0xbe8c8f54	-0.274531
4	0x3eb57b5b	0.35445675
5	0x3e71bbbe	0.23606774
6	0xbdef9317	-0.11697977
7	0x3e4c0a07	0.199257
8	0x3e9f3ae6	0.31099623
9	0x3d865933	0.06559982
10	0x3df654d0	0.120278955
11	0xbd83f95f	-0.06444048
12	0xbd65e7cc	-0.05612926
13	0xbe1314c4	-0.1436339
14	0xbc82f97d	-0.015988106
15	0xbc5f8438	-0.013642363
16	0x3e13f0b2	0.14447287
17	0x3e31387a	0.173067
18	0xbd9b5c59	-0.07585973
19	0xbd92dc08	-0.07170874
20	0xbdcb9139	-0.099398084
21	0x3e66d7ce	0.2254326
22	0x3e2b15b9	0.16707505
23	0x3e7c06ff	0.24612044
24	0x3e0756db	0.13216726
25	0x3ddbe163	0.107363485
26	0xbd97bdb0	-0.07409227
27	0xbe5e20c3	-0.21692185
28	0x3ed6c9e9	0.4195092
29	0x3dca468b	0.09876736
30	0x3e93a2e4	0.28835213
31	0x3d6575cb	0.05602054
32	0xbc9f7052	-0.019462738
33	0x3c1c2ffb	0.009532924
34	0xbd1abae0	-0.037775874
35	0xbd858c06	-0.06520848
36	0xbd360240	-0.04443574
37	0x3eb22b1b	0.34798512
38	0x3df0a16d	0.117495395
39	0xbc038d1f	-0.008029251
40	0x3e727957	0.236791
41	0xbcef5156	-0.029213589
42	0xbdb1ff80	-0.08691311
43	0x3ea41b85	0.32052246
44	0x3dbf0610	0.09327328
45	0xbd1c7995	-0.038201887
46	0x3d64ff11	0.055907313
47	0xbcb9d811	-0.022686036
48	0xbc110512	-0.0088513065
49	0x3e89b3cc	0.26894987
50	0x3b71fe2a	0.0036925175
51	0x3ebd7e89	0.370106
52	0xbdd38911	-0.10328878
53	0x3d020d09	0.031750713
54	0xbddebd34	-0.108759314
55	0x3eea53a8	0.4576695
56	0x3df5fe06	0.12011342
57	0xbdc4e7d8	-0.09614533
58	0x3ded8d0e	0.1159917
59	0x3dfba44e	0.12287198
60	0x3d2a73d7	0.04161438
61	0x3d7d0827	0.061775353
62	0x3e0df24e	0.13861963
63	0x3edbe0bb	0.42944893
64	0x3d70cdd6	0.05879005
65	0x3cefcc43	0.029272204
66	0x3d3900de	0.045166843
67	0xbe3b2292	-0.18274906
68	0x3e56151e	0.20906493
69	0x3e0d46b3	0.13796501
70	0x3e68c0f2	0.22729853
71	0x3e726b24	0.23673683
72	0xbbe99059	-0.0071278033
73	0x3c58957e	0.013219235
74	0xbc222653	-0.0098968325
75	0x3e1e4411	0.15455653
76	0x3e70a842	0.23501685
77	0x3e9c2230	0.30494833
78	0x3da728ed	0.08162103
79	0x3e632423	0.22181754
80	0x3d07a344	0.033114687
81	0xbcb4d286	-0.022073042
82	0x3dd5eee6	0.10445957
83	0x3e5ad6b0	0.2137096
84	0x3e3acc9d	0.18242116
85	0x3e7f4b91	0.2493117
86	0x3e4d5018	0.20050085
87	0x3ea3d186	0.3199579
88	0xbc25b5dc	-0.010114159
89	0x3e671612	0.22567013
90	0x3e08d4ad	0.1336238
91	0x3dc3d7e4	0.09562662
92	0x3ec81a63	0.3908263
93	0x3ea4d1af	0.32191226
94	0x3e6787fd	0.22610469
95	0x3d1e4b66	0.038646124
96	0xbe540424	-0.20704705
97	0x3e254f47	0.16143523
98	0xbce16b61	-0.027517023
99	0xbdf2102d	-0.118194915
100	0x3e930807	0.28717062
101	0x3e0678b5	0.13131984
102	0xbd142714	-0.03617008
103	0xbd13c62a	-0.036077656
104	0x3e9902e4	0.29885018
105	0x3cd8a83b	0.026447406
106	0x3e149e7e	0.14513585
107	0x3ed0cda8	0.40781903
108	0x3df49a63	0.119435094
109	0x3dea0ea7	0.11428576
110	0xba90232f	-0.0010996814
111	0x3e624831	0.22097851
112	0x3d7bb08e	0.061447673
113	0x3df6cbe6	0.12050609
114	0x3e8a96f8	0.27068305
115	0x3e340383	0.17579465
116	0xbdd69f51	-0.10479606
117	0xbd8f076f	-0.0698384
118	0x3cefb497	0.029260917
119	0x3ea1f766	0.31634063
120	0x3e288ad1	0.16459204
121	0x3dade97b	0.084917985
122	0xbc99f5e2	-0.018794004
123	0x3e867080	0.26257706
124	0x3e3c68db	0.18399374
125	0xbcee7aa2	-0.02911121
126	0x3e0732bd	0.13202949
127	0x3e693666	0.22774658
128	0x3c2b078c	0.010438811
129	0x3e41821d	0.1889729
130	0x3e0640e5	0.13110693
131	0x3e001390	0.12507463
132	0xbe6d24fa	-0.23158637
133	0x3e306dc0	0.17229366
134	0xbe01d447	-0.12678634
135	0x3e148bb5	0.14506419
136	0x3c646b49	0.013941594
137	0xbd867d09	-0.06566817
138	0x3ddcb8ca	0.10777433
139	0x3dbf02a8	0.093266785
140	0x3e0d6d46	0.13811216
141	0x3d3e6f81	0.046493057
142	0x3c319be1	0.010840387
143	0x3e0052cc	0.12531585
144	0xbe2017b3	-0.1563404
145	0x3df68fdb	0.12039157
146	0xbe1dd4cf	-0.15413211
147	0xbdbe6c2b	-0.09297975
148	0x3bda4021	0.006660477
149	0x3e4f6927	0.20254956
150	0x3dd278dd	0.10276959
151	0x3e7a3971	0.24435975
152	0xbe046c49	-0.12931933
153	0xbd45dfba	-0.048309065
154	0x3e50b0eb	0.20379989
155	0x3e748450	0.23878598
156	0xbe57e689	-0.21084036
157	0x3e976377	0.29568073
158	0x3df9f469	0.12204821
159	0xbe121aa0	-0.14267969
160	0xbd0a9e2f	-0.033842262
161	0x3cb5348a	0.02211978
162	0xbdb742d8	-0.08948296
163	0xbe1d1fb8	-0.15344131
164	0xbe857334	-0.26064456
165	0xbdffa06c	-0.1248177
166	0x3d4858ba	0.04891274
167	0x3deff711	0.11717046
168	0xbdf0da99	-0.11760444
169	0xbd7a7879	-0.061150048
170	0x3d413915	0.04717358
171	0xbdabf5ee	-0.08396517
172	0x3c99bb51	0.018766077
173	0x3e134508	0.14381802
174	0x3df836f4	0.121198565
175	0x3ddd51cd	0.10806618
176	0xbdd9c56b	-0.106333576
177	0xbe1b80eb	-0.15185897
178	0x3e1aa50c	0.15102023
179	0x3d535e35	0.051603515
180	0x3d344bee	0.044017725
181	0xbd72f410	-0.059314787
182	0x3e46c945	0.19412716
183	0x3e2be854	0.16787845
184	0x3cb911f0	0.022591561
185	0x3b851823	0.004061715
186	0x3cde8c41	0.027166488
187	0x3d6bcb64	0.057567015
188	0xbdceaa07	-0.10091024
189	0xbdfd48e9	-0.12367422
190	0xbe0e4a41	-0.13895513
191	0xbde32d3e	-0.11092614
192	0x3e8de59c	0.2771424
193	0xbdb11d5d	-0.08648179
194	0xbe8351bd	-0.256483
195	0xbe648c5c	-0.22319168
196	0x3f0277bb	0.50963944
197	0x3e93286d	0.2874178
198	0xbe95f6a4	-0.29289734
199	0x3c5a81d4	0.0133366175
200	0x3e7e5858	0.24838388
201	0x3d928798	0.07154769
202	0x3e847e34	0.25877535
203	0xbe6374dc	-0.22212547
204	0xbd855df8	-0.06512064
205	0x3e07b81d	0.13253827
206	0xbe2d3940	-0.1691637
207	0xbc1e888c	-0.00967611
208	0x3caadb2e	0.020856466
209	0x3c731e09	0.014838704
210	0xbd31c7a9	-0.0434033
211	0x3dd45826	0.103683755
212	0x3e367717	0.17818867
213	0x3e87878d	0.26470605
214	0x3e02bc71	0.12767197
215	0x3ebcb889	0.3685954
216	0xbe824af9	-0.25447825
217	0x3d9cf4a7	0.07663851
218	0x3dfe12a6	0.12405901
219	0xbd2bc23c	-0.041933283
220	0x3ec1a585	0.37821594
221	0x3e870bbd	0.26376143
222	0x3e0fa547	0.14027892
223	0xbe3f3b2f	-0.1867492
224	0x3da1aa3a	0.07893796
225	0xbc6cc3d1	-0.014450983
226	0xbe038aa5	-0.12845857
227	0x3d01e90c	0.03171639
228	0x3c1e551b	0.009663845
229	0x3e6ff056	0.23431525
230	0x3a584a63	0.00082508306
231	0xbe1bd0fa	-0.15216437
232	0x3ef804f6	0.48441285
233	0x3d96a877	0.07356351
234	0x3e5851d2	0.21124962
235	0x3e1216c9	0.14266504
236	0xbe2c87de	-0.16848704
237	0xbe146a96	-0.14493784
238	0x3dbab972	0.09117402
239	0xbce695a4	-0.028147526
240	0xb9fcc679	-0.0004821306
241	0x3e8eb818	0.27874827
242	0x3eb4d94a	0.35322028
243	0x3e677c9c	0.22606128
244	0x3dc5ca5b	0.09657737
245	0x3e0ea7a3	0.13931136
246	0xbdae47e8	-0.08509809
247	0x3edc5572	0.4303394
248	0x3ec27ea7	0.37987253
249	0xbe05a428	-0.13050902
250	0x3dfc980a	0.12333687
251	0x3e31a515	0.1734813
252	0xbcf5b65c	-0.029994182
253	0xbdc70b14	-0.0971891
254	0x3efad44e	0.489901
255	0x3d23a37b	0.03995083

head.weight f4 [24, 64]
0	0xc1a7615e	-20.922543
1	0x41a57945	20.684214
2	0xc1ae0296	-21.751263
3	0xc1adda80	-21.73169
4	0xc1abad8c	-21.45974
5	0x41ac3421	21.525454
6	0xc1ad02df	-21.626402
7	0xc1a74a6c	-20.911339
8	0x41ae1c12	21.763706
9	0x419e25c8	19.768448
10	0x41aeea39	21.864367
11	0xc1b117df	-22.136656
12	0xc1ad985e	-21.699398
13	0x41abfc7f	21.49829
14	0x4198ef16	19.116741
15	0x41abe946	21.488903
16	0xc19396c8	-18.448624
17	0xc1adc249	-21.719866
18	0xc1aa4be0	-21.287048
19	0xc1a5817a	-20.688221
20	0x41a8a8de	21.082455
21	0xc1abe3d2	-21.48624
22	0x41ac9cc9	21.576555
23	0x41ab9c8b	21.451437
24	0x41aa9cb7	21.32652
25	0x41ae0ef7	21.757307
26	0x41ad778c	21.683372
27	0x41aa2481	21.267824
28	0xc1aebe30	-21.842865
29	0x41adf4a6	21.744457
30	0x41abc6d6	21.472088
31	0x41ad8953	21.692053
32	0x41aaeb9a	21.36504
33	0xc1ae042d	-21.752039
34	0x41a58933	20.691992
35	0x41ac670d	21.550318
36	0xc1ad7cde	-21.68597
37	0xc1ae77ec	-21.808556
38	0xc1a3df5e	-20.484066
39	0xc1a41085	-20.508066
40	0xc1acb6f4	-21.589333
41	0xc1aaf371	-21.368868
42	0xc1a76100	-20.922363
43	0x41ad4371	21.65793
44	0x41ae575a	21.792652
45	0x41b1358c	22.151146
46	0xc165c5ec	-14.360821
47	0x41ac1fb6	21.515484
48	0x4180d99d	16.106256
49	0x41ab4abe	21.411495
50	0x41a8263d	21.018671
51	0x41adda4b	21.731588
52	0xc1a83ae3	-21.028753
53	0x41965c3b	18.795034
54	0x41adcc7a	21.724842
55	0x41ac57d3	21.542883
56	0x41acff24	21.62458
57	0xc1a77f7e	-20.937252
58	0x41a19e0f	20.202177
59	0xc1ae2021	-21.765688
60	0x41af54cd	21.916407
61	0x419ebf21	19.843325
62	0xc1ac6f72	-21.554417
63	0xc1ae20d4	-21.76603
64	0xc1a895e2	-21.073185
65	0x41a6927b	20.821524
66	0xc1acfa48	-21.622208
67	0xc1af14bf	-21.88513
68	0xc1ac861b	-21.565481
69	0x41ac18eb	21.512167
70	0xc1acdcbf	-21.607786
71	0xc1a6ea2f	-20.864347
72	0x41ae4608	21.784195
73	0x419f552c	19.916588
74	0x41ae9de1	21.82709
75	0xc1afbf35	-21.968363
76	0xc1aef1ec	-21.868126
77	0x41ad8c2f	21.693449
78	0x41981de7	19.0146
79	0x41ab124d	21.383936
80	0xc192c4be	-18.346066
81	0xc1ae70b3	-21.805029
82	0xc1aaa668	-21.331253
83	0xc1a42145	-20.516245
84	0x41a7e41e	20.986385
85	0xc1abed7e	-21.490963
86	0x41add2e0	21.727966
87	0x41acffeb	21.62496
88	0x41aa760d	21.307642
89	0x41aebb01	21.84131
90	0x41ad0dab	21.631674
91	0x41ab7f5e	21.437191
92	0xc1adc777	-21.722395
93	0x41acac84	21.584236
94	0x41ab9d13	21.451696
95	0x41ab873e	21.441036
96	0x41ab5808	21.417984
97	0xc1ad7357	-21.681318
98	0x41a6819b	20.813284
99	0x41abf0d7	21.492598
100	0xc1ad94b7	-21.697615
101	0xc1ae1562	-21.76044
102	0xc1a3c86c	-20.472862
103	0xc1a46344	-20.54847
104	0xc1ac4a04	-21.53614
105	0xc1ac32b7	-21.524763
106	0xc1a85c3a	-21.045033
107	0x41ad7f61	21.687197
108	0x41adc564	21.721382
109	0x41af8354	21.939125
110	0xc1683039	-14.511773
111	0x41abfb84	21.49781
112	0x4181bfd5	16.218668
113	0x41a9ef0f	21.241728
114	0x41a89baa	21.076008
115	0x41add5bf	21.729368
116	0xc1a85bdd	-21.044855
117	0x41959bbb	18.70104
118	0x41aebd0b	21.842306
119	0x41abfa0b	21.497091
120	0x41abf019	21.492235
121	0xc1a87346	-21.056286
122	0x41a2bb88	20.341568
123	0xc1adcb61	-21.724306
124	0x41ae17a5	21.761545
125	0x419e199b	19.762503
126	0xc1aba05e	-21.453304
127	0xc1ae55a2	-21.791813
128	0xc1a8a690	-21.08133
129	0x41a5f9f8	20.747055
130	0xc1ad1efc	-21.64013
131	0xc1ad972a	-21.69881
132	0xc1ab7b8c	-21.435326
133	0x41acdc21	21.607485
134	0xc1ad16a5	-21.636057
135	0xc1a6ff91	-20.874788
136	0x41add31d	21.728083
137	0x419f1eda	19.890064
138	0x41aed1ce	21.852444
139	0xc1b081d2	-22.063389
140	0xc1adec87	-21.740492
141	0x41ac8e93	21.569616
142	0x41999830	19.19931
143	0x41ab8481	21.4397
144	0xc192320b	-18.274435
145	0xc1aedb0d	-21.856958
146	0xc1aa4212	-21.28226
147	0xc1a45595	-20.541788
148	0x41a8aca1	21.084291
149	0xc1aa7d1e	-21.311092
150	0x41ae1134	21.7584
151	0x41ad109d	21.633112
152	0x41aaa87d	21.33227
153	0x41ae69bf	21.801634
154	0x41ad00a3	21.62531
155	0x41aa79e4	21.309517
156	0xc1addc5c	-21.732597
157	0x41ad4855	21.660318
158	0x41ac354a	21.52602
159	0x41ac3b7c	21.529045
160	0x41ab1e88	21.389908
161	0xc1ac0a1a	-21.504932
162	0x41a50f59	20.632494
163	0x41aaea97	21.364546
164	0xc1ae265f	-21.768736
165	0xc1ad7cc8	-21.685928
166	0xc1a3a927	-20.457594
167	0xc1a3c8cf	-20.473051
168	0xc1ad3fcb	-21.656149
169	0xc1aaf5b2	-21.369968
170	0xc1a7e1bb	-20.98522
171	0x41ad3a1d	21.653376
172	0x41ad415d	21.656916
173	0x41af2332	21.892185
174	0xc166b315	-14.418721
175	0x41abdbee	21.482388
176	0x4180bdb2	16.092625
177	0x41aba065	21.453318
178	0x41a8dbf2	21.107395
179	0x41acd963	21.606146
180	0xc1a7f3df	-20.994078
181	0x41957cbf	18.685911
182	0x41af18f6	21.887188
183	0x41acb1c6	21.586803
184	0x41ac927b	21.571524
185	0xc1a7d7af	-20.980314
186	0x41a28c38	20.318466
187	0xc1ae5498	-21.791306
188	0x41ae93fa	21.822254
189	0x419f4ced	19.912561
190	0xc1ad157a	-21.635487
191	0xc1aeaaac	-21.833336
192	0xc1a74d65	-20.91279
193	0x41a70284	20.876228
194	0xc1ad10f5	-21.63328
195	0xc1adff09	-21.749529
196	0xc1ab1a73	-21.387915
197	0x41ad2504	21.643074
198	0xc1adffc5	-21.749887
199	0xc1a66c76	-20.80296
200	0x41adb0b9	21.71129
201	0x419e7f56	19.812176
202	0x41ae0b01	21.755373
203	0xc1b11004	-22.13282
204	0xc1adf00c	-21.74221
205	0x41aca395	21.579874
206	0x4198e8e1	19.11371
207	0x41ab005a	21.375172
208	0xc1934c35	-18.41221
209	0xc1ae99b9	-21.82506
210	0xc1a9d18e	-21.227322
211	0xc1a54fc9	-20.663958
212	0x41a7ce38	20.975693
213	0xc1abbf3b	-21.468374
214	0x41ad2cea	21.64693
215	0x41aca5a5	21.580881
216	0x41aa494d	21.285791
217	0x41adb7dd	21.714777
218	0x41ac5b09	21.54445
219	0x41a9e5dc	21.237236
220	0xc1aeb605	-21.838877
221	0x41ae109c	21.75811
222	0x41ab5f6d	21.421595
223	0x41ab57c8	21.417862
224	0x41a99abe	21.200558
225	0xc1adb610	-21.713898
226	0x41a58a3e	20.692501
227	0x41ab9586	21.44801
228	0xc1ae951a	-21.822803
229	0xc1af0b14	-21.88041
230	0xc1a3aba4	-20.458809
231	0xc1a4ec9a	-20.615528
232	0xc1abe2d3	-21.485754
233	0xc1aaf5f9	-21.370104
234	0xc1a77633	-20.932714
235	0x41ac1231	21.508883
236	0x41ac64f5	21.549295
237	0x41afc29d	21.970026
238	0xc1669e8d	-14.413709
239	0x41abf0b1	21.492525
240	0x41808aea	16.06783
241	0x41ab67fd	21.425776
242	0x41a8c7ec	21.097618
243	0x41ac06bd	21.50329
244	0xc1a7b278	-20.962143
245	0x419630d5	18.773844
246	0x41af2ebf	21.897825
247	0x41abaa1c	21.458061
248	0x41acc43b	21.595816
249	0xc1a82c8c	-21.021751
250	0x41a1bad8	20.216232
251	0xc1aea4c2	-21.830448
252	0x41ae3294	21.774696
253	0x419fa24d	19.954248
254	0xc1abc665	-21.471872
255	0xc1aec742	-21.847294

head.bias f4 [24]
0	0x41ab483a	21.410267
1	0x41aaa1ef	21.32907
2	0x41ab4412	21.408237
3	0x41ac0cae	21.506191
4	0x41abd37d	21.478266
5	0x41abd5a1	21.479311
6	0x41ab2613	21.39359
7	0x41abdb34	21.482033
8	0x41aaa431	21.330172
9	0x41ab36f2	21.401829
10	0x41abe0f3	21.484838
11	0x41ab4415	21.408243
12	0x41aa9c69	21.326372
13	0x41aabb50	21.341461
14	0x41aa84db	21.31487
15	0x41aa81a5	21.313303
16	0x41ab5a8d	21.419214
17	0x41ab6140	21.422485
18	0x41aaabbb	21.333853
19	0x41ab2ecc	21.39785
20	0x41aa54a2	21.291325
21	0x41aa8885	21.31666
22	0x41aa97d5	21.324137
23	0x41aa2801	21.269533
