artifacts/lstm/d2_best.pt (torch, 77153 bytes, 6 tensors)

lstm.weight_ih_l0 f4 [256, 1]
000000 89 30 18 3e 0e 99 10 3f f7 36 0f 3f b6 4c dc 3e
       0.14862265 0.5648354 0.55943245 0.43027276
000010 ff 54 eb 3f 68 2d a9 3e da c2 66 3f 2f 93 94 3f
       1.8385314 0.33042455 0.9014107 1.1607417
000020 68 84 e4 3e 16 e6 0b 3f fe 07 88 3f e8 00 97 3d
       0.44632268 0.5464796 1.0627439 0.0737322
000030 03 14 6f 3e d6 09 29 3f 0c f1 84 3f 72 02 0d 3f
       0.23347478 0.66030633 1.0386062 0.55081856
000040 02 6c a9 3e 62 01 f7 3e 2e d8 c1 3f 49 83 a6 3f
       0.33090216 0.48243243 1.5144098 1.3008815
000050 e4 d3 4f 3f 79 ea da 3f 03 6b a8 3f 9a 03 0e 3f
       0.81182694 1.7102805 1.3157657 0.55474246
000060 2a df 41 3f 9b fd a8 3e ae 2d 27 3f 88 0b 21 3d
       0.75731146 0.33005986 0.65304077 0.039317638
000070 27 91 c5 3e 9e 84 b1 3e 0c 15 d2 3e c4 39 fc 3e
       0.38587305 0.3467149 0.41031682 0.49262822
000080 5d 14 98 3d 46 3e ea 3f 33 d1 30 3e 11 cb 27 3f
       0.07425759 1.8300254 0.17267303 0.6554423
000090 11 49 63 3f b8 b3 2c 3f e3 45 0d 3f 08 e7 56 3f
       0.88783365 0.6746173 0.55184764 0.83946276
0000a0 3d 32 39 3f 48 9f 4b 3f 08 63 2f 3f a1 20 49 3e
       0.7234228 0.7953992 0.68510485 0.19641353
0000b0 df 1c 4c 3f 67 f0 0f 3f d4 b4 5f 3f 0d 64 56 3f
       0.79731554 0.562262 0.87385297 0.83746415
0000c0 2d a5 57 3e e6 9c 35 3f 8b 97 4f 3f 67 fc 5d 3f
       0.21059103 0.70942533 0.8109061 0.8671326
0000d0 bb 93 08 40 4a 5c 87 3f 08 90 b6 3f 9a e7 eb 3e
       2.1340168 1.0575039 1.4262705 0.46075135
0000e0 04 b8 9e 3e 1b 71 22 3f 62 b4 1a 3f b7 5b 73 3f
       0.30999768 0.63453835 0.6043149 0.9506182
0000f0 09 23 18 3f 95 4a 9a 3e cf 33 56 3f 32 3d 83 3f
       0.5942846 0.30135027 0.83672804 1.025305
000100 1c 8b 68 3e d9 e7 0d 3e e8 e9 dc 3e 08 c8 2b 3c
       0.22709316 0.13857974 0.43147206 0.010484703
000110 da e7 13 40 d7 5f 9d 3e 20 35 e5 3f 93 b3 0e 40
       2.311026 0.30737182 1.7906837 2.2297103
000120 fb 57 f2 3f 4e 62 c6 3f 50 9f fb 3f 42 58 9e 3e
       1.89331 1.549875 1.9657993 0.3092671
000130 f6 c2 6b 3e b6 f6 00 3f 53 3e 65 3f e4 2d 80 3e
       0.2302359 0.5037645 0.89548224 0.25035012
000140 e8 7c db 3e aa cb 21 3f 9c 5d 2d 40 a7 98 d7 3f
       0.42868733 0.6320139 2.7088385 1.6843461
000150 d9 36 5e 3f 66 69 1c 40 dd cf 50 3f 29 00 bd bc
       0.8680244 2.443933 0.81567174 -0.023071365
000160 27 d7 48 3f 67 5a 7f 3c a9 21 07 3f 11 e7 22 3f
       0.78453296 0.015585518 0.52785736 0.6363383
000170 57 a0 88 3f 44 b0 56 3f 26 d1 df bd 57 a6 0e 3f
       1.0673932 0.8386271 -0.10928564 0.55722564
000180 ef 91 59 be 02 ce 13 40 f4 d9 92 3e a9 90 b9 3e
       -0.21247075 2.3094487 0.2868191 0.3624318
000190 fd 56 3a 3f 04 3e 99 3e 4e f4 fe 3e 32 2d 2e 3e
       0.72788984 0.29930127 0.49795765 0.17009428
0001a0 b9 0f 2d 3f 88 b9 ff 3e 82 90 ab 3e 07 54 13 bf
       0.67602116 0.49946237 0.33508688 -0.5755009
0001b0 ed 2b f7 3e 17 38 49 3e 67 f5 2c 3f 1b ce 9a 3f
       0.482757 0.19650303 0.67561954 1.2094148
0001c0 f4 fd d5 3d c7 25 03 3f 99 c4 0e 40 89 ed 15 3f
       0.10448828 0.5122952 2.2307494 0.58565575
0001d0 0b cc 29 40 91 31 bf 3f 2f 5b b9 3f 03 7d f6 3f
       2.6530788 1.4937001 1.4480952 1.92569
0001e0 78 6c 93 3e a8 ae ad 3f 59 db bb 3e 03 c5 ff 3f
       0.28793693 1.3568926 0.36690786 1.9981998
0001f0 81 d3 d3 3f 1f 87 9b 3e 55 ea 13 3f 9a f9 3f 3f
       1.6548921 0.30376527 0.5777944 0.74990237
000200 62 0c 15 be 13 b6 e6 3e 52 e7 10 bf 67 11 b1 3e
       -0.14555505 0.45060787 -0.56602967 0.3458359
000210 77 a4 27 3f 8b c9 4e be f0 51 c6 3e e8 39 87 bf
       0.6548533 -0.2019407 0.38734388 -1.0564547
000220 1c 58 bb 3f 29 d7 f1 bf de f4 d3 3f a6 cc 96 bf
       1.4636264 -1.8893787 1.6559103 -1.1781204
000230 c4 7a 66 3e 21 00 a1 3e 27 09 07 bf 75 bf b9 be
       0.22507769 0.3144541 -0.5274834 -0.36278883
000240 93 f5 8d be fe f1 b2 3f 76 06 78 bf cf 3c 12 bf
       -0.2772642 1.39801 -0.9688486 -0.57124037
000250 e4 e9 cb bd b4 be 07 bf f3 85 0e bf b6 39 f7 3e
       -0.099567205 -0.53025365 -0.5567314 0.48286217
000260 23 cb 0d bf 40 f4 0d 3f c8 f2 a8 be b0 02 63 bf
       -0.5538809 0.5545082 -0.32997727 -0.88675976
000270 79 e2 b1 3f f9 6a b9 bf a3 19 67 3f 26 fc 63 3e
       1.3897239 -1.448577 0.90273494 0.22264156
000280 0b bc 3b 3d e0 95 a5 be 52 fa 9d be 2c 79 d8 be
       0.04583363 -0.32340908 -0.30855042 -0.42279947
000290 c7 30 11 bf 96 c2 a8 3e 9b bb a7 be 28 06 0a 3f
       -0.56715053 0.32960957 -0.3276032 0.53915644
0002a0 50 b9 b9 be 57 15 07 bf 04 bc eb be ac 08 67 3e
       -0.36274195 -0.52766937 -0.46041882 0.22561902
0002b0 ba 38 ff be df 7a fd 3e 8e 78 e9 3e 90 3f 00 3f
       -0.49847966 0.49507806 0.45599788 0.5009699
0002c0 24 6f 01 bf 74 b5 c6 3e 24 72 8d 3f 02 d4 db 3e
       -0.5056021 0.38810313 1.1050458 0.42935187
0002d0 ad 82 10 3f ea 3f f7 3e 83 c2 80 3f dc e9 b4 3f
       0.56449395 0.4829095 1.005936 1.4133868
0002e0 ae 49 25 be ab b7 71 bf 25 a6 aa be 3f 4d 9a bf
       -0.16141388 -0.9442088 -0.33329883 -1.2054824
0002f0 64 ee a6 3f 9b 2c 89 bc fe 38 d2 be 39 54 14 bf
       1.3041501 -0.016744902 -0.41059107 -0.57941014
000300 ab e2 75 3f 79 87 b8 3f 76 a7 17 3f 05 c6 90 3d
       0.9604899 1.4416343 0.592399 0.07069019
000310 bd c5 33 3f ff aa e0 3f c1 7a 32 3f f3 61 c0 3e
       0.702236 1.7552184 0.6971856 0.3757473
000320 5e f0 c8 3e e1 77 94 3f fa 19 91 3f 23 61 67 3e
       0.39245886 1.1599084 1.1336052 0.22595648
000330 24 f1 c9 3f 2c 0a cc bf b8 f2 7b 3f 00 d4 bf 3f
       1.5776715 -1.5940604 0.98417234 1.4986572
000340 22 ce f4 3f d7 79 8f 3e 9f 7c 6a 3f a4 81 9c 3f
       1.9125407 0.28022644 0.91596407 1.2227063
000350 9a 1d 0d 3f e9 1f 80 3f 1d 20 07 40 57 02 e1 3e
       0.55123293 1.0009738 2.111335 0.43947098
000360 0b 79 1e 3f 18 f0 b8 3e 2a 26 70 3f 6c 95 1a 3e
       0.61903447 0.36120677 0.93808234 0.15096062
000370 19 84 4c 3e 36 f5 97 3e 6d 59 b5 3e c5 28 ec 3f
       0.19972266 0.2967927 0.3541979 1.8449942
000380 6c 32 20 3f e8 9a db 3f a2 df 8b 3f c2 63 36 3f
       0.6257694 1.7156649 1.0927622 0.7124597
000390 c4 bf 5d 3f e5 20 ca 3f 46 f4 27 3f ce 38 6e 3f
       0.86620736 1.5791289 0.65607107 0.9305543
0003a0 b5 b9 a6 3f 1b 6d f4 3e 87 a1 75 3f 15 7c 5e 3f
       1.3025423 0.4773949 0.95949596 0.86908084
0003b0 3b 7f 5d 3f 56 bb 5b 3f 82 6c 92 3f 95 b5 ec 3f
       0.86522263 0.85832727 1.1439364 1.8492914
0003c0 29 67 0f 3f f7 77 92 3f ea 5e b5 3f 8c 13 2c 3f
       0.56016785 1.144286 1.416959 0.67217326
0003d0 dd 23 db 3f d9 5d b6 3f 15 01 c4 3f be 4e 0d 3f
       1.712032 1.424739 1.531283 0.55198276
0003e0 92 5c b9 3f b3 bf 1e 3f 0e dd 39 3f 9b 06 82 3f
       1.4481375 0.6201126 0.7260293 1.0158266
0003f0 a5 70 1e 3f e7 23 82 3f 7c 3f 72 3f 91 e8 bd 3f
       0.6189063 1.0167207 0.9462812 1.4836599

lstm.weight_hh_l0 f4 [256, 64]
000000 37 97 18 be 57 24 7e 3d 4f a6 c9 3d ab 95 a2 bd
       -0.14901434 0.062046375 0.09846174 -0.07938703
000010 02 06 1b 3e db 09 ae be 11 b0 cc bc b1 db 2b bd
       0.1513901 -0.33991894 -0.024986299 -0.04195756
000020 b6 46 4c be d4 96 14 3d dc 4e 19 bd 1b c7 4e 3e
       -0.19948849 0.036276653 -0.03742872 0.2019314
000030 3d b8 b1 3d 19 03 90 be 0e 5f 42 be 6d 82 e1 bc
       0.08677719 -0.28127363 -0.18981573 -0.027528012
000040 e3 35 a8 be c9 da 65 be 1f eb 43 be ec a8 ab 3a
       -0.32853612 -0.22446741 -0.1913266 0.0013096607
000050 c3 ac 73 be 74 7b 23 be cb 62 f0 bd d5 eb 11 be
       -0.23796372 -0.15965062 -0.11737593 -0.14250119
000060 06 3d 66 3e 1f cf d1 bd af 18 fa bd 20 30 87 3e
       0.22484216 -0.10244583 -0.12211739 0.26403904
000070 f0 12 f8 3d 13 9a 59 bd 70 54 8e be 6c a2 3e 3e
       0.12112987 -0.053125452 -0.27798796 0.18616647
000080 be 31 a8 3e 01 af 8d be 12 f6 7a bd 06 3a 15 be
       0.3285045 -0.2767258 -0.061269827 -0.14572915
000090 2c e3 26 be 2d 43 21 3e 4c 2a 15 3e b2 77 1a 3e
       -0.16297597 0.15748282 0.14566916 0.15084723
0000a0 8d 1f 0a be f3 02 46 be 38 1d 88 3d 7d 6a a6 bd
       -0.13488598 -0.19337063 0.06646198 -0.0812578
0000b0 36 ef f8 3d f5 59 74 3b 6a b0 cd 3d c4 31 44 3e
       0.12155001 0.0037285064 0.10043414 0.19159609
0000c0 d8 73 9b bd 31 60 6b 3e 4c 8b 91 3e 62 6d ae bd
       -0.07590455 0.22985913 0.28426588 -0.08516957
0000d0 57 15 90 3e 27 b8 b8 b9 1a 51 53 3e bf 53 2a bd
       0.2814128 -0.0003523242 0.20636407 -0.041583773
0000e0 30 10 d7 bd 29 51 11 be a5 d1 8d be ab 75 97 bd
       -0.105011344 -0.14191116 -0.2769901 -0.0739549
0000f0 98 33 d5 3d 1a 9b 01 be b6 db d3 3c e3 f3 8e bc
       0.10410231 -0.12656823 0.025861602 -0.017450279
000100 d8 9f 33 be 91 ce 88 3e a9 bc 58 3e 44 54 0f be
       -0.17541444 0.26720098 0.21165718 -0.13996989
000110 d7 77 b9 3e e2 64 7a be d6 b8 30 3e 62 2c 01 be
       0.36224243 -0.24452546 0.1725801 -0.12614587
000120 64 2f 8a bd d0 94 60 3e c3 52 16 3d 48 96 15 3d
       -0.0674732 0.21931767 0.03670002 0.036520272
000130 4c 4d 68 3e e7 0e ef bd d9 6b ba bd 91 02 d4 bd
       0.22685736 -0.11672764 -0.091026016 -0.10352052
000140 fb ae 43 be 0e 44 3c bc 6b 40 57 be f3 4b be 3d
       -0.19109719 -0.011490835 -0.21020667 0.0929183
000150 e8 d1 a8 be 11 4d 7c bd 22 39 ef bd 65 41 0a be
       -0.32972646 -0.061596934 -0.11680819 -0.13501509
000160 44 d2 19 3e 99 10 86 be 71 44 43 be d6 3f 73 3d
       0.15021616 -0.26184538 -0.19069077 0.05938705
000170 5d 26 8e 3b 63 88 3b 3e 3e a8 59 be 0d c2 77 3e
       0.0043380694 0.18313746 -0.21255586 0.24195118
000180 90 eb 80 3e f5 78 7a be 30 00 54 be a1 53 04 be
       0.2517972 -0.24460204 -0.20703197 -0.12922527
000190 f0 a4 08 be 5d e7 f7 3e ff 5c 3d be 8f 0f 60 bd
       -0.13344169 0.48418704 -0.18492506 -0.054702338
0001a0 e4 f2 7d bd 9f 71 96 bd 97 b2 6d bd 37 3b 8b 3e
       -0.061999217 -0.0734589 -0.058031645 0.27193615
0001b0 0c b1 4c 3d c9 4c 9c 3e 49 c6 cf 3d 1e 27 97 3e
       0.049973533 0.30527332 0.10145242 0.29522032
0001c0 ca 6e 53 3e a5 fc 55 3e 8d 9f d1 3d 0d 20 8e 3d
       0.20647731 0.20897157 0.1023551 0.06939707
0001d0 83 4b bf 3d 4b 42 72 3e de 25 ce 3d 2d d1 18 be
       0.093405746 0.23658101 0.10065816 -0.14923544
0001e0 55 11 68 be 71 89 9b 3c 51 ee c9 be 7a 01 d9 3d
       -0.22662862 0.018986436 -0.39439633 0.10595985
0001f0 c3 a9 40 be 54 fe 38 be bf 00 08 be 24 be f2 bd
       -0.18814759 -0.18065768 -0.13281535 -0.11852673
000200 4d b6 c7 be c4 76 d6 3e a0 04 af 3e 35 44 b5 bd
       -0.39006272 0.41887486 0.34183216 -0.088509
000210 95 fc 8a 3e 9f b8 ba be 8b 2c a4 3e 87 3a 15 3e
       0.2714583 -0.3646898 0.32065234 0.14573108
000220 e3 81 6c be 61 98 9e 3e e8 57 0c be f4 d8 5a 3e
       -0.23096423 0.3097563 -0.13705409 0.21371824
000230 d0 5e 8a 3e 0d de 8b be 42 1d e9 bd 9c 8c 2e be
       0.2702546 -0.2731785 -0.113825336 -0.17045826
000240 95 21 75 be 59 3e 0f be fe 1e 44 be f4 62 c9 be
       -0.23938592 -0.13988627 -0.19152448 -0.39333308
000250 07 52 c4 be 44 74 38 be 4c f8 05 bf b2 29 a0 3e
       -0.38343832 -0.18013102 -0.52331996 0.3128181
000260 07 51 47 be 30 0a c2 bd 03 f9 79 bd 0e e1 0c 3d
       -0.19464503 -0.09474599 -0.06102849 0.034394316
000270 a6 e0 2f be ab 6b 53 3e ae 2b 44 be 45 cd d1 3e
       -0.1717554 0.20646541 -0.19157287 0.4097692
000280 0b e2 13 3e b1 b8 95 be 74 14 8d be 04 54 e2 be
       0.14441697 -0.2924247 -0.27554667 -0.44204724
000290 f0 9d 18 bf 9d 2b 9b 3e 01 df a7 be b3 41 c0 3e
       -0.59615993 0.30306712 -0.32787326 0.37550125
0002a0 87 e2 1d bf 87 49 9c be 9b 12 da be 4b 06 d5 bd
       -0.6167378 -0.30524847 -0.4259232 -0.10401591
0002b0 00 f1 9d be 23 02 00 3f ce 3f de 3e 85 ce 30 3e
       -0.3084793 0.5000326 0.43408054 0.17266281
0002c0 f0 15 ae 3e 92 6b 67 3e e9 07 20 3e df 7d e1 3e
       0.34001112 0.22599629 0.15628017 0.44041345
0002d0 bd 39 6e 3e 35 c9 a3 3e 4c 2d 93 be 38 7e aa be
       0.23264213 0.31989446 -0.28745496 -0.33299422
0002e0 cf 73 02 be 28 bc c6 3d 3c 9f f8 be ef f1 41 3e
       -0.1273949 0.09703857 -0.48558986 0.18939947
0002f0 b0 e2 39 be d9 b1 b8 be 5a 26 0c bf 3a b4 1b bf
       -0.1815288 -0.36073187 -0.5474602 -0.6082188
000300 a5 c3 ae 3d 72 0b 1e bb c6 ba 49 be 59 48 ad bc
       0.0853341 -0.0024115709 -0.19700155 -0.021152662
000310 1d a9 95 3e c8 cc 66 3d e2 23 2b 3c 3a 50 e7 be
       0.29230586 0.05634764 0.010445567 -0.45178396
000320 49 99 c7 3e 53 a3 fe be 6c 5a 02 3f 5a 3a 43 be
       0.38984135 -0.49733981 0.5091922 -0.19065228
000330 42 94 33 bb 79 4d 8f 3e c5 f8 84 bd c7 5e 24 be
       -0.00274016 0.27988794 -0.064927615 -0.1605178
000340 07 7e a4 be 0f dd 0f 3e 05 09 dd be bb 19 39 bd
       -0.321274 0.14049171 -0.43170944 -0.045190554
000350 e6 e4 1f bd 4c 81 9b be 08 e0 41 be 2e 94 9f bd
       -0.039036654 -0.30372083 -0.18933117 -0.07791935
000360 7b ca e8 3d 0e 81 3b bd f8 d5 a9 bd cb ad f7 bd
       0.11366745 -0.045777373 -0.082927644 -0.12093695
000370 71 3f a9 3e 92 11 cf be 99 be ac 3d 8c b7 02 3e
       0.33056214 -0.40443093 0.08434791 0.1276533
000380 db 1e b7 3d 0d d6 67 be 8d 89 09 3e ac 07 fd 3b
       0.08941432 -0.22640248 0.13431378 0.007721862
000390 1b 6b 05 bd 77 19 80 3e 6a 0a bf 3d da 5c 10 bc
       -0.032572847 0.25019428 0.09328158 -0.0088112
0003a0 a0 05 c7 3a fa 2e 4c be 46 2b 99 bd 76 86 7f bc
       0.0015184171 -0.19939795 -0.07478957 -0.015596023
0003b0 81 54 c7 3d 24 df 88 3b 8b 83 02 3e bf 0b fe 3d
       0.09732915 0.004176991 0.12745492 0.12404584
0003c0 6a 27 3f bd bf 8a e2 3c 8d d8 ac 3e a9 09 6a be
       -0.046668448 0.02765405 0.33758965 -0.22855248
0003d0 57 4f 83 3e 9b ce f2 3d cb 52 cf 3d 95 e9 c1 3e
       0.2564647 0.11855813 0.101232134 0.3787352
0003e0 90 8f 37 be 4b ae 6b be a6 85 3c 3d fa 5c bd be
       -0.17925858 -0.23015706 0.046025895 -0.36984998
0003f0 af 16 a3 3e 08 5d f2 3d b3 31 95 3d 15 81 1c 3d
       0.31853244 0.118341506 0.0728487 0.03820904

lstm.bias_ih_l0 f4 [256]
000000 bb 74 9d 3e f3 be 9c 3e 12 4d 67 3e d3 37 44 bd
       0.3075312 0.30614433 0.22587994 -0.0479048
000010 f3 4c 77 bd b5 c0 5a 3e 30 53 28 be 43 88 41 3d
       -0.06037612 0.21362574 -0.16437984 0.04724909
000020 c5 fb 91 3d 2f 93 d7 bc 4c 71 b9 3e 33 bf 60 3d
       0.07128099 -0.0263153 0.3621925 0.05486984
000030 f3 38 35 3e 95 63 0b 3b 2e f1 4f 3e d4 1c a7 3e
       0.17697506 0.0021269072 0.20306846 0.32639182
000040 fd 70 ca 3c 0e 6f 95 bc 78 00 90 be 9c a8 b4 3d
       0.02471208 -0.018241432 -0.28125358 0.08821222
000050 e8 fb 51 3d 8a 03 58 3c 91 52 d9 3c 66 d2 0a bd
       0.051265627 0.0131844375 0.026528629 -0.033892058
000060 d0 7a 6d 3d 22 5e 4d bd 1a 7c a0 bc 2c d3 86 3c
       0.05797845 -0.0501386 -0.019590426 0.016458116
000070 20 88 49 bd 00 9d 96 3d 59 c8 72 3e fd cb e0 3a
       -0.049202085 0.07354164 0.23709239 0.0017150637
000080 77 48 d9 3e 84 eb 2b bd 72 b8 00 be 64 93 1d 3e
       0.424381 -0.041972652 -0.1257036 0.15388256
000090 55 4c 1d be 13 e0 5c 3d 53 ec 3b 3e 69 1d b5 3d
       -0.1536115 0.05392463 0.1835187 0.088435
0000a0 74 fd 01 bd 78 b3 09 3e e6 fe 6b bd 14 cc 29 3e
       -0.031735852 0.13447368 -0.057616137 0.16581756
0000b0 db 6e f3 3c 7b 3b 77 3d 20 f4 1b be 92 3e 48 3e
       0.029715946 0.06035946 -0.15229845 0.19555119
0000c0 cb 9a 49 3e 3c f3 a4 3c eb 4e 9a 3e 74 8f 78 be
       0.19687955 0.020135514 0.30138335 -0.24273473
0000d0 8e a1 d9 3d 45 22 90 bd 99 96 40 3e 5a 3d 19 3f
       0.10626517 -0.070377864 0.18807448 0.5985924
0000e0 8f 8b 4d 3e 8b fc 03 3f 30 73 87 3c fa 48 f2 3e
       0.20072769 0.51557225 0.016534418 0.47321302
0000f0 b6 40 fe 3e cb 75 24 3c ec 52 78 3d e8 75 8a 3e
       0.49658746 0.01003785 0.060625955 0.2704308
000100 f1 c8 49 3e ee 72 72 3e 4f 64 71 3d 76 08 67 3e
       0.1970556 0.23676655 0.058933552 0.22561821
000110 75 cd 57 3d cf a7 b7 3e d2 48 85 bd 4e 6b c8 3b
       0.052686173 0.35870215 -0.0650803 0.0061163073
000120 f0 06 20 be e8 71 24 be 40 38 8e be 65 d9 e4 bd
       -0.15627646 -0.16059077 -0.2777729 -0.11174277
000130 5d 9b 4a 3e 3c 61 5c 3e b3 a4 76 3c b2 9d 08 3e
       0.19785829 0.21521467 0.015053916 0.13341406
000140 70 b0 6c 3d f3 a0 ef bd 53 f0 80 be b3 a6 e7 bc
       0.05778545 -0.117006205 -0.25183353 -0.02827773
000150 51 0f c5 3d 64 76 68 be 86 58 25 3e 82 5a da 3c
       0.09622062 -0.22701412 0.1614705 0.026654486
000160 55 1b 39 bd cb 1d 1c 3d 96 96 1b 3d f4 81 c1 bd
       -0.04519208 0.03811435 0.037985407 -0.09448615
000170 a0 6e d1 ba 35 be 81 bd 64 ca b9 bd 6f f5 02 3d
       -0.0015978403 -0.06335107 -0.09071806 0.031972345
000180 8f c7 0c 3f 71 fd 51 bd c1 92 ce bc a2 27 96 3e
       0.54992 -0.05126709 -0.025216462 0.29327112
000190 64 15 13 3e 47 ab 9b 3d f2 81 96 3d 69 c0 a3 3d
       0.14363629 0.07601028 0.07349004 0.07995684
0001a0 e9 9d 42 3e bd f6 64 3e 26 7a 3d 3d 37 a7 a6 3e
       0.1900555 0.22359748 0.046259068 0.3254945
0001b0 61 b9 07 bc a8 dd 1c 3e 2a f9 fd 3a 37 ee de bc
       -0.008283944 0.1531893 0.0019376625 -0.027213199
0001c0 5e 5a 3f 3e 9f 8e 38 bd 0a f2 67 bd 76 98 a7 3c
       0.18686816 -0.04505789 -0.05662731 0.020458441
0001d0 1f 6e 7f be 6b d0 2d be fd 56 29 be 4b b2 5d be
       -0.24944352 -0.16974036 -0.1653709 -0.21650045
0001e0 19 ce 91 3e a0 dc 3a be ad 0e 93 3b 6b 3b 10 bd
       0.28477553 -0.18248224 0.0044878335 -0.035212915
0001f0 87 b8 a6 bd 5a 2d 0a be 85 78 5c 3e 9f d3 d6 3c
       -0.081406645 -0.13493863 0.2153035 0.026223956
000200 be c5 99 be 99 c5 0d 3e 9e b0 9d bd 5d b3 c1 ba
       -0.30033678 0.13844909 -0.07699703 -0.0014778186
000210 ef de f3 3d 50 22 75 be c8 bb 14 3e e2 1c 19 be
       0.119077556 -0.2393887 0.14524758 -0.14952424
000220 c3 36 15 3d c3 64 15 be 3a 90 c1 3d 51 42 29 3d
       0.036429178 -0.14589219 0.09451337 0.04132301
000230 86 3e c5 3d 26 00 9d bd 0e fd 60 be b0 d2 0d be
       0.09631066 -0.07666044 -0.21971533 -0.13849902
000240 1f 19 9b bd 62 04 64 bc fe 46 35 bd b4 9b df 3c
       -0.07573151 -0.013917061 -0.044257157 0.027295925
000250 22 70 8d be 9e fc 37 be c7 0f 1a 3d 9a 66 10 3e
       -0.27624613 -0.1796746 0.037612703 0.1410164
000260 f4 a0 e0 3d 78 62 90 3c fa 85 94 bd 0f 1b fa 3d
       0.10968199 0.017625079 -0.072521165 0.12212192
000270 96 5a d1 3d f2 98 95 bd 87 58 ad 3d 96 28 bd 3d
       0.10222356 -0.07304563 0.08464151 0.09236257
000280 84 cc af 3e 7b c8 48 be a3 ea 19 be 83 9c 39 be
       0.3433572 -0.19607727 -0.15030913 -0.1812611
000290 58 4c 8e bd 63 85 59 3e a4 ea ee bd 35 57 06 3e
       -0.06948155 0.21242289 -0.11665848 0.13119204
0002a0 f0 20 d5 bd d0 8d 8b bb 3a 26 46 bc 24 96 76 3d
       -0.10406673 -0.0042588487 -0.012094075 0.06020178
0002b0 74 b2 31 be 70 76 b0 3d dc cd 74 bd 2f df 89 3e
       -0.1735323 0.0861634 -0.059766635 0.26928088
0002c0 ef d5 1b be 4e d2 15 3e a6 f7 fa 3d 95 a4 08 3e
       -0.15218328 0.14631006 0.122542664 0.13344033
0002d0 32 c0 6e 3e 26 40 a3 3d 37 c7 81 3e 0c 95 18 3e
       0.23315504 0.0797122 0.253473 0.14900607
0002e0 00 c7 a4 be a2 6c bb bd b2 ff 0d be fc 70 86 be
       -0.32183075 -0.091515794 -0.13867071 -0.26258075
0002f0 c1 9b 55 3e ea f3 c3 bd a1 d2 1c bd 0c 23 cf bd
       0.20860197 -0.09568007 -0.03828681 -0.101141065
000300 df a8 ea 3d cd 47 12 3e d1 c4 1e 3e 32 d6 23 3e
       0.11457991 0.14285202 0.15504767 0.15999678
000310 34 e3 84 3e 2b 5e 04 3e 94 40 4f 3e a0 ca 17 3f
       0.25954592 0.12926547 0.20239478 0.59293556
000320 17 60 52 3e f2 ed 8a 3b b4 82 ab 3e 42 5b 27 3c
       0.20544468 0.004239791 0.33498156 0.010214629
000330 46 82 10 3d c8 bc 2d 3d 49 7e 0c 3e 98 a6 99 3c
       0.03528049 0.042416364 0.13720049 0.018756196
000340 09 7b de bd dc c2 6b 3e 1d f2 13 3f fd d3 2f 3e
       -0.10863311 0.23023552 0.5779131 0.17170711
000350 28 9f 94 3e 5c 42 d2 3e a8 75 2e be bd ae 9b 3e
       0.29027677 0.41066253 -0.1703707 0.30406752
000360 b8 4c 2e 3e 1c 7e 8d 3e f9 12 ba 3d 1b a6 5b 3e
       0.17021453 0.27635276 0.0908565 0.21450083
000370 13 c9 5b 3e ce 55 cb 3e f7 e8 9c 3e b6 14 b9 3d
       0.21463422 0.397139 0.30646488 0.090371534
000380 b2 75 68 3d 6d cf f9 3d 61 bc 86 bd 39 ab 1d 3e
       0.056752868 0.121977665 -0.06578899 0.15397348
000390 cf 95 a8 3e 41 84 4c bc d0 c6 ce 3e b1 b7 82 3e
       0.32926795 -0.012482704 0.40386057 0.2553077
0003a0 aa ab 27 be 94 69 c2 3e ec d0 42 3e 2b 50 05 3f
       -0.16374078 0.37971175 0.1902501 0.5207545
0003b0 93 e1 b1 3e bf a4 e4 3d df 70 f9 3d 7b a4 1c bd
       0.34742412 0.11164235 0.121797316 -0.0382428
0003c0 2a 33 5f 3e c1 b6 95 bd cd 5e 51 3e f5 27 aa 3e
       0.21796861 -0.07310248 0.2044632 0.3323361
0003d0 25 85 92 3e 62 5c 74 3e 6a 91 a5 3e 89 98 09 3f
       0.28617206 0.23863366 0.32337505 0.53748375
0003e0 7a ee 1c 3e 17 0c 18 3f 7d f3 01 3e 16 9d 1f 3f
       0.15325347 0.5939345 0.1269054 0.6234907
0003f0 46 87 2b 3f 0e bb 00 be 76 30 0b 3e f1 09 8c 38
       0.67003286 -0.12571356 0.13592705 6.677572e-05

lstm.bias_hh_l0 f4 [256]
000000 f4 d8 89 3e 9b fb 26 3e 38 a1 5d 3e bd f9 b8 3d
       0.26923335 0.16306917 0.21643531 0.09032009
000010 e8 5c 16 be 56 33 43 3e 44 02 0e be 3f 00 72 3e
       -0.14683878 0.19062552 -0.13868052 0.23632906
000020 57 17 89 bc 2c 97 cb 3d 72 fd 40 3e 8c af 09 3e
       -0.016734762 0.09940943 0.18846682 0.13445872
000030 9e aa 28 3e 61 f4 9e 3d 54 f3 1e 3e 9a f9 6c 3e
       0.16471335 0.07761455 0.1552251 0.2314209
000040 dc b0 9e 3a c6 2e 9f 3c f0 16 a4 be d8 7b a9 bb
       0.0012107152 0.019431483 -0.3204875 -0.005172234
000050 11 e7 d7 bd 9e 67 36 ba ba 28 98 bd b3 c6 64 3c
       -0.10542119 -0.0006958189 -0.07429643 0.013963389
000060 e3 f2 2b 3e 4a 00 07 3d 2f f8 85 3d ab 85 94 bc
       0.16791873 0.03295926 0.06541478 -0.018130144
000070 0f 22 e4 3c ab 41 c2 3d 9e 9f f9 3d 67 db 54 3e
       0.027848272 0.094851814 0.12188648 0.2078682
000080 b0 8f 91 3e 5a e8 c4 3b 7b 30 9a bd 5b 80 20 3e
       0.28429937 0.006009144 -0.07528778 0.15673964
000090 52 19 93 3d 8c 2b 23 3d a9 b6 10 3e ad 9c 7f bc
       0.07182564 0.03983645 0.1413218 -0.015601319
0000a0 81 7e db 3d fa 7a 3e 3d fe e2 16 3e cd 92 29 3e
       0.10717488 0.046504 0.14735028 0.16559906
0000b0 3a 07 c7 3d a8 0f 9a bb 27 8d 2e bc cc a4 88 3e
       0.09718175 -0.0047015734 -0.0106537705 0.2668823
0000c0 65 bd 7a 3d 55 87 85 3d c9 98 e9 3e ad bb b8 bd
       0.061215777 0.06519953 0.45624378 -0.09020171
0000d0 24 de 62 3e de 02 62 3c 6b 5f 64 3e e1 e2 c8 3e
       0.22155052 0.013794629 0.22302024 0.39235595
0000e0 dc ae ac 3e 4e 20 f2 3e a6 de 3b 3e 82 d3 e7 3e
       0.33727157 0.47290272 0.18346652 0.45278555
0000f0 9b e1 b8 3e 3f e9 4d 3d 50 70 c0 3d af 26 24 3e
       0.36109623 0.05027127 0.09396422 0.16030382
000100 3f 8f 88 3d 7e bf 87 3e 38 c8 fb 3d 35 f5 34 3e
       0.06667947 0.26513284 0.12294048 0.17671664
000110 3c 5d 34 3d 67 56 8b 3e 29 9f 22 be 0b 9a f2 bd
       0.044034228 0.27214357 -0.15881027 -0.118457876
000120 10 c6 0d be 33 c3 86 be 36 a3 5b be a5 c2 b7 bd
       -0.13845086 -0.263208 -0.21448979 -0.089726724
000130 29 57 a4 3e 4b 16 33 3e 0b c4 9b bd fb 61 66 3e
       0.32097748 0.17488973 -0.076057516 0.22498314
000140 15 56 00 3e be 9c c8 38 3f c5 30 be 07 17 4b ba
       0.12532838 9.565939e-05 -0.17262743 -0.0007747267
000150 93 6e 1a 3c 42 f3 d9 bd ed f1 2c 3e 4c e0 6e 3c
       0.009425777 -0.10642101 0.16889162 0.014579844
000160 87 0f 27 be d7 df d4 3d bf 86 ea 3d 92 2c 83 bd
       -0.16314517 0.103942566 0.11451482 -0.064049855
000170 f0 f9 de bd 0b 91 30 be 3f d4 fa bd 45 4a 28 3e
       -0.108875155 -0.1724283 -0.12247514 0.16434582
000180 29 61 09 3f 63 1a fb bd b1 fb c5 3d ae 13 20 3e
       0.5366388 -0.12260892 0.09667147 0.15632507
000190 f0 a6 3c b9 e1 a4 1e 3e 36 3b 49 3e 03 54 14 3e
       -0.00017991266 0.15492584 0.19651493 0.14485173
0001a0 9f 80 e7 3d 2f 2f a8 3d d2 55 16 3e 54 8d b2 3e
       0.113038294 0.082121246 0.14681175 0.3487345
0001b0 38 6d d9 bd 0f 52 04 3e 7d 26 9c bc 0c 68 98 bd
       -0.10616535 0.12921928 -0.019061321 -0.0744172
0001c0 89 e4 65 3d 74 0d 32 bc de fd 55 be cc 1f e7 3c
       0.05612615 -0.010867465 -0.20897624 0.028213404
0001d0 ad ee aa bd 86 6d d7 bd fe 07 21 be 04 3b 9f bd
       -0.08346305 -0.10518937 -0.15725705 -0.07774928
0001e0 18 25 8f 3e 72 f2 a0 be a6 4a 01 bc 40 48 0b be
       0.27957988 -0.3143497 -0.007891333 -0.1360178
0001f0 eb c4 60 bd 10 57 73 3d 42 89 ef 3d 06 dd 76 3b
       -0.054875296 0.0594092 0.11696102 0.0037668361
000200 65 57 90 be 81 53 12 3e 9b e9 a5 bd 2c 79 dd bd
       -0.28191677 0.14289667 -0.08101197 -0.10814127
000210 74 49 32 3e 6a 6a 33 be 12 3c b0 3e 58 90 dd 3c
       0.17410833 -0.17521062 0.3442083 0.027046368
000220 11 58 14 bd 5d 77 ae 3c 1b d8 ca 3d ae 12 bf bd
       -0.0362168 0.021297151 0.099045 -0.09329735
000230 f5 ae de 3d e2 17 dd 3b fb db de bd ba 9f ea bd
       0.10873214 0.006747232 -0.10881802 -0.11456247
000240 17 59 d2 bd e1 38 e2 3d ab de d6 bd 84 8c 1c be
       -0.10270899 0.11046005 -0.10491689 -0.15287977
000250 31 00 ca be e6 76 d5 bd 52 fb 07 3e 8c 4e 24 bc
       -0.3945327 -0.10423069 0.13279465 -0.010028493
000260 1c 72 02 be 55 cf 0b 3e 1f 1d 69 be 8a c4 b0 3d
       -0.12738842 0.1365331 -0.22765015 0.08631237
000270 ea 76 af 3c ec 83 d7 3c 87 72 0b bd e7 df 86 3e
       0.021419007 0.026308022 -0.03404477 0.263427
000280 fa 3c 91 3e 52 ac fd bd 7b 47 38 be c2 bf 71 bc
       0.28366834 -0.12386383 -0.17996018 -0.014755191
000290 84 7a fd bd 41 36 b1 3d b9 70 90 bd 47 f4 96 3d
       -0.123768836 0.08652926 -0.0705275 0.07370811
0002a0 cf dd b8 bd 56 9c 74 bd 8e 2d 0a be f4 df 11 bd
       -0.09026682 -0.059719406 -0.1349394 -0.03561397
0002b0 a6 b3 20 bc d5 b5 b3 3d be c2 9d 3d c4 ac 8e 3e
       -0.0098084565 0.08774916 0.0770316 0.27866185
0002c0 3a ba 92 bb c8 17 2d 3e 32 20 45 3e 00 fb 8d bc
       -0.0044777663 0.16903603 0.19250563 -0.0173316
0002d0 a4 0f 2b 3e 43 42 1c bd 42 87 4b 3e e5 74 0f 3e
       0.16705185 -0.03814913 0.19875816 0.14009435
0002e0 c0 00 82 be 72 d5 d5 bd f5 8e 39 be be 59 88 be
       -0.25391197 -0.10441102 -0.1812094 -0.26630968
0002f0 9a 7c e1 3c a5 cf 98 be 27 b2 10 bd d9 80 ce 3c
       0.027525235 -0.2984592 -0.03532615 0.025207924
000300 00 ec 38 3e 2e 3d 02 3e 10 54 be 3e 83 46 d2 3d
       0.18058777 0.1271865 0.3717351 0.10267355
000310 ee 00 c7 3e d2 e8 21 3d 2a cb 1c 3d a5 c7 07 3f
       0.38867897 0.039528675 0.03827969 0.5303901
000320 0b 50 48 3e 87 cc a3 3d a5 05 e1 3e 63 25 14 3e
       0.19561784 0.07997995 0.4394962 0.14467387
000330 71 29 bc 3d 5d 9f db 3d 64 3e 4e 3e b5 01 61 3d
       0.09187592 0.107237555 0.20140988 0.05493327
000340 1b 71 7e 3d dc 43 89 3e 0d 98 0e 3f 93 c9 08 3e
       0.062119585 0.26809585 0.5570076 0.13358144
000350 39 07 35 3e c6 d5 d4 3e 5c 24 a2 bc 7d 45 a8 3e
       0.17678536 0.41569346 -0.019792728 0.32865515
000360 1d 07 28 3e 79 34 b2 3e d3 e9 51 3e a5 6c 1b 3e
       0.16408964 0.34805658 0.20499353 0.15178163
000370 1d 8d b9 3e 13 a2 9f 3e 2a f0 db 3d bd 6d d6 bd
       0.36240473 0.3117834 0.10739167 -0.1047015
000380 20 26 95 3e 52 01 fd 3d f0 ed 1b 3d b0 3e 8d 3e
       0.2913065 0.123537675 0.03806871 0.2758689
000390 e2 33 2f 3e 17 0c cf bd 65 93 b2 3e 4f f1 73 3e
       0.17109635 -0.10109728 0.34878078 0.2382252
0003a0 38 8d 43 3d a9 18 72 3e 41 c4 3b 3e e0 90 05 3f
       0.0477421 0.2364222 0.18336584 0.52174187
0003b0 bf 2c c4 3e 2d a9 9a 3c b5 a2 2e 3e e0 9c cd bc
       0.3831539 0.018879497 0.17054255 -0.025099218
0003c0 76 ae 9f 3e ef 25 a1 3d 9c 33 66 3e a6 02 c4 3e
       0.3118779 0.078685634 0.22480625 0.3828327
0003d0 3d af 82 3e aa 17 0f 3e 2d 15 ab 3e 41 f0 23 3f
       0.2552432 0.13973871 0.33414593 0.64038473
0003e0 f4 35 e6 3d 9a 1e c7 3e be 68 92 3d c4 c7 00 3f
       0.112407595 0.38890535 0.07148884 0.5030482
0003f0 9a 66 08 3f ec dd 16 bd a0 77 80 3e eb 67 bd bd
       0.5328156 -0.036832735 0.25091267 -0.092483364

head.weight f4 [24, 64]
000000 7e 4f b3 c1 12 f5 b3 41 f6 4a b4 c1 4d 0e 34 41
       -22.413815 22.494663 -22.536602 11.253491
000010 93 aa b4 41 92 1b b4 c1 9b 2a b4 41 ec 68 af c1
       22.583288 -22.513462 22.520803 -21.926231
000020 28 b1 b3 41 1d ca b3 c1 e3 70 b3 41 fe 8b b2 c1
       22.461502 -22.473688 22.43012 -22.318356
000030 27 3a b4 41 92 9b a2 40 94 87 b2 c1 32 86 b2 c1
       22.528395 5.0814905 -22.3162 -22.315525
000040 35 00 b4 c1 69 98 b3 41 02 4f b3 c1 c9 b1 b3 c1
       -22.500101 22.449419 -22.413578 -22.46181
000050 b6 12 b3 c1 f8 45 b3 c1 da 29 b4 c1 9b b7 b2 41
       -22.384136 -22.409164 -22.520435 22.339651
000060 61 e0 b2 c1 3f af b2 41 8f 21 b4 c1 b8 2f b4 c1
       -22.35956 22.33557 -22.516386 -22.5233
000070 24 df b3 41 78 fd b3 c1 ac f4 b2 41 47 4c b4 41
       22.483955 -22.498764 22.369469 22.537245
000080 09 75 b3 41 4b 1e b4 c1 69 aa b2 c1 bd 6d b3 c1
       22.432146 -22.514791 -22.333208 -22.428583
000090 35 20 b4 c1 e3 e3 b3 41 0d 27 85 c1 6b ee b3 41
       -22.515726 22.486273 -16.644068 22.491415
0000a0 42 4f b2 c1 7e 3d b2 c1 b9 bf b2 c1 46 47 b4 41
       -22.2887 -22.280025 -22.343615 22.534801
0000b0 61 a0 b2 c1 7a bf b3 41 9c 03 b4 41 60 fe b2 41
       -22.32831 22.468494 22.501762 22.374207
0000c0 ca fd b2 c1 54 a7 b2 41 43 76 b4 41 f6 e3 b3 41
       -22.37392 22.331703 22.557745 22.48631
0000d0 04 ef b3 41 cf 7c b3 41 f9 29 b3 41 44 93 b4 41
       22.491707 22.435942 22.395494 22.571907
0000e0 ab 53 b4 c1 ab 69 b4 c1 95 28 b2 c1 db 42 b3 c1
       -22.540854 -22.551596 -22.269815 -22.407644
0000f0 09 db b4 41 8c e0 b3 c1 b0 7e b3 c1 3a d6 b3 c1
       22.60695 -22.484642 -22.43686 -22.479603
000100 fa a5 b3 c1 02 2f b3 41 3c f7 b2 c1 c6 1c 34 41
       -22.456043 22.397953 -22.37072 11.257025
000110 a4 d2 b3 41 02 78 b3 c1 37 32 b3 41 9e 99 af c1
       22.477852 -22.433598 22.399519 -21.950008
000120 03 65 b4 41 65 a7 b3 c1 23 f9 b2 41 18 3f b4 c1
       22.549322 -22.456736 22.371649 -22.530807
000130 f8 17 b3 41 ec 4a 88 40 ab d3 b2 c1 4d 78 b3 c1
       22.386703 4.2591457 -22.353354 -22.43374
000140 db b2 b3 c1 9d 0b b4 41 01 da b2 c1 5c 26 b4 c1
       -22.462332 22.50567 -22.356447 -22.51873
000150 ca 56 b2 c1 f6 d4 b2 c1 f0 da b2 c1 89 c9 b2 41
       -22.292377 -22.353985 -22.356903 22.348406
000160 a4 35 b3 c1 e5 f5 b2 41 71 69 b2 c1 54 27 b4 c1
       -22.401192 22.370066 -22.301485 -22.519203
000170 a9 72 b3 41 34 d9 b2 c1 81 50 b3 41 e4 69 b3 41
       22.430986 -22.356056 22.414309 22.426704
000180 77 30 b3 41 52 0e b3 c1 75 0f b4 c1 38 0a b4 c1
       22.398664 -22.381992 -22.507547 -22.50499
000190 b2 de b3 c1 a4 71 b2 41 96 e4 85 c1 84 fe b3 41
       -22.483738 22.305489 -16.736614 22.499275
0001a0 46 d7 b3 c1 89 ce b2 c1 f4 e3 b3 c1 3d 07 b3 41
       -22.480114 -22.350847 -22.486305 22.378534
0001b0 70 b8 b3 c1 33 e4 b3 41 e7 9a b2 41 09 9c b2 41
       -22.465057 22.486425 22.325636 22.326189
0001c0 1d 09 b3 c1 5c 04 b3 41 a3 20 b3 41 5d b3 b3 41
       -22.37945 22.377129 22.390936 22.46258
0001d0 1d 92 b4 41 41 b8 b2 41 43 ff b3 41 c7 7d b3 41
       22.571344 22.339968 22.49964 22.436415
0001e0 ee 49 b4 c1 6b 90 b2 c1 69 37 b2 c1 90 8c b2 c1
       -22.536098 -22.320517 -22.277056 -22.318634
0001f0 95 de b3 41 0c 03 b3 c1 1e f9 b3 c1 f0 42 b3 c1
       22.483683 -22.376488 -22.49664 -22.407684
000200 ee 54 b2 c1 3e 09 b2 41 79 fc b3 c1 08 b4 33 41
       -22.29147 22.254513 -22.498278 11.231453
000210 8f ad b3 41 6c 64 b3 c1 ea 82 b2 41 70 6d af c1
       22.459745 -22.424034 22.313923 -21.928436
000220 be 52 b3 41 30 b0 b4 c1 93 8a b4 41 e3 5a b3 c1
       22.415401 -22.58603 22.567663 -22.419378
000230 07 11 b3 41 aa dc 77 40 97 e3 b3 c1 90 fb b2 c1
       22.383314 3.8728433 -22.486128 -22.372833
000240 74 89 b3 c1 14 15 b3 41 66 16 b3 c1 2f 10 b3 c1
       -22.442116 22.385292 -22.385937 -22.382902
000250 94 d2 b2 c1 b8 7f b3 c1 9d d4 b3 c1 04 9b b3 41
       -22.352821 -22.437363 -22.478815 22.450691
000260 70 8a b2 c1 d5 94 b2 41 fc b6 b2 c1 d4 06 b3 c1
       -22.317596 22.322672 -22.339348 -22.378334
000270 b9 a6 b3 41 43 3a b3 c1 53 23 b4 41 e1 00 b4 41
       22.456408 -22.403448 22.517248 22.50043
000280 8a c2 b2 41 51 fe b2 c1 7e e0 b3 c1 fc 46 b3 c1
       22.34499 -22.374178 -22.484615 -22.40966
000290 a7 2f b3 c1 bb 64 b3 41 26 1a 85 c1 d2 cd b3 41
       -22.398268 22.424185 -16.637768 22.475498
0002a0 79 4a b3 c1 6b ba b2 c1 c1 c6 b2 c1 b5 27 b3 41
       -22.411364 -22.341024 -22.347048 22.394388
0002b0 dd de b3 c1 95 f2 b3 41 ea 08 b4 41 7f cf b3 41
       -22.48382 22.493448 22.504353 22.476316
0002c0 d4 e0 b2 c1 90 85 b3 41 62 dd b3 41 e8 70 b2 41
       -22.35978 22.440216 22.483097 22.30513
0002d0 a1 b1 b2 41 09 37 b3 41 1d f6 b2 41 4c 6d b2 41
       22.336733 22.401873 22.370173 22.303368
0002e0 41 96 b2 c1 e6 5c b4 c1 cc 56 b2 c1 6f 17 b4 c1
       -22.323366 -22.54536 -22.292381 -22.511442
0002f0 56 f3 b2 41 aa 70 b2 c1 ca 4e b3 c1 6f 6e b3 c1
       22.368816 -22.305012 -22.413471 -22.428923
000300 35 4a b3 c1 d4 f1 b1 41 37 2a b3 c1 9f 52 35 41
       -22.411234 22.24308 -22.395613 11.332671
000310 5c 08 b4 41 28 41 b2 c1 5e f0 b3 41 f6 38 af c1
       22.504082 -22.281815 22.492367 -21.902813
000320 56 54 b3 41 81 0a b4 c1 50 03 b4 41 93 aa b2 c1
       22.41618 -22.505129 22.501617 -22.333288
000330 3a 0a b3 41 ff a2 70 40 e2 8f b2 c1 89 0e b2 c1
       22.379993 3.7599485 -22.320255 -22.257097
000340 7a 25 b2 c1 e6 c7 b2 41 aa d8 b3 c1 ac e2 b2 c1
       -22.2683 22.347607 -22.480793 -22.36068
000350 bd 8d b3 c1 62 e2 b3 c1 18 e5 b2 c1 9f 97 b3 41
       -22.444208 -22.485538 -22.361862 22.449034
000360 21 72 b3 c1 a8 62 b2 41 79 fe b2 c1 8d 17 b4 c1
       -22.430727 22.298172 -22.374254 -22.5115
000370 55 a7 b3 41 6e ad b2 c1 5d 88 b2 41 cc f3 b3 41
       22.456705 -22.334682 22.316584 22.494041
000380 0e 99 b3 41 af 0c b4 c1 f6 cc b2 c1 11 f7 b2 c1
       22.449734 -22.506193 -22.350079 -22.370638
000390 c0 c3 b2 c1 3b cd b3 41 a2 83 84 c1 c1 b4 b2 41
       -22.345581 22.47521 -16.564274 22.338259
0003a0 c4 f9 b3 c1 4b 05 b3 c1 24 d6 b2 c1 dd 54 b3 41
       -22.496956 -22.377584 -22.35456 22.416437
0003b0 f6 52 b2 c1 09 cc b3 41 71 14 b4 41 06 6c b3 41
       -22.290508 22.474627 22.509981 22.427746
0003c0 3b 5e b4 c1 35 8d b3 41 7c c6 b3 41 be 23 b4 41
       -22.546011 22.443949 22.471916 22.517452
0003d0 fe 4d b4 41 c3 75 b3 41 e6 41 b3 41 94 ad b3 41
       22.538082 22.4325 22.407177 22.459755
0003e0 b8 dc b3 c1 8d c1 b2 c1 1a 04 b2 c1 26 e7 b3 c1
       -22.482773 -22.344507 -22.252003 -22.487865
0003f0 6a 22 b4 41 d1 c8 b3 c1 a1 42 b2 c1 c3 81 b3 c1
       22.516804 -22.473055 -22.282534 -22.43836

head.bias f4 [24]
000000 74 dc b2 41 b1 18 b3 41 6e 66 b2 41 95 71 b2 41
       22.357643 22.387056 22.300014 22.30546
000010 6e 5f b1 41 f8 9d b1 41 95 23 b1 41 c1 05 b1 41
       22.171597 22.202133 22.142374 22.12781
000020 12 d4 b1 41 e7 f0 b1 41 ca 6b b1 41 52 67 b1 41
       22.22855 22.242628 22.177631 22.17545
000030 c7 5b b2 41 f1 b6 b0 41 0b 4f b1 41 7d 34 b1 41
       22.294813 22.089327 22.163595 22.150629
000040 e9 7f b1 41 27 5f b1 41 38 33 b1 41 92 62 b0 41
       22.187456 22.171461 22.15001 22.04813
000050 c2 17 b1 41 6c 58 b1 41 47 e2 b1 41 0f 85 b0 41
       22.1366 22.168175 22.235487 22.06497
