artifacts/lstm/d5_best.pt (torch, 77153 bytes, 6 tensors)

lstm.weight_ih_l0 f4 [256, 1]
000000 5a 22 2f 3f ca 6a 08 3f 6a ce c0 3e 12 f5 71 3f
       0.6841179 0.5328795 0.3765748 0.9451457
000010 e9 95 61 3f 99 08 c8 bd 7c 41 35 3f 77 21 b3 3e
       0.8811937 -0.09767265 0.70803046 0.3498647
000020 d2 bb 78 3e 44 c9 c0 3d 64 28 f8 3e 2c 40 7d 3e
       0.24290398 0.09413388 0.48468316 0.24731511
000030 f0 de 9d 3e 7b 1c a9 3e a3 40 fe 3e 3e 0e c5 3d
       0.3083415 0.3302954 0.4965869 0.09621857
000040 47 72 31 3f 36 4b a5 3d 69 29 1d 3f ec e9 0e 3f
       0.69315 0.08070986 0.6139131 0.55825686
000050 23 9e 16 3f 2f 9c 1c 3f d8 44 3d 3d cf 05 05 40
       0.5883505 0.6117582 0.046208233 2.0784795
000060 79 e7 79 3f 45 32 c6 3e c6 e4 fe 3e 25 19 28 3f
       0.97618824 0.38710228 0.49783915 0.6566337
000070 92 19 58 3f f5 da bd 3f 44 18 1e 3f b2 65 42 bd
       0.8441402 1.4832445 0.61755776 -0.047460265
000080 a3 c5 6d 3e d5 2a 4f 3e e0 a5 15 3d e0 a1 40 3f
       0.23219924 0.20231183 0.036535144 0.75247
000090 8c 66 fc 3e 90 4f e7 3f f7 a6 3f 3f 94 86 9a 3e
       0.49296987 1.8071156 0.74864143 0.301808
0000a0 3b 50 38 3f c9 a9 78 3b 72 f9 8f 3f 68 c2 6b 3e
       0.7199742 0.0037942997 1.1248 0.23023379
0000b0 8c 5b 07 3f 48 2b 8a 3e 76 ae be 3e cb db 1e 3f
       0.52874064 0.26986146 0.37242478 0.6205413
0000c0 d6 c3 e0 3e 11 f6 45 3f 57 e9 d3 3e 02 fb aa 3e
       0.4389941 0.7732859 0.41388962 0.3339463
0000d0 64 d3 09 3f 9a c1 e2 3f 76 96 fd 3e 7c 39 aa 3e
       0.5383818 1.7715333 0.49528855 0.33246982
0000e0 d8 25 2f 3e cc f5 c2 3e 17 ce 8e 3e e5 51 2d 3f
       0.1710428 0.38078153 0.2789161 0.67703086
0000f0 d3 26 05 3f 64 d9 28 3f 31 e5 86 3e 09 79 75 3d
       0.52012366 0.6595671 0.26346734 0.05992988
000100 9f 96 03 3f 48 a4 a1 3e 5b 11 c4 3e 2c 2d bb 3f
       0.51401705 0.3157065 0.3829449 1.462316
000110 a3 e2 22 3f 1e d5 29 3d cc fc 20 3f a6 33 80 3e
       0.6362707 0.04146301 0.6288574 0.25039405
000120 61 71 2b be f7 a1 0c 3f 56 a4 e1 bd d5 bf 6e 3f
       -0.1674247 0.5493464 -0.11017673 0.9326146
000130 3c da cd 3f 14 2e 0a be 57 2c 28 3f 55 16 99 3e
       1.6082225 -0.1349414 0.6569266 0.2989985
000140 1c 41 d4 3e 55 9c 71 3f 4f 45 55 be 55 e6 dc 3f
       0.41455925 0.9437917 -0.2082722 1.7257792
000150 d5 91 ea 3e 24 2c bd 3e ff d9 9e 3e 8f 66 31 40
       0.45814386 0.3694774 0.31025693 2.7718847
000160 54 64 00 3f 5b 64 a7 3f 19 31 30 3f 71 6e d7 3e
       0.5015309 1.3077501 0.6882492 0.42076448
000170 79 91 58 3f 17 f8 01 40 d2 53 69 3f 4d 50 c8 3d
       0.84596974 2.0307672 0.91143525 0.09780941
000180 1f 40 25 be 03 1b 8d 3e 96 8d 3a 3f 74 60 28 3f
       -0.16137742 0.2755967 0.72872293 0.65772176
000190 66 a9 24 3f c7 dc 1a 40 d5 c1 e5 3e 87 93 9d 3e
       0.6432098 2.4197252 0.44874445 0.30776617
0001a0 f6 6c 76 3e 1f 03 0d be be 80 87 3f a0 14 2e 3e
       0.24065003 -0.13770722 1.0586164 0.17000055
0001b0 fb d2 72 3e d1 5b 2b be dc 28 8d 3e 29 59 d5 3e
       0.23713295 -0.16734244 0.27570236 0.41669586
0001c0 81 99 33 3e 82 28 2b 3f 94 67 d6 3e fe f5 85 3f
       0.17539026 0.66858685 0.418759 1.0465696
0001d0 c2 35 44 3e 8c f1 00 40 ae d3 aa 3f 9b 7f 90 3e
       0.19161132 2.0147429 1.334585 0.28222355
0001e0 4c db de 3e f9 01 fc 3e 26 96 51 3e f5 bd 1e 3e
       0.43526685 0.49220255 0.20467433 0.1550215
0001f0 f5 03 75 3e a2 a1 d9 3e c9 0b 5a 3f 96 5d 08 be
       0.2392729 0.4250613 0.8517423 -0.1331695
000200 00 87 d7 3e e2 58 ad bc ae a0 24 be b6 7a f5 3e
       0.42095184 -0.021160547 -0.1607692 0.47945184
000210 73 4f f7 be 0d ec 93 be 99 dd fd 3e e2 f0 5a be
       -0.48302802 -0.2889103 0.49583128 -0.21380952
000220 d2 a7 f0 be d0 2e d2 3e a7 cf cd be 21 a8 b3 bf
       -0.47003037 0.4105134 -0.4019749 -1.4035684
000230 75 35 4f 3f 9c c2 31 3f 7b 42 08 bf 8f d2 cb 3a
       0.80940944 0.69437575 -0.5322644 0.0015550422
000240 42 7a 86 be 3d 7b 4b 3f da d0 9a 3e 67 a7 80 bf
       -0.2626515 0.7948492 0.30237466 -1.0051087
000250 7c c4 92 3e 5b bb 07 be 7b 09 95 3d 5f 04 00 bf
       0.2866553 -0.13255064 0.07277199 -0.5000667
000260 ef 88 c9 3e 7c e6 86 3f af 76 0b bd 1d 21 dd be
       0.39362285 1.0539088 -0.034048732 -0.43189326
000270 ff 1d 70 bf 0a 05 5e 3f 3b 43 b1 3e 9c 75 d8 3d
       -0.9379577 0.8672644 0.34621605 0.10569307
000280 86 c9 93 be 2f 5f 85 3f 7a d8 7d 3f e7 b0 c3 3e
       -0.28864688 1.0419673 0.9915844 0.38220903
000290 4e 88 0d 3f a4 8f b8 3e 1c 9a 1e 3f ac d3 11 be
       0.5528611 0.3604709 0.619539 -0.14240903
0002a0 c6 bd 22 3f 25 ad 31 3f 91 65 b9 3e cf eb ea bd
       0.6357082 0.6940482 0.36210302 -0.11470758
0002b0 d6 f0 ba 3e 00 29 28 bf 24 1d 85 bf 98 4e 8b be
       0.36511868 -0.6568756 -1.0399518 -0.272084
0002c0 58 a7 36 3f 4f 67 56 3f 40 8c bf be 43 0d 9e bf
       0.71349096 0.83751386 -0.3741169 -1.2347797
0002d0 f9 1e 96 be a0 4a 86 3e 2c cf 87 3f 91 c1 75 bf
       -0.29320505 0.2622881 1.0610099 -0.95998484
0002e0 70 c8 6e bf 3c e1 d6 bd 29 1b ba 3d db fb 0f bf
       -0.93274593 -0.10492179 0.09087212 -0.56243676
0002f0 ad 86 c0 be b7 f2 25 bf b6 0b d4 3e 07 7b a2 be
       -0.3760275 -0.6482348 0.41415185 -0.31734487
000300 3f 6f 14 3f b3 98 5f 3f c1 2c 53 40 77 0b 80 3f
       0.5798225 0.87342376 3.2996066 1.0003499
000310 97 4a 9f 3f c1 54 41 3f 86 c6 d6 3e a6 57 b5 3f
       1.2444638 0.7551995 0.41948336 1.4167373
000320 05 03 0f 40 47 4d 24 3f b0 ba 12 3f d9 04 9e 3e
       2.2345593 0.64180416 0.5731611 0.30863073
000330 9a 6c 24 3f f4 59 b9 3c 68 db 4c 3f ce db 13 3f
       0.6422821 0.0226259 0.8002229 0.5775727
000340 f3 dd 96 3f 4a ed d6 3e 66 45 d9 3e 6e 8d 3e 3f
       1.1786484 0.41977912 0.4243576 0.74434555
000350 fa 7d 81 3f 77 e9 68 3e 5d c3 3c 3f 19 22 3f 3f
       1.011657 0.2274531 0.737356 0.74661404
000360 a3 a5 cc 3f 12 25 ac 3e de f4 b4 3e 9c d3 15 40
       1.5988048 0.33622032 0.3534307 2.3410406
000370 64 f1 01 3f 99 df 43 3f 9a 55 8b 3f 18 64 f7 3e
       0.5075896 0.7651306 1.0885499 0.48318553
000380 64 5c 87 3f a3 9a a2 3e ad ed 58 3e 12 93 76 3f
       1.057507 0.31758603 0.21184416 0.9631816
000390 a6 88 2c 3f 38 fa f3 3e 51 68 0d 3f c6 83 c5 3f
       0.6739601 0.4765184 0.552373 1.5430839
0003a0 5c f1 80 3f f9 27 bd 3e 8f e8 0e 40 be fb 8e 3f
       1.0073657 0.3694456 2.2329443 1.1170576
0003b0 e4 e2 47 3f 7b 9f e3 3e e9 e7 ea 3e d3 03 14 40
       0.7808058 0.4445761 0.45880058 2.3127334
0003c0 da 32 6c 3e ea da f9 3e 7a 30 9b 3f 70 dd 90 3e
       0.23066273 0.4879983 1.2124169 0.28293943
0003d0 79 cf 97 3f ff e6 0a 3f 7c e8 f9 3e 89 7c 5c 3e
       1.1860191 0.5425872 0.48810184 0.21531881
0003e0 c1 58 51 3d d3 c2 83 3f e0 f8 07 40 26 77 43 3f
       0.051110033 1.0293831 2.1245651 0.7635368
0003f0 78 46 12 3f 3a a0 fc 3e dc 2f 30 3f 17 8e da 3e
       0.57138777 0.49340993 0.6882303 0.4268653

lstm.weight_hh_l0 f4 [256, 64]
000000 e9 4a 57 be 29 12 19 3e 1a 1c 8d 3d 30 d2 01 be
       -0.2102467 0.14948334 0.068901256 -0.12677836
000010 1c ae a7 3d 57 b4 7c be f5 23 17 be 55 52 4b bc
       0.081875056 -0.24678169 -0.1475981 -0.012409766
000020 44 2a cf bd 0d 53 67 3c 00 15 86 bd 74 fe 11 3d
       -0.101154834 0.014118922 -0.06546974 0.035643056
000030 8f d2 ba bd 68 73 3d 3e e3 e0 0d 3e 70 bd 82 bd
       -0.09122192 0.18501055 0.13855319 -0.063837886
000040 3e 48 17 3d db 09 88 3e 4c dd d2 bd 7f 2f a9 bd
       0.03693413 0.2657002 -0.10296115 -0.08261012
000050 3e 03 3d bd 9c 7e c4 3d ff 82 e9 bd 46 b2 ea bd
       -0.04614567 0.09594461 -0.11401939 -0.11459784
000060 6e 10 a8 bc b5 48 54 bd 6c da 2e be 21 66 a5 bd
       -0.020515647 -0.05182715 -0.17075509 -0.0807612
000070 39 bc 9c 3b b3 52 84 3d 55 5e be bd 43 a0 a9 3c
       0.00478318 0.06461086 -0.09295336 0.020706302
000080 a1 ab ae 3d a2 1f ca 3e 14 a8 00 3e ca 30 89 bb
       0.08528829 0.3947726 0.12564117 -0.0041867243
000090 81 6d 86 3e c1 0d 80 3d 44 4d b5 bd 0e 32 c2 bd
       0.2625542 0.06252623 -0.08852628 -0.094822034
0000a0 d4 ed 4f bd 48 85 92 3e 9b ef 70 be db 60 d4 bc
       -0.05076392 0.2861731 -0.23528902 -0.02592509
0000b0 ee 99 b0 3d 06 53 dd bd 30 98 be bd a5 71 46 3d
       0.0862311 -0.10806851 -0.09306371 0.048448224
0000c0 1d 22 90 3d 6c cf 8d bc 69 1b 3f 3d b0 23 14 bc
       0.070377566 -0.01731082 0.046657 -0.009041712
0000d0 6d 1c 46 bd 7d fe ed bc a0 8e 16 3e 00 ea 12 bc
       -0.048366953 -0.029052014 0.14702845 -0.008966923
0000e0 bb d9 93 3c 3d e2 c1 bd 87 61 26 be 5f 7f 78 3d
       0.018048158 -0.0946698 -0.16248141 0.060668346
0000f0 81 57 04 be ff 5b aa be c8 e1 b2 3d bd 53 db 3d
       -0.12924005 -0.33273312 0.087344706 0.10709331
000100 0c c8 c3 bd 5b a1 a6 be f6 b1 49 bd 13 45 a9 bd
       -0.0955964 -0.3254498 -0.049241982 -0.08265128
000110 15 b8 8c 3e a7 b0 62 bb 7c 5b 84 3d cd 90 09 bc
       0.27484193 -0.0034590156 0.06462762 -0.00839634
000120 54 b3 8f be b7 09 cf 3e 5c a8 f7 3d 79 50 1d 3e
       -0.28066504 0.404371 0.12092659 0.15362729
000130 46 ff c9 3e 1f 82 c3 bd 29 4e 1f 3e be 92 06 bb
       0.3945257 -0.09546303 0.1555716 -0.0020534243
000140 e8 14 01 3e 81 50 db bd 69 90 db bd 30 7d 98 be
       0.12605631 -0.10708714 -0.107209034 -0.2978301
000150 ff a8 4c be b6 c5 38 3e 23 67 f1 bd cf 6c 82 bd
       -0.19986342 0.1804417 -0.1178725 -0.0636841
000160 d2 c7 4c be 08 77 00 3b 7f fb a8 bc 04 02 9a 3d
       -0.199981 0.0019602198 -0.020627735 0.07519916
000170 cc 03 19 3e e5 b1 8a 3d 37 d2 20 3e 53 12 aa be
       0.14942855 0.06772212 0.1570519 -0.33217105
000180 ff 7b 82 3e 2f 78 8b be 6c 6a c6 3d 6e a2 82 be
       0.25485227 -0.2724013 0.09688267 -0.2551455
000190 c5 b7 4b 3e a0 0e 64 be f5 0c 08 3e 21 f5 c8 3d
       0.19894321 -0.22271204 0.13286193 0.0981238
0001a0 f9 4b 21 be b1 02 b7 bd 05 cc 7d be d4 b6 4f 3e
       -0.15751638 -0.0893606 -0.24784859 0.20284587
0001b0 70 78 ea bd 1e 47 05 3e 7c 4e e3 3d 16 e3 9b 3d
       -0.11448753 0.1301541 0.11098954 0.076116726
0001c0 c3 1e 28 be 4c 63 03 be de 2f e7 3e 4a 03 4e 3e
       -0.16417985 -0.12830848 0.45153707 0.20118442
0001d0 e5 98 33 3e be 24 76 be 3d a0 1b be 3d cf 16 bc
       0.17538793 -0.24037454 -0.15197845 -0.009204683
0001e0 da d8 df bb 08 ae 09 be 3d d5 a2 3d 8e 05 72 3e
       -0.0068312706 -0.13445294 0.07950828 0.23634931
0001f0 cf 94 9e 3d 4b 02 80 3e 18 b6 60 3e cd 1b 86 bd
       0.07743227 0.2500175 0.21944463 -0.06548271
000200 ac fe 83 3e cb 24 0d 3e d5 da 62 be 0a fe 61 3e
       0.25780237 0.13783567 -0.2215379 0.22069564
000210 30 44 72 be a5 f2 78 3d ae f3 9d 3e 61 ce db bd
       -0.23658824 0.06077828 0.30849975 -0.10732723
000220 89 10 28 3e a3 86 97 3d bd 57 ad bc 74 b5 cf 3d
       0.16412558 0.07398727 -0.021160001 0.10142031
000230 50 fa d4 3d 39 21 0b be 23 47 3b bd f3 47 84 3e
       0.10399306 -0.13586892 -0.045722138 0.25836143
000240 90 27 59 be 81 17 24 be 4b 97 c9 3c cf 3d 63 3d
       -0.21206498 -0.16024591 0.024608275 0.055478867
000250 d6 34 83 bd 08 56 de bd 5b 6f 91 3d e4 49 98 3c
       -0.06406562 -0.10856253 0.071013175 0.018589921
000260 b6 80 ca 3e 6e c1 00 be 0a 61 87 3c ee c6 fa 3d
       0.39551324 -0.12573788 0.016525764 0.12244974
000270 f6 56 c0 bd d8 84 97 3e e2 31 58 3e 28 85 e7 3d
       -0.093915865 0.2959354 0.21112779 0.113046944
000280 d8 22 fd bd 99 84 50 3c b0 2f 9a bd c7 f2 40 3e
       -0.123601615 0.012726926 -0.07528627 0.18842612
000290 e7 25 0c be 94 4d 58 3e 5d 40 54 3e d9 9a 92 bd
       -0.13686334 0.21123344 0.20727678 -0.07158441
0002a0 45 5e 70 3d 57 65 24 be 50 e0 38 3e 20 38 b9 bd
       0.058683652 -0.16054283 0.18054318 -0.09043908
0002b0 cd 78 58 bd 51 31 ab 3c b6 fe 22 3e 5a 01 f7 bd
       -0.05284958 0.02089754 0.15917477 -0.12060805
0002c0 cb e4 8f bd 71 14 03 be 81 a1 62 be 76 05 13 3d
       -0.07026061 -0.12800767 -0.22131921 0.03589388
0002d0 5a bf 38 be f0 57 7a 3e 2e e6 1f be 1a 77 2e 3e
       -0.18041745 0.24447608 -0.1561515 0.17037621
0002e0 c7 82 0a 3d 1b 0f d0 bc 82 96 99 3d e3 b8 9a 3a
       0.033816125 -0.025397828 0.0749941 0.0011804368
0002f0 76 ca ae bd 77 97 8a 3e e0 56 9e bc c5 f3 5d bd
       -0.0853471 0.27068684 -0.019328535 -0.054187555
000300 e8 64 90 bd 72 05 8d 3e 76 bc 16 3e 82 2b 3a be
       -0.07050496 0.27543217 0.1472033 -0.1818066
000310 b8 df 0a 3e 84 86 c2 3d 4f 43 22 be 98 0f a6 3e
       0.13561904 0.09498313 -0.15845989 0.32433772
000320 95 6f 40 3e c7 b0 cc 3d d3 bf 0d 3e c6 43 f4 be
       0.18792565 0.09994655 0.13842706 -0.47707957
000330 30 c1 88 bd bc c5 17 3d 90 a4 f1 bc d3 7a da 3d
       -0.066774726 0.03705381 -0.029497415 0.10667958
000340 35 aa 36 3e 83 11 19 3f 9e fd 28 be d1 b5 65 be
       0.17838366 0.59792346 -0.16502997 -0.22432639
000350 1b 28 8f be 9a 41 bc 3e 44 cb 32 be 20 12 ba bd
       -0.27960286 0.367688 -0.17460352 -0.09085488
000360 7d bb 12 be 3a 1d b5 3e 92 1b 39 be 7e b0 3b 3e
       -0.14329334 0.3537386 -0.18076923 0.18329045
000370 36 58 47 be 9b cb 20 3e 86 79 0c be 04 ab 0b be
       -0.19467244 0.1570267 -0.13718233 -0.13639456
000380 4d d2 6a 3e b2 1a b4 3e 78 74 52 ba e2 12 4c be
       0.22931786 0.35176617 -0.00080282195 -0.19929078
000390 bd ab 8f 3e d3 36 e0 bc 02 95 55 be 68 18 7e 3e
       0.28060713 -0.027369892 -0.20857623 0.24813998
0003a0 56 b9 2b be 80 71 c4 3e 8e 7b 66 bd c0 5d 76 3e
       -0.16769919 0.38367844 -0.056270175 0.240592
0003b0 b5 d7 50 be b0 d8 06 bd ff f3 e7 bc a1 af ac 3e
       -0.20394786 -0.032921493 -0.028314589 0.33727744
0003c0 46 17 aa 3e d9 b6 d4 3d 48 aa c4 3e 4b 20 a2 bd
       0.3322088 0.10386438 0.38411164 -0.07916316
0003d0 4b 7d 74 3e 51 38 86 3e 40 6b af 3d 13 86 0f bf
       0.2387592 0.2621484 0.08565378 -0.56063956
0003e0 4d 1e 6b 3d d0 79 01 be 46 85 15 bd 15 17 95 be
       0.057401944 -0.12644124 -0.036504053 -0.29119173
0003f0 66 27 33 3e f7 39 9a 3d 26 fc e2 3d ce 87 4e 3e
       0.17495498 0.07530587 0.1108325 0.20168993

lstm.bias_ih_l0 f4 [256]
000000 92 a5 f5 3d b7 a1 2d bd 6f d6 c2 3b 07 da 54 be
       0.11994471 -0.04239055 0.0059459726 -0.20786296
000010 5c d3 80 3e 1c 37 af be 31 3c 24 bc d5 ca 38 3e
       0.25161254 -0.34221733 -0.010024116 0.18046124
000020 f6 e4 1a 3e b0 21 f8 bd e0 88 c9 3b 85 93 bf bc
       0.15126404 -0.121158004 0.00615035 -0.023385772
000030 74 89 19 3e 03 68 66 be 3a 8c c1 bc dd e4 4a 3d
       0.1499384 -0.22500615 -0.023626436 0.049534667
000040 68 26 aa 3d e1 25 57 be f9 a8 fa 3a e4 d9 ca bd
       0.08308107 -0.21010543 0.0019123844 -0.099048406
000050 59 76 17 3d 8c 88 4b bd 4b 6d f5 bc 67 28 48 be
       0.0369781 -0.049690768 -0.029959342 -0.19546662
000060 b8 5f 1a 3e dd 0b d4 3d 42 a9 66 3e be 65 90 bc
       0.15075576 0.10353825 0.22525504 -0.01762664
000070 1f 9a b7 bd 4c 9b 90 be de 22 64 be 50 ef 2e be
       -0.08964943 -0.28243482 -0.22278926 -0.17083478
000080 d8 68 09 3e f6 45 2b 3e e8 74 73 bd 18 88 c4 3c
       0.13418901 0.16725907 -0.059437662 0.023990676
000090 70 05 61 bd 5d 59 1d bd e9 f9 ef 3d 01 dd 12 3d
       -0.054936826 -0.0384153 0.117175885 0.035855297
0000a0 cd 58 83 3e ed 49 03 be 75 3b 91 3d 6c 7b 77 3e
       0.25653687 -0.12821169 0.07091419 0.24168175
0000b0 b0 be ad 3d 45 dd 82 3d ad 43 a9 bc 27 21 94 3d
       0.084836364 0.0638986 -0.020662153 0.07232886
0000c0 b6 ce 27 3e 79 16 da 3d cd c8 47 3e 25 2a 33 3e
       0.16387448 0.106488176 0.19510193 0.17496546
0000d0 36 e5 79 3d b7 6e ed bd 4c d9 24 3e f1 e2 97 3c
       0.06100961 -0.11593383 0.16098517 0.018540831
0000e0 c6 ec 70 3e f4 79 53 bd ba 67 55 3e 14 04 e1 3b
       0.23527822 -0.051629975 0.2084035 0.006866941
0000f0 40 e5 3b 3e 40 b7 72 bd 61 fe 90 be 90 16 75 bd
       0.1834917 -0.059256792 -0.28319076 -0.05983597
000100 70 e8 8b 3d 57 52 ab 3d ba a9 1f 3e 2d ae 90 be
       0.06831443 0.083653145 0.1559209 -0.28257886
000110 b7 7e 79 3d 4a 93 92 be 94 df d3 3d 7e 41 92 3e
       0.06091186 -0.28627998 0.103453785 0.28565592
000120 3a b1 00 3e 5d 49 d5 bd f5 2c 16 bd 03 72 cb bd
       0.12567607 -0.104143836 -0.036663968 -0.099338554
000130 a4 e4 98 bd fc 6e bd bd 86 a5 8b be 57 96 fd bd
       -0.07465485 -0.09249684 -0.27274722 -0.12382191
000140 d3 7b 31 3d be 94 83 be 80 67 a0 3d 03 d2 f6 bd
       0.04333098 -0.2569942 0.07832241 -0.12051775
000150 89 22 3b bc 82 16 27 bd a1 bb 7f bc 13 76 22 be
       -0.011421808 -0.04079295 -0.015608699 -0.15865354
000160 82 b6 10 3e a2 c7 f5 bd 75 ff fd 3d 85 29 7d be
       0.14132121 -0.120009676 0.1240224 -0.2472287
000170 f4 15 82 bd b9 23 dc bd de df ea bd b5 4a a1 bc
       -0.063518435 -0.10749001 -0.114684805 -0.019688943
000180 53 d8 43 bc 08 5f 26 be f9 45 77 be f4 4f 9c 3d
       -0.011953431 -0.16247189 -0.24147786 0.07632437
000190 bb 76 86 bd 24 ec 53 bd 99 89 ea 3d 89 8f 84 3e
       -0.06565615 -0.051738873 0.11452026 0.2589076
0001a0 39 bc 21 3d 7a 46 60 bd 17 1a 15 3e 5b 46 61 3e
       0.039486144 -0.05475471 0.14560734 0.21999495
0001b0 52 f0 33 3e ac e7 93 3d 10 0b f6 bd e6 67 28 3c
       0.17572144 0.07221922 -0.12013829 0.010278678
0001c0 38 41 46 3b b5 39 3e bd 8d 9a 8f 3d 5e d3 f7 bd
       0.0030251276 -0.046441752 0.070119 -0.12100862
0001d0 63 81 3a 3e 09 39 3d bd fa f0 28 be 72 b1 4a 3c
       0.1821342 -0.04619697 -0.16498175 0.012371408
0001e0 54 48 3a be bf 46 69 bd b6 06 64 3e 64 c3 bf bd
       -0.18191653 -0.056952234 0.22268185 -0.0936344
0001f0 20 91 c8 3c 46 4b 2b 3d ac 01 7d 3c d0 1a 19 3e
       0.024483263 0.041819833 0.015442293 0.14951634
000200 bf 26 d3 3d 66 63 4c 3d 58 20 7b be d2 98 08 3e
       0.103101246 0.04989948 -0.24524057 0.13339546
000210 0b 4a 6f be 05 60 d9 3d 05 36 7d 3e c3 1a 0d be
       -0.23368089 0.106140174 0.24727638 -0.1377974
000220 93 b7 4f 3e 6d fa ed bc 4a 9f 9d bd dc 4a 1a bd
       0.20284872 -0.029050076 -0.076963976 -0.037669048
000230 c4 71 d5 3d f4 84 6d 3d f6 a6 8d bd e0 c8 9b 3d
       0.1042209 0.057988122 -0.06916611 0.07606673
000240 25 22 1c be a9 df e4 bd 00 70 af bd 3c a9 50 3d
       -0.152474 -0.11175472 -0.08566284 0.050942644
000250 22 8f cd 3d e9 6c 81 bd 6f df ee 3d 4b f2 09 bd
       0.10037066 -0.06319601 0.1166371 -0.033678334
000260 78 ef 89 3e 17 46 80 3d 0a 57 8d 3d 00 f0 2e be
       0.26940513 0.062633686 0.06901367 -0.1708374
000270 f2 f9 cd 3d f6 53 55 3d da 3f 9a 3d 3b bf 86 3d
       0.10057439 0.052082025 0.0753171 0.06579443
000280 83 a9 f0 bd 04 da 1e bd f3 dc bd 3c 8a 07 84 bb
       -0.11751082 -0.038782135 0.023176646 -0.004029219
000290 dd 6c a7 bb 9e c5 8c 3e 93 24 98 3d 70 43 77 be
       -0.005109413 0.2749452 0.07428851 -0.24146819
0002a0 78 51 08 3e 63 98 2c 3e d7 d1 8c 3e 30 65 69 be
       0.13312328 0.16855006 0.27503845 -0.22792506
0002b0 ed c3 15 bd cf 54 8b bd 40 cb 69 bd 3e dc 4f be
       -0.036563803 -0.06803285 -0.0570786 -0.2029886
0002c0 63 e0 9f 3d 34 2f 8d 3d 0f dc 5a be 8d a3 f2 bd
       0.0780647 0.06893769 -0.21373008 -0.11847601
0002d0 ba 42 4c bd 3f 46 aa 3e ec 04 a2 bb af 7b 8d 3c
       -0.049868323 0.3325672 -0.0049444344 0.017270891
0002e0 a9 42 b7 bb 58 25 1b bd f6 e3 00 3e 53 7d fc bc
       -0.0055926633 -0.03787741 0.1258696 -0.030821478
0002f0 00 51 56 be c4 44 c4 bc 64 6e e5 b9 ac 94 41 bd
       -0.20929337 -0.023958571 -0.0004376053 -0.047260925
000300 b3 fe 31 3e 43 ba 43 be 61 01 b6 be 86 12 a3 bb
       0.17382316 -0.19114022 -0.35547927 -0.0049765734
000310 ab 75 a2 3d 49 f7 69 be 76 36 cb 3e 34 6a d6 bd
       0.079326 -0.22848238 0.39689988 -0.104694754
000320 16 94 da bd 1a bf 40 3c 16 cd a2 3d 87 b1 37 3e
       -0.106727764 0.011764312 0.07949273 0.17938815
000330 69 77 8a 3e 7b fd 0e 3d c4 87 5d 3e 0a 92 1c be
       0.27044228 0.034909707 0.21633822 -0.15290084
000340 82 c9 48 3d ac 78 84 bc dc 14 9b bd ef 4e 9c bd
       0.049020298 -0.016170822 -0.07572338 -0.07632243
000350 2a be 92 bd 2c f4 ec 3d d1 de a2 3d 3e cb bc 3a
       -0.07165177 0.115700096 0.07952655 0.0014403833
000360 19 78 35 bb cd 74 2c 3e e7 a0 d3 3d f1 96 39 be
       -0.0027689992 0.16841431 0.10333424 -0.18123986
000370 98 b6 05 bc 86 1b 6f 3e a7 2d 28 3d 05 dd c7 3d
       -0.0081612095 0.23350343 0.041059162 0.09758953
000380 2c ec a1 bc d2 90 5f 3e f1 97 fd 3d f8 6c 6c bd
       -0.019765936 0.21832588 0.12382496 -0.05772111
000390 0c 86 34 3c a0 60 32 3e 78 2c f2 3d b7 4c 99 bd
       0.011018287 0.17419672 0.11824888 -0.07485335
0003a0 ce 3c c4 3d 78 01 8c 3c 77 4c 4d bc 37 ee 76 3c
       0.0958191 0.017090544 -0.012530438 0.015071443
0003b0 b7 89 f2 3d 17 e9 01 3e d3 eb 5f 3e 01 34 47 be
       0.11842673 0.12686573 0.21867304 -0.19453432
0003c0 95 e4 45 3e b0 7e 26 3e 9e 36 48 3d e1 b6 a4 3e
       0.19325478 0.16259265 0.048880212 0.32170776
0003d0 0b 9e 6f be f8 e7 90 3e ac 76 5d 3d b1 ef a2 3d
       -0.23400132 0.28301978 0.054068252 0.07955874
0003e0 0a 92 54 3e 91 60 85 bd 58 36 1c be 81 08 bf 3d
       0.20758834 -0.06512559 -0.15255105 0.09327794
0003f0 25 24 33 3e aa 2e 4f 3e 10 c3 12 3d c1 0e 71 bd
       0.17494257 0.20232645 0.035830557 -0.05885196

lstm.bias_hh_l0 f4 [256]
000000 3c e0 52 3d 78 54 3d bd c2 4c dc 3d 40 51 d2 bd
       0.051483378 -0.046223134 0.10756828 -0.102694035
000010 e3 d4 51 3e fc 9c a3 be 90 24 7e 3c 84 15 5e 3c
       0.20491366 -0.31955707 0.015511647 0.013554934
000020 b5 57 91 3e e8 85 53 bb 49 26 22 be 53 e5 16 be
       0.28387228 -0.003227586 -0.15834917 -0.14735918
000030 5b ac 73 3d 84 4d ed bc c4 e2 12 be cd cd e0 bd
       0.059490543 -0.028967626 -0.14344317 -0.109767534
000040 4c 79 52 3d 4c fe ce bd 63 d3 6e 3e cd 2e 48 be
       0.05138521 -0.10107097 0.23322825 -0.19549103
000050 c9 96 54 bd a6 30 96 bd 99 15 06 bd a1 dc 8c be
       -0.051901612 -0.07333498 -0.03273544 -0.27512076
000060 26 43 f8 3d db f4 41 3c 2f 07 11 3d bd 19 b8 bb
       0.121221825 0.011838163 0.03540724 -0.0056183026
000070 ff 88 3c 3d c3 f1 1e be 06 14 bd bd d2 99 c4 bd
       0.046029087 -0.15521912 -0.09232335 -0.095996514
000080 e1 a3 5c bd 30 b5 2a 3b 43 0b 2f bd 61 9b 0b 3d
       -0.053867225 0.0026047938 -0.04273535 0.034083728
000090 3a a7 1c bd 22 a3 16 bd 9e ca b1 bd 29 3e 47 3d
       -0.038245417 -0.03677667 -0.08681224 0.048643265
0000a0 5b 53 61 3e 04 7f 0d be ca e4 43 3e db e5 74 3e
       0.22004454 -0.13817984 0.19130245 0.23915808
0000b0 fc 56 f2 bc 23 83 30 3d ce b8 43 3d 25 0a 13 3e
       -0.029582493 0.04309381 0.047783665 0.14359339
0000c0 18 24 e3 39 9f 4e 3b 3e a6 1c d8 3d da 07 a5 3e
       0.00043323706 0.1829171 0.10552339 0.32232553
0000d0 70 65 1c bd 63 3e 9d bd 48 1f 16 3c 8d 23 53 be
       -0.038182676 -0.07677915 0.0091627315 -0.2061903
0000e0 d3 b4 50 3e 93 da 44 be 7d a8 89 3c b4 67 2f be
       0.20381479 -0.19224004 0.016803974 -0.17129403
0000f0 f6 b3 01 bc 24 9a 97 bd 48 e9 6f be d5 bb 43 be
       -0.007916441 -0.07402447 -0.23428833 -0.19114621
000100 00 bd 00 bd 77 8e 4f 3e 9e e3 06 3e 9c c7 d7 bd
       -0.031430244 0.2026919 0.13172767 -0.10536119
000110 f0 c4 a4 3d 5e db 13 be 56 47 b8 3c a0 d8 99 3e
       0.08045375 -0.1443915 0.022494953 0.30048084
000120 97 4b 0a 3e 67 5c 21 be 20 5d 83 bd 26 6b 8b be
       0.13505398 -0.15757905 -0.064142466 -0.27230185
000130 8b 45 16 be 86 60 06 3e 02 b1 8c be 00 e4 df 3c
       -0.14674966 0.13122758 -0.27478796 0.027330399
000140 dd da 04 3e 3e 92 69 be 02 f4 5d 3d fa 60 7a bd
       0.12974115 -0.22809693 0.054187782 -0.06112764
000150 b8 77 96 3d 72 72 49 bd e4 2a f9 3d 54 0d 8d bd
       0.07347053 -0.04918141 0.12166384 -0.06887308
000160 98 d5 89 3e 94 3e 37 be 8d e2 53 bc 1a c2 8a be
       0.26920772 -0.17894965 -0.012932432 -0.27101213
000170 19 7c 9a bd df dc 0b be 53 c0 9b bd 44 d3 ad 3c
       -0.07543201 -0.13658474 -0.07605042 0.021218903
000180 87 ea b7 3c ad 29 0c be bf ce b9 bd df 27 86 3d
       0.022450699 -0.13687773 -0.09072637 0.065505736
000190 cf 8d c3 bd 0b c8 aa bd 7a e9 9b 3d bb 98 4f 3e
       -0.09548532 -0.083389364 0.076128915 0.20273106
0001a0 be 76 04 be f0 9d d7 bd 89 9a d4 3d d3 55 56 3e
       -0.12935922 -0.10528171 0.10381038 0.20931177
0001b0 2b e6 62 3e e2 49 41 bd 05 14 90 be 61 9c d8 3d
       0.22158115 -0.0471896 -0.28140274 0.10576702
0001c0 d7 8e cf 3c aa 9c bb bd d9 ab 30 3d e9 14 08 be
       0.025336666 -0.09160741 0.043132637 -0.13289227
0001d0 8e d6 a9 3d d8 51 e8 bc 3d 26 0f be f8 f0 0c 3e
       0.08292876 -0.028359339 -0.1397943 0.13763797
0001e0 2c d6 0c be 72 1a 10 be 83 fe 67 3e 9c 0d 44 be
       -0.13753575 -0.14072588 0.22655682 -0.19145817
0001f0 5a 90 a0 3c 98 a7 8e bd bc 4a a5 bd 27 72 c8 3d
       0.019600082 -0.0696556 -0.08070895 0.09787398
000200 6d 14 45 3e 2c 82 84 3d ee 18 6c be 80 3b e9 3d
       0.19246073 0.06470141 -0.23056385 0.11388302
000210 27 8b 04 be 59 22 f9 bb 78 c1 71 3e 09 9b 08 be
       -0.12943707 -0.0076029715 0.23608959 -0.13340391
000220 d5 7b 53 3e 68 6c 8d 3c 53 7a e6 3a b1 d5 8b bd
       0.20652707 0.017263606 0.0017584063 -0.06827868
000230 70 31 13 3e 00 08 d0 bd 2a ca bc 3b ad ca 5b 3e
       0.14374328 -0.10157776 0.0057614045 0.21464033
000240 59 3c 13 be c5 fa 5c bc aa e9 e4 3a 51 0b 26 3e
       -0.1437849 -0.0134875225 0.0017464657 0.16215254
000250 16 b6 f7 3d ed c0 1b 3c de 60 23 3e be f9 09 be
       0.12095277 0.009506446 0.1595492 -0.13474175
000260 77 d1 85 3e 56 a8 69 3c 9e 4e c4 bd a3 c5 2d be
       0.26136371 0.014261326 -0.095853075 -0.16969924
000270 b2 91 b7 bd ce d2 3b 3e 22 01 32 3e 11 25 fa 3c
       -0.08963336 0.18342134 0.17383245 0.030535253
000280 da d2 85 3c 68 ec ee 3d d2 1f fe bd 12 48 47 3e
       0.016335893 0.11666185 -0.12408413 0.19461086
000290 d5 d4 33 be 0d 01 5e 3e 91 c1 14 3e 59 8a 9e be
       -0.17561658 0.21680088 0.14526965 -0.30964926
0002a0 50 ba 70 3d 9c 0f d3 bc 8b 34 57 3e f5 0d 72 be
       0.05877143 -0.025764279 0.21016137 -0.23638137
0002b0 16 61 2a 3e a7 00 bb 3c 45 20 3b bd 3c ba 18 be
       0.16638598 0.02282746 -0.04568507 -0.14914793
0002c0 c5 96 a7 3d 75 30 cc 3d e6 b9 80 be 66 2b 44 be
       0.08183054 0.0997018 -0.2514183 -0.1915718
0002d0 bb 1d 22 be a3 80 9c 3e 24 2c 0a 3d b8 d8 1e be
       -0.15831654 0.30566892 0.033733502 -0.15512359
0002e0 ba f2 54 be de ca 10 be 06 c6 8f 3e 2c 1a df bd
       -0.20795718 -0.14139888 0.28080767 -0.10893664
0002f0 2f 09 05 be e4 a1 6d 3d cc ba 15 be ef 71 0c 3e
       -0.12991785 0.05801572 -0.14622039 0.13715337
000300 83 97 34 3d 31 27 cd bd ef 64 7d be f9 0e 38 bd
       0.044089805 -0.10017241 -0.24745534 -0.044936154
000310 cc e3 2f 3d 63 44 9a be e5 ab 63 3e a5 4f 10 be
       0.042941853 -0.301303 0.22233541 -0.14092882
000320 80 bb 59 bc 23 80 4c 3c f3 49 25 3e 48 de 6d 3e
       -0.013289332 0.012481722 0.1614149 0.23229325
000330 d7 45 89 3e 0e 8a 1b 3e 2a a9 9d 3e db 75 90 3d
       0.26811096 0.15189382 0.30793124 0.07053729
000340 67 da d0 bd cc ee d9 bc 73 39 aa bd e8 01 51 be
       -0.10197907 -0.026603125 -0.08311739 -0.20410883
000350 78 64 38 3d e4 f1 6e bc d5 40 d4 3d cd 03 5a bd
       0.04501769 -0.014584038 0.10363928 -0.05322628
000360 b0 50 ee bb 1a fd 74 3d 4d 52 1f 3d ec 36 0a be
       -0.0072728023 0.05981169 0.038896848 -0.13497514
000370 c0 ea 1b 3d 86 98 3e 3e 0c 8f 01 3e e9 8a 07 3e
       0.038065672 0.1861287 0.12652224 0.13236584
000380 25 63 0b bd 74 c1 7f 3d c2 2a 98 3e c3 33 15 3e
       -0.0340301 0.06244035 0.29720122 0.14570527
000390 9a 39 92 3d fe d7 32 3e 9d d0 d3 3d 78 5d b7 3c
       0.07139893 0.17465207 0.10342524 0.022383437
0003a0 e0 21 f1 3d fd 57 b7 3d 4d a4 cc 3d 38 08 c7 bb
       0.11774039 0.08952329 0.099922754 -0.006073978
0003b0 17 8b 22 3e 09 fa a9 3c 73 69 37 3e 32 d8 4c be
       0.15873371 0.020749109 0.1791132 -0.20004347
0003c0 aa f8 91 3e 04 a5 b1 3e 29 49 43 bc ef 1c e0 3e
       0.28510028 0.3469621 -0.011919298 0.43772075
0003d0 03 a5 9c bd e2 d9 92 3d 92 be 82 bd 26 75 2f 3d
       -0.07648661 0.07170464 -0.06384005 0.04283633
0003e0 07 4a 41 3e 0c 90 49 3c 2b 2e 37 be 14 32 6c 3e
       0.18875895 0.01230241 -0.17888705 0.23065978
0003f0 9e 43 31 3e 89 58 78 3d 8b 22 04 be 07 ef f2 bd
       0.1731095 0.06063131 -0.12903802 -0.11861997

head.weight f4 [24, 64]
000000 39 c3 b3 41 80 96 b3 c1 9e fc b4 c1 b9 62 b3 41
       22.470324 -22.448486 -22.623348 22.423204
000010 b5 9b b2 c1 22 f2 b2 c1 f1 a9 b2 41 0a 69 01 c1
       -22.326029 -22.368229 22.33298 -8.088144
000020 eb 24 b3 c1 4d 97 b1 41 0a 39 b4 c1 27 8a b3 c1
       -22.393026 22.198877 -22.527851 -22.442457
000030 bd b4 b3 41 88 8c b2 41 eb 30 b3 c1 6b aa b4 c1
       22.463251 22.318619 -22.398886 -22.583212
000040 93 f0 b2 c1 83 2a b4 41 de 8e 7c 41 8a 40 b3 c1
       -22.367468 22.520758 15.78488 -22.406513
000050 0a 3a b4 41 35 9f 84 c1 e5 8c b2 41 6a 01 b4 c1
       22.52834 -16.577738 22.318796 -22.50069
000060 52 91 b2 41 d4 df ac 41 bb 58 c5 40 9e be b4 c1
       22.320957 21.609291 6.1670814 -22.593075
000070 83 91 b4 c1 8b fc b4 41 4b ba b2 41 e3 d4 fd c0
       -22.57105 22.623312 22.340963 -7.932237
000080 fc 5c b4 c1 63 fe b3 41 e2 d5 b4 41 c3 a4 b2 41
       -22.545403 22.499212 22.604435 22.33045
000090 52 0b b4 41 9e 3c b3 41 c5 2c b2 41 b1 59 b3 c1
       22.505527 22.404598 22.27186 -22.418795
0000a0 ee 63 b2 41 ec 67 b4 41 52 df b3 41 6d e4 b3 c1
       22.298794 22.550743 22.484043 -22.486536
0000b0 43 b2 b2 41 c8 20 b3 c1 31 f7 b2 c1 ab 03 b3 c1
       22.337042 -22.391006 -22.370699 -22.376791
0000c0 7e fd b2 41 c4 c7 b2 41 62 b4 b2 c1 a8 68 a8 c1
       22.373775 22.347542 -22.338078 -21.051102
0000d0 85 ac b3 c1 1d 09 b4 41 b1 04 b4 41 c5 c0 b2 c1
       -22.459238 22.50445 22.50229 -22.344126
0000e0 b6 fa b2 c1 20 66 b4 c1 27 51 b4 41 96 7a b2 c1
       -22.372417 -22.549866 22.539625 -22.309856
0000f0 46 50 b4 c1 49 91 b3 c1 89 65 b2 41 68 34 b4 c1
       -22.539196 -22.44594 22.299578 -22.525589
000100 84 7c b2 41 d0 d3 b2 c1 50 91 b3 c1 3f 0e b4 41
       22.310799 -22.353424 -22.445953 22.506956
000110 62 27 b2 c1 63 e1 b2 c1 b6 96 b3 41 22 76 03 c1
       -22.26923 -22.360052 22.44859 -8.216341
000120 4f 88 b4 c1 82 80 b1 41 07 61 b2 c1 18 5a b3 c1
       -22.566557 22.187748 -22.297377 -22.418991
000130 ec 2a b3 41 95 24 b3 41 5b 89 b3 c1 a4 2a b4 c1
       22.395958 22.392862 -22.442068 -22.52082
000140 e9 b8 b2 c1 03 72 b4 41 85 4d 7c 41 f3 0b b4 c1
       -22.340288 22.55567 15.768926 -22.505835
000150 3d 51 b2 41 68 4c 84 c1 d0 59 b3 41 ef 90 b4 c1
       22.289667 -16.537308 22.418854 -22.570768
000160 56 9e b3 41 2e e0 ac 41 a2 56 c5 40 04 9d b3 c1
       22.452312 21.609463 6.1668253 -22.451668
000170 d1 87 b4 c1 17 37 b3 41 ec c8 b3 41 b9 ac fe c0
       -22.566317 22.4019 22.473106 -7.9585843
000180 d1 33 b3 c1 83 7e b3 41 aa 06 b3 41 16 ed b3 41
       -22.400301 22.436773 22.378254 22.490765
000190 75 7f b2 41 57 68 b3 41 1d dd b2 41 57 c3 b3 c1
       22.312235 22.425947 22.357965 -22.47038
0001a0 da 87 b3 41 74 fd b3 41 f7 8c b4 41 7f 91 b3 c1
       22.441334 22.498756 22.56883 -22.446043
0001b0 36 19 b4 41 ea 96 b3 c1 ab b2 b2 c1 85 67 b4 c1
       22.51231 -22.448689 -22.33724 -22.550547
0001c0 20 76 b3 41 50 ca b3 41 ec db b3 c1 9b 7d a7 c1
       22.432678 22.473785 -22.482384 -20.93633
0001d0 75 59 b3 c1 51 cc b3 41 fa b4 b3 41 00 4b b2 c1
       -22.41868 22.474764 22.463367 -22.286621
0001e0 46 dd b3 c1 ac 93 b3 c1 e1 ed b2 41 54 4f b3 c1
       -22.483044 -22.447105 22.366152 -22.413734
0001f0 3d 2b b3 c1 35 02 b3 c1 a3 1e b1 41 86 e7 b3 c1
       -22.396112 -22.376078 22.13996 -22.488049
000200 08 28 b3 41 a3 bd b3 c1 e7 08 b3 c1 75 4a b3 41
       22.394547 -22.467596 -22.379347 22.411356
000210 d8 a8 b2 c1 87 26 b4 c1 71 d6 b2 41 2f 72 02 c1
       -22.332443 -22.518812 22.354708 -8.152877
000220 63 8c b3 c1 4b e2 b1 41 12 65 b2 c1 50 71 b3 c1
       -22.443548 22.235495 -22.29935 -22.430328
000230 48 8d b3 41 fc 0d b3 41 db 10 b3 c1 3b ed b2 c1
       22.443985 22.381828 -22.38323 -22.365835
000240 0c 7e b3 c1 fc 74 b4 41 90 29 7a 41 6e 92 b2 c1
       -22.436546 22.557121 15.635147 -22.321499
000250 62 7e b2 41 02 cd 84 c1 4d c8 b2 41 ba 01 b5 c1
       22.31171 -16.600101 22.347803 -22.625843
000260 e8 ef b3 41 29 97 ac 41 94 67 c3 40 93 e9 b3 c1
       22.492142 21.573809 6.106394 -22.48905
000270 7f 10 b4 c1 7c 3d b4 41 06 fa b2 41 a8 e0 ff c0
       -22.508055 22.530022 22.372082 -7.996174
000280 84 49 b4 c1 aa 57 b3 41 80 3a b3 41 af 88 b2 41
       -22.535896 22.417805 22.403564 22.31674
000290 aa 69 b3 41 7b 6a b4 41 42 33 b3 41 a4 c4 b3 c1
       22.426594 22.551992 22.400028 -22.471016
0002a0 47 6b b2 41 40 6c b3 41 0e c2 b3 41 f2 08 b4 c1
       22.302382 22.427856 22.469753 -22.504368
0002b0 bf e1 b2 41 34 9d b2 c1 e4 16 b3 c1 72 d3 b3 c1
       22.360228 -22.32676 -22.386177 -22.478245
0002c0 78 d1 b2 41 fe 0f b4 41 5b d4 b2 c1 6e 0f a8 c1
       22.35228 22.507809 -22.35369 -21.007534
0002d0 e7 86 b2 c1 ee bd b3 41 c6 a0 b2 41 49 1d b2 c1
       -22.31587 22.46774 22.328503 -22.2643
0002e0 7e b4 b2 c1 1a f8 b3 c1 5b fb b3 41 0e 97 b3 c1
       -22.33813 -22.496143 22.497732 -22.448757
0002f0 c2 bc b2 c1 82 5d b3 c1 19 78 b2 41 dc 77 b3 c1
       -22.342167 -22.420658 22.308641 -22.433525
000300 63 b9 b2 41 04 8a b3 c1 3f 95 b3 c1 ca 16 b3 41
       22.34052 -22.44239 -22.447874 22.386127
000310 cb af b3 c1 51 30 b4 c1 d0 b2 b2 41 8d 36 04 c1
       -22.460836 -22.523592 22.33731 -8.263318
000320 ad 48 b3 c1 d5 99 b2 41 cc ad b3 c1 7c d6 b2 c1
       -22.410486 22.325113 -22.459862 -22.354729
000330 f6 72 b3 41 24 ee b2 41 36 8b b3 c1 2b db b3 c1
       22.431133 22.36628 -22.442974 -22.482016
000340 38 e7 b2 c1 d7 36 b3 41 be ed 7b 41 1f d6 b3 c1
       -22.3629 22.401777 15.745543 -22.479551
000350 73 7e b2 41 d0 46 85 c1 63 0f b3 41 f6 03 b5 c1
       22.311743 -16.659576 22.382513 -22.626934
000360 af 6b b3 41 8c c9 ad 41 bb 55 c7 40 b9 88 b4 c1
       22.42758 21.723412 6.229215 -22.56676
000370 f8 8f b2 c1 64 0f b3 41 65 2a b4 41 81 8a fa c0
       -22.320297 22.382515 22.5207 -7.829407
000380 57 86 b3 c1 17 63 b2 41 81 c2 b2 41 ec fe b3 41
       -22.440596 22.298384 22.344973 22.499474
000390 2e d0 b2 41 a3 b1 b2 41 bb 92 b3 41 37 4d b4 c1
       22.35165 22.336737 22.446646 -22.537703
0003a0 14 8e b2 41 f8 7a b3 41 69 05 b3 41 0e 1a b3 c1
       22.319374 22.435043 22.377642 -22.387722
0003b0 7d c3 b3 41 3b 66 b3 c1 72 3b b3 c1 69 77 b2 c1
       22.470453 -22.424917 -22.404026 -22.308306
0003c0 80 a2 b3 41 e1 cf b3 41 a1 f8 b2 c1 49 d9 a7 c1
       22.454346 22.476503 -22.3714 -20.981096
0003d0 49 65 b2 c1 4e 28 b4 41 ab 28 b4 41 07 84 b2 c1
       -22.299456 22.51968 22.519857 -22.314466
0003e0 fd 32 b3 c1 77 81 b3 c1 42 7e b4 41 32 b9 b3 c1
       -22.399897 -22.438215 22.56165 -22.465427
0003f0 0d 29 b2 c1 0f b2 b2 c1 9a a5 b1 41 83 a8 b3 c1
       -22.270044 -22.336943 22.20586 -22.457281

head.bias f4 [24]
000000 fa 43 b1 41 84 2f b1 41 5e ca b1 41 3b a6 b0 41
       22.158192 22.148201 22.223812 22.081167
000010 be b6 b0 41 71 fd b1 41 33 38 b2 41 00 75 b2 41
       22.08923 22.24875 22.277441 22.307129
000020 31 b4 b0 41 94 1f b1 41 4c ee b1 41 30 c1 b0 41
       22.087984 22.140419 22.241356 22.09433
000030 f7 a9 b1 41 72 32 b2 41 7e 1d b2 41 3b 8f b1 41
       22.20799 22.274632 22.2644 22.194937
000040 58 f9 b1 41 38 34 b2 41 01 4b b1 41 11 5d b1 41
       22.24675 22.275497 22.161623 22.170443
000050 da 7f b1 41 b5 b9 b1 41 c5 1f b2 41 d3 92 b1 41
       22.187428 22.215677 22.265512 22.196692
