artifacts/lstm/h128_best.pt (torch, 283187 bytes, 6 tensors)

lstm.weight_ih_l0 f4 [512, 1]
000000 e9 af 8a 3d 76 2a 5f 3e 99 46 84 3e a3 4c 0e 3f
       0.067718334 0.21793541 0.25835112 0.5558569
000010 27 57 71 3e 0f 25 a4 3f f7 f3 68 3f 85 7d 61 3f
       0.23568402 1.2823809 0.9099726 0.8808215
000020 62 be 42 3f 27 81 07 3f 72 6a e7 3d df 8a 5f 3f
       0.7607175 0.52931446 0.112996 0.87321275
000030 55 8a 4b be b1 44 f7 3e e0 2f 4b 3f da 6a 0d 3f
       -0.19876988 0.48294595 0.79369926 0.5524117
000040 4c 9f 75 be 05 81 c6 3e 70 75 d1 3e 94 09 c5 3e
       -0.23986548 0.3877031 0.4090991 0.3848387
000050 82 2f 07 3f 4f 07 89 3f 88 66 81 3e d8 9c b3 3e
       0.52806866 1.0705355 0.25273538 0.350806
000060 f0 dd 13 3f 2f 02 ad 3e e7 f0 36 be aa f5 fc 3e
       0.57760525 0.33790728 -0.17865334 0.49406177
000070 f1 fb f6 3e 99 94 1e 3f 9b 7e 89 3d 51 6b f9 3e
       0.4823909 0.6194549 0.06713601 0.48714688
000080 ea 81 44 3f 64 b9 de 3e a5 63 0c 3f ec 94 2e 3f
       0.76760733 0.43500817 0.54839545 0.68195987
000090 75 bc 11 be 24 cb 06 3f 7a d2 45 3f 7a 4c 92 be
       -0.14232047 0.5265372 0.77274287 -0.28573972
0000a0 3f 97 0b be c4 26 7c 3f ac c7 6f bd 9a ae e7 3e
       -0.13631915 0.9849665 -0.05854003 0.45250398
0000b0 f2 b9 bd 3e 32 df de 3e ba 81 22 3f 28 38 1a 3f
       0.37055928 0.4352966 0.634792 0.6024194
0000c0 9c 02 36 3f 81 4e 23 3f 8d 04 37 be 74 6f 82 3f
       0.7109773 0.6379166 -0.1787283 1.0190263
0000d0 f3 d1 24 3f 1a be 17 3f 52 82 0d 3f 32 45 6e bb
       0.6438286 0.59274447 0.5527698 -0.0036357162
0000e0 e6 43 53 3e c6 f6 1b 3f e7 fd 2b bf f0 42 4c 3f
       0.2063137 0.6092342 -0.671843 0.7978964
0000f0 91 02 b6 bd 60 f6 24 3f 72 9c 05 3f ce 31 12 3f
       -0.08887208 0.6443844 0.5219184 0.57107246
000100 21 45 3a 3e b3 16 79 bd d3 b4 d1 3e 79 f7 e1 3e
       0.18190433 -0.060812663 0.4095827 0.4413412
000110 d9 c5 f2 3e 80 e7 94 bd de f0 a5 3e 7f fd 5b 3f
       0.4741657 -0.072707176 0.3241033 0.8593368
000120 db 16 9e 3f f2 57 2e 3f 4c 5a fe 3e e2 c1 b6 3e
       1.2350725 0.68102944 0.49678266 0.35694796
000130 a4 c1 30 3f d9 85 6d 3f b2 ab e9 3e ab 19 77 3f
       0.6904547 0.9278236 0.45638806 0.9652354
000140 05 bb 38 bf 3c 8a 6b 3f 9d 4e 44 3f 59 c7 95 3f
       -0.7216037 0.92007804 0.76682454 1.1701461
000150 03 3c 0c bf 62 be 2e 3f a1 a1 b7 3e 2a cc 91 bc
       -0.5477907 0.6825925 0.358655 -0.017797548
000160 aa 2f 26 3f 6f 6f 27 3f 79 4f 9e bd a3 50 64 3f
       0.6491648 0.6540441 -0.07730002 0.8918554
000170 dc 18 8c 3d 1d 9d 01 3f 7f ef e4 3e 40 ef 1c 3f
       0.06840679 0.5063036 0.4471397 0.61302567
000180 48 c2 a1 3f 82 ab 7f bd 20 7b 0c 3f 50 5a 58 3f
       1.2637415 -0.062419422 0.54875374 0.84512806
000190 de 84 26 3e e9 7f 0a 3f 11 14 dd 3e 4e 3a 69 3d
       0.16261622 0.54101425 0.43179372 0.05694037
0001a0 87 a7 5b 3f 9b c1 10 3e 5d b5 1b 3f ef cb 37 3f
       0.858025 0.14136355 0.60823613 0.7179555
0001b0 2b e2 3c 3e 6a 4b fd 3d d8 ce 60 3f b4 f9 23 3f
       0.18445651 0.123679 0.8781562 0.6405289
0001c0 a3 7d 6b 3f 3b a4 47 bf d3 bd 79 3e c2 7b 09 3f
       0.9198858 -0.7798497 0.24388818 0.53704464
0001d0 7c c5 ec bd cb 8f a0 3e a9 f9 01 3f 16 1b 69 3e
       -0.11561105 0.31359705 0.50771576 0.22764239
0001e0 8f 1e ac 3f 3d 1a 8b 3e a0 11 37 3f aa 7e c4 be
       1.3446826 0.27168456 0.7151127 -0.38377887
0001f0 e3 6f 3e 3f 58 bb 90 3e 97 f8 b0 be b4 10 5d 3e
       0.74389476 0.28267932 -0.3456466 0.21588403
000200 a3 3d 8e be 2d e9 94 be 81 bf 22 be 42 b6 2b 3f
       -0.277814 -0.2908415 -0.15893365 0.6707498
000210 47 a8 98 3e fd 81 9b 3f bc bd 43 3f 2e 5e 60 3f
       0.29815885 1.2149044 0.76461387 0.87643707
000220 1d d5 1b 3f 32 d9 cb 3e 91 07 52 be d9 d2 83 3f
       0.6087206 0.39814144 -0.20510699 1.0298721
000230 59 5b 0a be 0a ee a1 3e ee 88 f6 3e dc 56 2e 3f
       -0.13511409 0.31626922 0.48151344 0.68101287
000240 cf b4 90 be 82 30 aa bc d1 c8 03 3f 60 19 3e 3e
       -0.28262946 -0.020775083 0.51478297 0.18564367
000250 e1 79 d2 3e 23 b0 07 3f bd cb 28 bf f4 59 fd be
       0.4110861 0.5300314 -0.6593588 -0.4948269
000260 ee 38 0b 3f 7f f1 a0 3e 2a c9 40 3b 6f 58 86 3e
       0.5438374 0.31434247 0.0029416778 0.26239344
000270 bd 57 28 3f 38 25 1a 3f 53 4e 00 3e f4 e6 d5 3e
       0.6575888 0.6021304 0.12529878 0.41777766
000280 fb e3 e3 3e b9 70 f0 3e 79 db ae 3e f8 f2 bb 3e
       0.44509873 0.46961 0.3415182 0.36708808
000290 9a da 90 be e5 e1 31 3f 0b a4 22 3f aa 0f 12 be
       -0.2829178 0.6948531 0.6353156 -0.14263788
0002a0 0b 2e 03 bf 3e 7b 48 3f d7 b0 53 bb d3 65 62 3e
       -0.5124213 0.7831305 -0.003230145 0.22109155
0002b0 a6 30 74 3e 9f a5 fb 3e a3 ff 3a 3f 2b fb 01 3f
       0.23846683 0.49149796 0.7304632 0.50773877
0002c0 6a 61 5d 3f 35 71 0d 3f ff 80 ba be 5a 13 80 3f
       0.8647677 0.55250865 -0.3642654 1.0005906
0002d0 ec 7e 02 3f 78 3d fe 3e 65 77 46 3f 92 6c 64 be
       0.5097492 0.49656272 0.7752593 -0.22307041
0002e0 5d ce 84 3e 17 0e f9 3e 6b a1 d7 be 49 39 2c 3f
       0.25938693 0.48643562 -0.4211534 0.6727491
0002f0 b0 bc ae be fd 45 b5 3e 0c 8a 43 3f c8 af df 3e
       -0.34128332 0.3540496 0.7638252 0.43688798
000300 ec 9b 97 3d 4d 1f 2f be e5 76 ce 3e 93 44 09 3f
       0.074027866 -0.17101784 0.40325084 0.5362026
000310 eb bb da 3e 91 c2 ad be ed c4 97 3e 83 47 08 3f
       0.42721495 -0.33937505 0.2964243 0.5323412
000320 c5 00 c1 3f 1a e9 0c 3f 47 5d a1 3e 38 db 9f 3e
       1.507836 0.55043185 0.31516477 0.31221938
000330 fb b8 d9 3e a7 11 3a 3f 5c 24 48 3e 04 e6 12 3f
       0.4252394 0.72683185 0.1954512 0.57382226
000340 62 a4 45 be 48 29 3b 3f 6c 3e 42 3f f9 41 16 3f
       -0.19300988 0.73109865 0.758765 0.58694416
000350 c8 07 05 bf 63 26 12 3f d9 de d0 3e d1 94 b6 be
       -0.51965 0.57089823 0.4079502 -0.35660413
000360 07 33 d7 3e 34 aa af 3e 3d b3 d2 be c2 49 8a 3f
       0.42031118 0.34309542 -0.41152373 1.0803759
000370 3b 66 0d be 1a 02 20 3e 0d d2 03 3f 64 d8 04 3f
       -0.13808529 0.15625802 0.5149239 0.51892686
000380 1f 20 3a 3f b2 eb 82 bd 8f 08 c5 3b fa b3 39 3f
       0.7270526 -0.063926116 0.006012983 0.7254025
000390 79 e7 92 bd 6c 78 a9 3e cd c5 a5 3f f9 3d 7a be
       -0.07173056 0.33099687 1.2950989 -0.24437703
0003a0 02 df e9 3e 11 b5 41 3d d1 26 30 3f 30 24 61 3f
       0.45677954 0.04729182 0.6880923 0.8794584
0003b0 63 db 44 3e d6 05 c9 be fe 88 20 3f e8 c3 ee 3e
       0.19224314 -0.39262265 0.62709033 0.4663384
0003c0 82 52 15 3f 4d a8 32 bf f4 e1 cc 3e b9 2a 02 3f
       0.5832902 -0.69788057 0.4001614 0.5084644
0003d0 f8 dd 35 be 06 22 06 3f 7e 07 73 3f 8e 6b 07 be
       -0.17760456 0.52395666 0.9493331 -0.13224623
0003e0 47 47 d5 3f db 21 9b 3e a3 c2 21 3f 26 33 d4 be
       1.6662377 0.30299267 0.6318762 -0.41445273
0003f0 d6 d5 b8 3e fa 42 5c 3e 9b e7 24 be 89 79 c3 bd
       0.36100644 0.21509925 -0.16103975 -0.09544665

lstm.weight_hh_l0 f4 [512, 128]
000000 69 68 1c bd e5 2b c3 ba ea e7 ff 3c 34 0f 12 3e
       -0.03818551 -0.0014890401 0.031238515 0.14263612
000010 4f 62 8f 3e 8a 22 c7 3d 29 bc 41 3e ab 80 af bd
       0.2800469 0.09723385 0.18919434 -0.08569463
000020 99 a7 9d be f2 6c 73 bd f2 bc 98 3c a9 dc 5b 3e
       -0.3079193 -0.05943007 0.018644784 0.21470894
000030 b6 37 8a 3c 90 c4 b9 3c 78 c9 ad be 05 6a 6f be
       0.016872268 0.022676736 -0.3394277 -0.23380287
000040 4f e0 6c be 74 d7 c4 be 50 e5 1f be 11 f2 db 3e
       -0.23132442 -0.38445628 -0.1561482 0.4295812
000050 31 2c 26 3e f7 8d 4e be 63 75 67 be 3d db 2a be
       0.16227795 -0.20171343 -0.22603373 -0.16685195
000060 08 f8 b0 bd c7 fe 26 3d 64 14 1e 3e 65 fc 42 3d
       -0.08641058 0.04077032 0.15437466 0.047603983
000070 f8 73 b1 bd a5 f8 5c be 6d 14 4b 3b 61 2f 3c 3e
       -0.086646974 -0.21579225 0.0030987517 0.18377449
000080 61 35 6f be 8c d3 0e be 28 6e 30 be 5e 5e 75 bc
       -0.23360206 -0.13947886 -0.17229521 -0.014976112
000090 9c b6 a6 3d 31 1c 56 3e 7b 5d 2e 3e 2d a4 1d be
       0.08140299 0.20909192 0.17027847 -0.1539466
0000a0 18 45 ad bd b3 98 b3 3d 1e 6d 18 be 91 0a e2 bd
       -0.08460444 0.087693594 -0.14885375 -0.11037172
0000b0 97 f9 8e bd 57 18 29 be 5e 99 d7 bd 61 43 69 3e
       -0.06981199 -0.16513191 -0.10527299 0.2277961
0000c0 39 84 e8 3d 2f 2a 76 3e a0 bd 0e 3d 79 62 2a be
       0.113533445 0.2403953 0.03484881 -0.16639127
0000d0 4c 7d 6d 3e 7f 53 21 3e 14 d6 e2 3d b9 66 d7 3c
       0.23192328 0.15754507 0.110759884 0.0262941
0000e0 06 5f fe 3d 0f 07 3b be d5 13 89 3e 26 c5 7f be
       0.12420468 -0.18264411 0.26772943 -0.2497755
0000f0 69 f3 14 be 1a 87 fb 3c 79 ec 42 3e 7d 4d 43 3e
       -0.14545979 0.03070407 0.1903552 0.19072528
000100 ff ad 54 3d c5 05 72 bd 99 aa 41 3e 39 37 87 be
       0.051923748 -0.059087534 0.18912734 -0.2640932
000110 31 98 9e 3d 72 ae 8c 3c 4f b8 ba bc 94 ca 14 3e
       0.07743872 0.017173026 -0.022792963 0.14530402
000120 f5 75 06 bb 8d c7 74 be 26 67 d3 bd 3d b0 c0 bd
       -0.0020517085 -0.23904248 -0.103224084 -0.09408615
000130 25 57 40 3d f8 f3 fb bd 17 c2 6a 3d 4a 78 7a be
       0.046958108 -0.12302393 0.057314005 -0.24459949
000140 89 55 05 be 69 d9 32 3e 79 7b 83 3e 44 17 99 3d
       -0.1302091 0.17465748 0.2568014 0.07475141
000150 e2 5f 2c 3e 17 37 32 be 22 45 f3 3d 8a e7 3e be
       0.16833451 -0.17403828 0.118784204 -0.18643013
000160 fd 40 47 be cc 55 2e 3e 20 cb 89 be 97 15 1d be
       -0.19458385 0.17024916 -0.26912785 -0.15340267
000170 61 35 d4 3d 7e 8e 8e bd 1b 4b 32 be 8e b5 f8 bd
       0.10361744 -0.06960772 -0.17411463 -0.12144004
000180 77 b7 8c 3d 48 a9 6b 3e 08 c1 5f 3e 7b 20 5a 3e
       0.06870931 0.23013794 0.2185098 0.21301453
000190 05 80 a1 3d f2 5f dc bd 56 75 96 bd 37 aa b9 bd
       0.07885746 -0.107604876 -0.07346599 -0.09065669
0001a0 c5 fc 9d bd ef f3 99 3d 32 f2 22 be 4b af 53 3e
       -0.077142276 0.0751723 -0.15912703 0.20672338
0001b0 eb 87 11 3e cf dd 14 be c2 26 c0 3d 33 0b 24 be
       0.14212005 -0.14537738 0.093823925 -0.16019897
0001c0 e9 89 93 3b 99 6b da bd 7e 63 f2 3c 51 91 65 3e
       0.004502524 -0.10665054 0.029588457 0.22418715
0001d0 bb 37 94 3d 53 73 9a 3e b7 6c 92 bd 84 3f a9 3e
       0.07237192 0.3016611 -0.07149642 0.3305627
0001e0 62 e9 0b 3e c8 fb 67 3e e9 4e f0 3d 2a 0b d5 bd
       0.13663247 0.2265464 0.11733801 -0.1040252
0001f0 6a 40 6a ba 36 3d a9 3d 16 46 07 3f 18 f7 87 3d
       -0.000893599 0.08263628 0.5284132 0.06638926
000200 95 35 8a be ec 39 ee 3c e4 5d 41 3d 9c 48 10 3e
       -0.26994005 0.029080354 0.04720868 0.14090198
000210 a2 69 99 3e 43 3d 81 3e aa b9 25 3e 59 01 3c be
       0.29963404 0.2524205 0.16184106 -0.18359889
000220 58 be 46 be 85 7a d7 bd 02 a3 38 bc fa 2e 93 3e
       -0.19408548 -0.105214156 -0.011269333 0.28746778
000230 aa f1 e6 3b f3 c8 d6 be 0d 79 53 be c6 e9 b6 be
       0.0070478516 -0.41950187 -0.20651646 -0.3572523
000240 df 2b 31 be 94 ac 9a be 83 76 96 3d 06 53 04 3e
       -0.17301892 -0.30209792 0.07346823 0.12922296
000250 18 c6 9e 3d 94 bc 7f be c8 5f b6 bd b4 d1 d5 bd
       0.07752627 -0.2497428 -0.089049876 -0.10440388
000260 f1 28 81 be f9 63 8c 3c 7d 1f 8b bd b3 0c bf be
       -0.25226548 0.017137514 -0.06793115 -0.37314376
000270 a7 02 aa bd 07 7f 18 be 10 17 c1 3e d7 22 ec 3e
       -0.08301287 -0.14892207 0.37712908 0.4612033
000280 7d ff f0 bd 08 68 43 be e4 53 3b be 49 c6 d2 bd
       -0.117674805 -0.19082654 -0.1829372 -0.10291726
000290 84 e9 0d bc 99 3f e4 3d 2c a3 09 3e 22 5c 04 3e
       -0.0086616315 0.11144943 0.13441151 0.12925771
0002a0 cf 99 89 3e a7 e2 e1 3e d4 a8 09 be 32 56 ac 3d
       0.2687516 0.44118235 -0.13443309 0.08414878
0002b0 40 87 e7 bd bc 39 8a bd 12 2d 52 be f8 63 a4 3e
       -0.11305094 -0.06749293 -0.20525005 0.3210752
0002c0 15 b4 f9 3d d0 e7 3c 3e 79 1b 8e 3e 84 e5 98 be
       0.12192551 0.18447804 0.27755335 -0.29862607
0002d0 7b 63 83 3e aa 6c 63 3e 9b a0 98 3d e5 60 40 be
       0.25661835 0.22209421 0.07452508 -0.18786962
0002e0 85 22 4e 3e 0a be b6 be c7 9b 21 3d e6 f4 5c be
       0.20130356 -0.35691863 0.0394552 -0.21577796
0002f0 87 a3 28 be d7 49 65 bf e8 ba c6 3d 34 9f 1c 3e
       -0.1646863 -0.89565796 0.09703618 0.15295106
000300 45 f2 9a 3c 58 3e 27 bf 08 35 31 3e ff 32 8f be
       0.018914351 -0.65329504 0.17305386 -0.27968594
000310 b8 35 97 3d cc 61 5c 3e b4 59 af be 28 a7 fc 3e
       0.07383293 0.21521682 -0.34248126 0.4934628
000320 41 8f af 3e 08 97 2b be 96 e6 de be fe 7f 5f be
       0.34288982 -0.16756833 -0.43535298 -0.21826169
000330 41 ed 76 3e 4b 97 7b be 79 93 46 be be 81 2f bf
       0.24113943 -0.24569432 -0.19392194 -0.68557346
000340 37 96 6a bd 61 c3 d1 3b a1 39 12 3e 04 77 72 3e
       -0.057272162 0.006401465 0.14279796 0.23678213
000350 bc 12 9e bd c8 f0 4f be c4 4b 7f 3e 0a 35 16 bd
       -0.07718417 -0.20306695 0.24931246 -0.036671676
000360 17 aa db be f7 0f 79 3e 4e bf 57 3d f3 f7 53 be
       -0.42903206 0.24322496 0.052672677 -0.20700054
000370 62 be ba be db c4 70 be e0 b6 35 be ec 06 47 be
       -0.36473376 -0.23512594 -0.17745543 -0.19436234
000380 af 38 a5 3d bb 0b dd 3c 37 62 21 3d 40 67 7e 3c
       0.08067452 0.026983133 0.039400306 0.015527546
000390 f1 b4 5a 3e 59 e9 b1 be 68 6d 18 be 5b e6 cf be
       0.21358086 -0.34748343 -0.14885485 -0.40605435
0003a0 14 90 92 be 2d 5d 9d 3d 5f 11 a0 be 4c 99 1d 3e
       -0.28625548 0.076837875 -0.31263253 0.1539051
0003b0 88 aa 99 3e 6f 1a 66 be 70 eb 9f 3e 69 ca c8 be
       0.30012918 -0.22471021 0.31234312 -0.39216927
0003c0 cd 30 03 be b9 8e 32 3e c9 19 22 3e 41 ee 4b 3e
       -0.12811585 0.17437257 0.15830149 0.19915105
0003d0 00 a2 b8 3e 66 91 7c 3e 58 8a b9 bc 8d bc 93 3e
       0.36061096 0.2466484 -0.022648975 0.2885479
0003e0 35 f8 89 3d 87 dc 68 3e 12 50 22 3e 8a 80 2a 3d
       0.06736795 0.22740375 0.15850857 0.04162649
0003f0 9f 34 8d bc 5b b8 a1 3d 9e ba 88 3d 56 e8 74 be
       -0.017237006 0.07896491 0.066762194 -0.23916754

lstm.bias_ih_l0 f4 [512]
000000 0e dc 92 bc 51 50 83 3e d6 83 3f be bc 28 e2 3d
       -0.017927196 0.25647214 -0.18702635 0.11042926
000010 a6 74 cc 3d a4 94 14 be 62 61 c3 3d 0f ac 25 3d
       0.099831864 -0.14509827 0.09540059 0.04044729
000020 0c 61 88 3d 4f d6 0b bc b5 fa a5 3d e9 b3 6a 3b
       0.06659135 -0.008534982 0.08104459 0.0035812801
000030 80 19 11 3c 1d 08 80 3d 85 aa 37 bd 13 59 8b 3d
       0.008856177 0.062515475 -0.044840354 0.06804099
000040 1d 1f 53 3e a5 07 2e 3e f6 77 e8 3d b9 dc 86 bd
       0.20617338 0.16995104 0.11351006 -0.06585068
000050 ab f5 5c bd b9 af 59 3d 69 6b 17 3e 1e 0e e1 bd
       -0.053945225 0.053146098 0.14787067 -0.10989021
000060 cd 3b cf 3d b6 c9 08 bd 1f ce 0a 3e 43 33 db bc
       0.10118828 -0.03339549 0.13555191 -0.026757842
000070 61 d2 a7 be 42 03 c5 3d 4f 22 20 bd 3a 2e a8 3d
       -0.32777694 0.09619762 -0.03909522 0.08211942
000080 cd 5c 43 bd 8a 77 f2 3d 11 60 f5 3d 33 bd b3 3a
       -0.047695924 0.118392065 0.11981214 0.0013713002
000090 36 10 2a 3e 36 c1 8f 3c 0f 45 98 3d 5b e6 dd 3d
       0.16607746 0.017548185 0.07435047 0.108349524
0000a0 49 ba f3 3d e0 42 37 bd 99 6f a1 3e c7 5c 07 be
       0.119007654 -0.04474151 0.31530455 -0.13218985
0000b0 e8 d7 2e 3e 5d 32 09 3e 3b 2d ce 3d e8 58 82 bc
       0.17074549 0.13398118 0.10067221 -0.015911534
0000c0 96 e3 33 be 9c 53 05 3e 73 14 63 3e e8 89 db bd
       -0.17567286 0.13020176 0.2217577 -0.10719663
0000d0 69 2f e3 3c 7d 8b 68 3e c9 13 48 3d b1 5d 8e 3e
       0.027732568 0.2270946 0.048846994 0.27805856
0000e0 4f c6 1e bc d0 9f f2 3d 06 9a 6e bd 13 b9 76 3d
       -0.009690835 0.11846888 -0.058252357 0.060235094
0000f0 d9 dd 86 3e 53 41 4d bc 01 7c 75 be 97 69 4b 3d
       0.2634113 -0.012527782 -0.23973085 0.049661245
000100 f5 38 53 3d e0 3e 24 bd 21 57 1c 3c 30 52 cb 3d
       0.05156799 -0.040099025 0.0095422575 0.099277854
000110 17 08 4e bd 11 f3 f4 3d 9e 64 62 3d a5 b1 54 bd
       -0.050300684 0.11960424 0.055271737 -0.051927228
000120 f8 13 48 3d 1a f5 83 bc 3c 79 9f 3d 96 06 3e bd
       0.04884717 -0.016108084 0.077867955 -0.046393
000130 8d d3 28 3e 3e d2 69 3d 44 2c a5 ba ab ee 28 bd
       0.1648695 0.05708527 -0.0012601693 -0.041243237
000140 c4 13 ae 3e a3 3e fd 3d c6 91 a6 bd 93 b4 e3 bd
       0.33999455 0.12365463 -0.08133273 -0.11118426
000150 70 b8 48 3e 14 60 38 3e 4f 71 b3 3d d4 39 90 3d
       0.19601607 0.18005401 0.08761846 0.0704228
000160 e1 ad 2c 3e 58 f3 ea 3d ec 8a 3e 3e 36 f9 90 bd
       0.16863205 0.114721954 0.18607682 -0.07078783
000170 d1 5e ad bd 6c 74 92 3e 33 bf de bc a1 ab 30 3d
       -0.084653504 0.28604448 -0.02719078 0.043132428
000180 da de c2 bd bf d8 bd 3d 20 d3 80 bd 54 03 c5 3d
       -0.09515162 0.09269857 -0.06290269 0.096197754
000190 22 9c ae bd 6d cc a8 3d c4 f1 92 bb d0 96 2f 3e
       -0.08525874 0.08242116 -0.004484387 0.17147374
0001a0 69 36 0b 3e cb 0f 13 be 3f 7d a5 3d 59 3f 8a 3d
       0.13594975 -0.14361493 0.080805294 0.06750364
0001b0 82 89 55 3c 7c a3 af 3b 50 71 97 3c 1a ab a3 39
       0.013033273 0.005360065 0.018486649 0.00031217263
0001c0 1b 96 ea 3b 98 b0 0f bd cf 0b 21 3e a9 74 9b 3d
       0.0071590072 -0.035080522 0.15727161 0.075906105
0001d0 19 6c c9 3d a7 be 70 3d ec 94 e6 3d 4f 40 43 bd
       0.09835071 0.05877557 0.11258873 -0.04766875
0001e0 d9 7a 6f be f1 58 0f 3d 0b 62 e8 3d c9 f0 b3 3d
       -0.23386706 0.03499693 0.11346825 0.087861605
0001f0 ce 99 03 3e 40 eb 00 bd 1a 21 b1 3c 2d ad d9 3d
       0.1285164 -0.031474352 0.02162223 0.10628734
000200 3c 67 95 3d 6f 9d 30 3e ac 29 9c 3d a1 dc d5 3d
       0.07295081 0.17247556 0.07625136 0.10442472
000210 de e4 06 3e 8e 87 e9 bd 36 cd 7b 3d 42 a2 24 be
       0.13173243 -0.11402808 0.061475 -0.16077521
000220 a6 de 75 3d bc ac 99 3d 36 39 cc bd fc 60 51 bd
       0.060026787 0.075036496 -0.099718496 -0.051117882
000230 71 10 b9 bd 9d 8a d0 bd 2b 3c 5d 3d e4 ec 24 bd
       -0.09036339 -0.101826884 0.05401246 -0.04026498
000240 1c 23 e9 bd b1 1a 21 bd ef ef 0f be 2a ed 8f bd
       -0.1138365 -0.039332096 -0.14056371 -0.07027657
000250 49 0e 90 3c 6d 1a a8 3d da f2 88 3d a1 e9 51 3e
       0.017584937 0.08208165 0.06686945 0.20499279
000260 bd 68 32 3e 39 9d 8d be 07 4c 31 be 18 24 98 bc
       0.17422767 -0.27659014 -0.17314158 -0.018571898
000270 23 a2 86 bd 5e 7e a1 3c 6b b0 9c 3d ef cf 99 3d
       -0.06573894 0.019713577 0.076508366 0.07510363
000280 7d 1c d0 bd b4 be c2 3d c7 a2 1b 3e db b7 f2 bc
       -0.10161684 0.0950903 0.15198813 -0.029628685
000290 99 08 99 3e 90 30 4b bd 6a d8 32 3e b6 b6 51 3d
       0.29889372 -0.04960686 0.17465368 0.051199637
0002a0 1c 80 fb 3c 8f 78 18 bc 64 af cb 3e 38 ed f6 3d
       0.030700736 -0.009306087 0.3978225 0.12056965
0002b0 aa ac 66 3e 56 c9 f8 3d 0e 5c a7 3c 72 77 9f bb
       0.22526804 0.12147777 0.020429637 -0.004866534
0002c0 e1 84 04 be 13 20 65 3e 6f 83 4e 3d d1 d7 43 bd
       -0.12941314 0.22375517 0.050418314 -0.04781324
0002d0 54 5a 1d be 5c 3d 60 3e 79 0a 21 bd 1a 16 62 3e
       -0.15366489 0.21898407 -0.039316628 0.22078744
0002e0 d7 33 ac bc c4 d1 0c 3e 02 59 6e bd c1 dd fe 3d
       -0.021020813 0.13751894 -0.058190353 0.1244464
0002f0 ff de 75 3e ae 57 95 3d 59 8c 23 be ce 00 3c 3d
       0.24010848 0.07292114 -0.15971507 0.045899205
000300 1d 72 a8 3d 39 d7 9a bb 89 08 a9 bd 30 f7 9e 3d
       0.082248904 -0.0047253636 -0.08253581 0.07761991
000310 f5 d1 e7 bd 5a f8 50 3d 12 79 94 3c 27 f8 de 3d
       -0.11319343 0.051018097 0.018124137 0.10887175
000320 b7 67 f2 bc cf f1 ed 3d 10 11 44 3d 44 2e 4b 3c
       -0.02959047 0.11618387 0.047867835 0.012401167
000330 61 9f 5d 3e 81 5b 02 3e 7c 05 ad bd a1 94 d3 3d
       0.2164283 0.12730218 -0.08448312 0.10331083
000340 7f a9 3d 3e 07 62 30 3d ea 6e 07 be 25 c3 c8 3d
       0.18521689 0.043062236 -0.13225904 0.09802846
000350 90 7b 18 3e 01 a1 7f 3d 43 f9 75 bc fb da bf 3c
       0.14890885 0.062409405 -0.015013042 0.023419848
000360 a0 d1 60 bd cc ee 6b 3d 3d 7a aa 3e 4b 93 42 3d
       -0.054887414 0.05760078 0.33296385 0.04750375
000370 48 00 3f 3d 3b b2 14 3d 6e d2 46 be 55 0c ac 3d
       0.046631128 0.036302786 -0.1941621 0.0840079
000380 1a 8d cc 3d 61 29 b9 3d fa b9 10 3e 92 4d 20 be
       0.099878505 0.090410955 0.14133444 -0.1565459
000390 43 00 52 3d f6 24 e5 bd 87 fb 98 3d bc fb c9 bd
       0.05126978 -0.1118869 0.0746985 -0.09862468
0003a0 cb 31 f4 3d 1b 48 ba bd f7 17 a6 3d 4d da b9 3d
       0.1192356 -0.09095784 0.0811004 0.09074841
0003b0 84 88 27 3e 97 63 9f 3d 4b 43 65 39 75 32 df 3d
       0.1636067 0.07782667 0.0002186421 0.10898296
0003c0 d2 59 66 3d 0f b8 87 3b 19 54 03 bd f1 ea 98 3d
       0.056238003 0.0041418145 -0.032062624 0.074666865
0003d0 23 af 31 3e 41 95 2c 3e bd 81 89 ba 76 30 b7 3d
       0.17351966 0.16853811 -0.0010490936 0.0894479
0003e0 4f c9 12 be 9a 8c 81 3e 5e 9b 23 3e 74 e9 ba 3d
       -0.14334606 0.25302583 0.15977237 0.09126559
0003f0 fc be 01 3b 3f 12 cb bd 41 22 00 3e 38 80 34 3e
       0.0019797673 -0.099155895 0.12513067 0.17627037

lstm.bias_hh_l0 f4 [512]
000000 2f d3 1e bc 99 ea 2f 3e 0d 59 02 be 13 69 33 3e
       -0.009693905 0.17179336 -0.12729283 0.17520551
000010 77 0b ed 3c d6 bc 10 be 17 b7 d1 bc f9 f2 c3 bb
       0.02893613 -0.14134535 -0.0256 -0.0059798923
000020 98 c9 45 3d 8b 34 84 bd ef ed f7 3d b5 6f fb 3d
       0.048287958 -0.06455334 0.12105929 0.12277166
000030 2e 5d 80 bd f6 ac 43 3e c2 4b 97 3c f3 a9 eb 3d
       -0.062677726 0.19108948 0.018468741 0.115070246
000040 0c 0d 29 3e 0e 1f 69 3e 8e 47 c1 3d 83 02 d0 bd
       0.16508883 0.22765753 0.09437476 -0.10156729
000050 bd 54 54 bd 5b fb 03 bc d7 31 26 3e a5 fc bf bd
       -0.051838625 -0.008055533 0.1622995 -0.0937436
000060 7f 71 e0 3d 86 8f 67 bd 8f 22 fc 3b cd 70 ab b9
       0.10959148 -0.05653336 0.0076945494 -0.00032699705
000070 36 51 88 be a4 16 33 3e 68 26 aa 3d 06 ce 24 bc
       -0.2662446 0.17489105 0.08308107 -0.010058885
000080 ac 54 03 3d ee 37 e6 3d 58 21 23 bc 0a c0 81 3d
       0.03206317 0.112411365 -0.00995668 0.06335457
000090 7e 34 1d 3e ea aa 99 bc 65 de 2b 3e 47 98 c0 3d
       0.15352055 -0.018758256 0.16784056 0.094040446
0000a0 11 3c 6c 3d de 32 eb bc 8c 0e af 3e 0b ab a1 bd
       0.05767447 -0.028710779 0.34190786 -0.07893952
0000b0 e7 36 8d 3e 11 34 33 3e f3 e7 a9 3d 6c 8d 90 bd
       0.2758095 0.1750033 0.08296194 -0.07058224
0000c0 79 5a ed bd 51 dc 9a 3d 3d c5 28 3e fa fe 2a be
       -0.11589522 0.07561553 0.1648149 -0.16698828
0000d0 b1 75 b3 3b 98 e1 b4 3d dd 36 23 3e 87 6b 9a 3e
       0.0054766764 0.08832091 0.15938897 0.30160162
0000e0 81 d9 77 bd d2 9e 9b 3d c3 eb b7 bd 96 3c 20 3e
       -0.060510162 0.07598652 -0.08980515 0.15648112
0000f0 3b 51 ab 3e ad 1f a9 3d 6b 65 d6 bd b2 f1 a9 ba
       0.3346041 0.08257995 -0.10468563 -0.0012965708
000100 2a 40 05 3e 5e d5 70 bc ef 05 74 bb d0 a1 7e 3d
       0.13012758 -0.014699308 -0.0037234982 0.062166035
000110 d4 6a 7c bc 84 8c d7 3c a0 13 62 bd 69 e5 d7 bc
       -0.015406329 0.02631212 -0.055194497 -0.026354508
000120 d3 11 95 3d dc 8f ff bd c0 15 5c 3d 83 05 fe bd
       0.0727879 -0.12478611 0.05373168 -0.12403395
000130 0a c0 1c 3e f5 d8 81 3d 21 f4 64 3c b4 c3 01 ba
       0.15307632 0.063402094 0.0139742205 -0.00049501215
000140 bc 2a 99 3e 02 b7 eb 3d a7 fa 3b be 65 56 b4 bd
       0.29915416 0.11509515 -0.18357335 -0.08805541
000150 2e d4 3b 3e 06 4a ce 3d 58 f5 5a bd 5c ee 90 bd
       0.18342659 0.100727126 -0.053456634 -0.070767134
000160 f8 94 38 3e 18 cb c3 3c 32 7d 80 3e 16 61 ef bd
       0.18025577 0.023900554 0.25095516 -0.116884395
000170 74 a3 24 bd 85 88 98 3e 60 66 4a bd 0e 36 ff 3d
       -0.040194944 0.29791656 -0.04941404 0.12461482
000180 ec 64 c8 bd 43 1e d8 3d f5 79 32 be 85 8c 3c 3d
       -0.09784874 0.10552647 -0.17429335 0.046032447
000190 57 29 8a 3c 14 38 4c 3d bd ad 28 3e fa 3e a7 3e
       0.016865415 0.049858168 0.16472526 0.32665235
0001a0 3f 7a 1b 3e 7e bb 5a bc 82 ee 87 3d 00 8b bb 3d
       0.15183352 -0.013350366 0.06637289 0.091573715
0001b0 e3 d3 0b be 89 ea b7 3d 6d b9 07 3e cb f4 b2 3d
       -0.13655047 0.08980281 0.13254328 0.08738097
0001c0 34 b5 a3 3d 0c 07 94 3c b8 a7 25 3e b6 0d 02 3e
       0.07993546 0.018069766 0.16177261 0.12700543
0001d0 e1 7e 5a 3e 93 1c 11 3e fd cc 05 3d 44 56 1d be
       0.21337463 0.14171056 0.032666195 -0.15364939
0001e0 0b ee 0a be 7e a2 de bd 86 02 09 3e e6 c6 fa 3d
       -0.13567369 -0.10870837 0.13379869 0.12244968
0001f0 e7 bb f6 bc 5f 27 0a be 4a b7 a1 3d 0d 73 05 3d
       -0.030118896 -0.13491581 0.07896288 0.032580424
000200 e3 a3 68 3c a7 84 2b 3e 42 36 e8 3a ee 63 2f 3e
       0.01419923 0.16749822 0.0017716365 0.17127964
000210 0d e6 93 3d 3c cd d3 bd 79 e8 51 3d ad 19 dc bd
       0.07221613 -0.1034188 0.051247094 -0.10747085
000220 1f 58 5d 3e 0e 37 80 bd 4b f3 a1 bc 2b be 42 bd
       0.21615647 -0.06260501 -0.019769331 -0.04754464
000230 e6 dc 7d bd 3a 90 fb bd 30 a4 99 3c 63 2f 92 bd
       -0.061978243 -0.122833684 0.018755049 -0.071379445
000240 31 af e8 bd 43 79 ce 3b d3 02 2a be 8d 23 57 3d
       -0.1136154 0.0063010766 -0.1660264 0.05252414
000250 20 8a 0d 3e d2 03 a8 3d ac 32 86 3d d4 55 95 3d
       0.13822222 0.08203854 0.06552634 0.07291761
000260 ed b8 62 3e fc 0c a4 be cf 00 5e bd de 42 ba bc
       0.22140856 -0.32041156 -0.05419999 -0.022736963
000270 9f f8 55 bd 0a 54 00 3e 2b 09 b6 3d 31 d9 fb 3d
       -0.052239057 0.12532058 0.088884674 0.12297285
000280 16 a6 f5 bd 84 05 e8 3d 7c 03 b7 3d 0b 29 9f bc
       -0.11994569 0.11329177 0.089362115 -0.01942875
000290 35 4c 8a 3e 4e 09 16 be 8b 3f 02 3e 21 54 18 3e
       0.27011266 -0.14651987 0.12719552 0.14875843
0002a0 a5 11 09 bd 21 06 9c bd de 5e bc 3e 1c 97 37 3e
       -0.033464093 -0.076183565 0.36791128 0.17928737
0002b0 69 1b 30 3e f2 90 16 3e de cb a2 bd 67 b6 81 bc
       0.17197956 0.1470373 -0.07949041 -0.015834047
0002c0 4e f9 f6 bd 98 4a 4e 3e 60 6a c4 3d 76 8b aa ba
       -0.1205927 0.20145643 0.09590602 -0.0013011533
0002d0 83 23 17 be a9 1f 3d 3e 35 31 4d bd 9d a6 69 3e
       -0.1475964 0.18469109 -0.050095756 0.22817464
0002e0 c3 bb 85 3d 74 08 36 3e 3f eb 9e bc 77 c6 01 3e
       0.06529953 0.17776662 -0.019399283 0.12673365
0002f0 45 a2 f5 3d 17 ac ba bb 89 a4 2e 3a 51 cb 01 3e
       0.11993841 -0.0056967842 0.0006662091 0.12675215
000300 68 1c 81 3d 6d a8 f5 3c 7b 4f f7 3c 77 8d bc 3d
       0.06304246 0.029987538 0.030189266 0.0920667
000310 5f c6 53 be 50 a9 07 3e 80 f8 7e bd 40 a4 25 3d
       -0.20681141 0.13248181 -0.062248707 0.040439844
000320 b0 6b 88 3d 7a bd 9a 3d 26 6e 0d 3e dc 18 08 3d
       0.06661165 0.07555671 0.1381155 0.033226833
000330 39 12 2e 3e cf fc 22 3e 01 f8 1d be 67 b7 0a 3d
       0.16999139 0.15916751 -0.15426637 0.033866312
000340 17 41 3a 3e 08 a2 6a 3d f5 d7 ad bd ca 68 81 3d
       0.18188892 0.05728343 -0.08488456 0.06318815
000350 96 67 17 3e 13 3c fc 3d e8 06 62 bd 89 bf 02 3e
       0.14785609 0.12316146 -0.055182368 0.12768377
000360 da b9 07 be 27 53 06 3d 7f f0 a2 3e 70 27 5e 3c
       -0.1325449 0.032794144 0.3182411 0.013559207
000370 87 a7 29 3d 54 bf 9b 3d 96 81 9f bd fd 81 62 3d
       0.041419532 0.07604852 -0.077883884 0.055299748
000380 d8 c7 07 3e a5 e6 95 3b 6c a4 5e 3c c5 0a 26 be
       0.13259828 0.004574614 0.013589006 -0.16215046
000390 b5 05 2d bc e7 ee 4f be 5b 5a 9c 3d 3d 2f 34 3d
       -0.010560443 -0.20305978 0.076344214 0.043990362
0003a0 4f f1 0d 3d 10 ba ec bd ea fe c3 bc d0 74 43 bd
       0.034653958 -0.11558926 -0.023925263 -0.047718823
0003b0 1f 0c 25 3e 02 87 53 3e 99 be 04 3e 50 95 16 3e
       0.16117905 0.2065697 0.12963332 0.14705396
0003c0 6e 2c 0d 3e 88 4a 9d 3c 0e 5a 68 bd 71 f2 24 3e
       0.1378648 0.019200578 -0.056726508 0.16108109
0003d0 9c 18 5a 3e 5d e7 4f 3d a5 d8 89 3d 62 92 7e 3c
       0.2129845 0.050757755 0.06730775 0.01553783
0003e0 24 fb 44 bd 91 62 87 3e 13 36 c8 3d 5d 60 cf 3d
       -0.04809107 0.26442388 0.09775939 0.10125802
0003f0 9c ef be 3d 51 b7 8c bd d9 21 f8 3d cf 54 51 3e
       0.093230456 -0.06870902 0.12115831 0.20442508

head.weight f4 [24, 128]
000000 bd 03 39 c1 65 c6 5c c0 12 08 47 c0 21 5c 84 41
       -11.563413 -3.449609 -3.1098676 16.544985
000010 e8 43 82 41 4a 7f 80 41 60 e7 84 41 82 5d 83 c1
       16.283157 16.062153 16.612976 -16.420658
000020 64 3e 86 c1 4d 61 85 c1 b0 c3 55 c0 59 76 86 41
       -16.780464 -16.67251 -3.3400688 16.807787
000030 bd 7d 29 40 21 f2 81 c1 9c 30 88 c1 e1 83 81 c1
       2.6482995 -16.243227 -17.023735 -16.189394
000040 f7 cb 7f c1 67 8b 82 c1 56 aa 62 c1 21 a3 85 41
       -15.987296 -16.318068 -14.166586 16.704653
000050 a2 89 87 41 bb 9f 87 c1 64 42 82 c1 5b d8 83 c1
       16.942204 -16.952993 -16.282417 -16.480642
000060 b8 c5 82 c1 e2 95 71 41 42 ef 88 41 18 33 36 c1
       -16.346542 15.0990925 17.116825 -11.387474
000070 7c 2d 87 c1 75 7e 88 c1 c5 9f 69 41 72 e0 83 41
       -16.89721 -17.061747 14.601506 16.484592
000080 94 ed 81 c1 b2 b0 87 c1 46 59 86 c1 a1 88 25 40
       -16.241005 -16.961277 -16.79359 2.5864642
000090 2f 2b 6a 40 c7 33 82 41 40 72 89 41 2f de 62 c1
       3.6588857 16.275282 17.180786 -14.179244
0000a0 36 f2 37 41 5c 06 83 41 71 c0 80 c1 f1 5c 21 40
       11.496634 16.378105 -16.093966 2.5212977
0000b0 c0 94 36 c1 2a c5 87 c1 91 c0 82 c1 13 56 87 41
       -11.411316 -16.971272 -16.344027 16.917028
0000c0 02 c3 85 41 8c 03 87 41 fc 08 80 41 09 28 84 c1
       16.720219 16.876732 16.004387 -16.519548
0000d0 67 cf 81 41 52 c2 86 41 1e c3 87 41 82 85 30 c1
       16.22627 16.844883 16.970272 -11.032595
0000e0 10 88 87 41 c5 bc 82 c1 5e 98 84 41 4f 3c 87 c1
       16.941437 -16.342173 16.574398 -16.904448
0000f0 d4 04 80 c1 da 32 77 c1 19 b6 80 41 9b d2 87 41
       -16.002357 -15.449915 16.088915 16.977835
000100 33 fd 83 41 77 8f 7b c1 3b a9 6b 41 29 8f 88 c1
       16.498632 -15.722526 14.728816 -17.069902
000110 a3 c1 89 41 3f 3d 37 41 d0 33 82 c1 43 61 85 41
       17.21955 11.452453 -16.2753 16.672491
000120 d4 cb 86 41 1b 66 80 c1 0a ef 80 c1 f2 94 87 c1
       16.849525 -16.049856 -16.116718 -16.947727
000130 06 40 89 41 45 6d 84 c1 85 bf 17 40 4a 8b 7f c1
       17.156261 -16.553354 2.3710644 -15.971506
000140 12 f1 7f c1 8f 81 8b 41 f7 34 80 41 e9 87 80 41
       -15.996355 17.438261 16.025862 16.066362
000150 dc 24 7e 41 62 15 88 c1 c9 17 87 41 83 a0 6b c1
       15.883999 -17.01044 16.886614 -14.726687
000160 01 61 81 c1 6e 32 86 41 9f 2d 83 c1 be 61 7c c1
       -16.172365 16.774624 -16.397276 -15.773863
000170 9c e8 37 c1 84 15 82 c1 7c af 83 c1 a2 c4 87 c1
       -11.494289 -16.260506 -16.460686 -16.971012
000180 97 44 7e 41 95 b3 7a 41 54 01 81 41 17 0c 82 41
       15.891746 15.668843 16.125648 16.255903
000190 d1 24 81 41 69 c7 87 c1 84 17 82 c1 64 cb 81 c1
       16.142977 -16.972368 -16.261482 -16.224312
0001a0 c7 97 83 c1 f3 e8 87 41 94 14 83 c1 44 ac 85 41
       -16.44911 16.988745 -16.385048 16.709114
0001b0 80 2a 82 41 6d 70 80 c1 1c 9e 86 41 8f 92 87 c1
       16.270752 -16.054895 16.827202 -16.946562
0001c0 eb 48 db 40 b0 ca 86 c0 3d ed 80 41 03 81 87 41
       6.852651 -4.212242 16.115839 16.937994
0001d0 4a 78 7b 41 0d 11 84 41 d6 2f 80 c1 ca 43 87 41
       15.716867 16.508326 -16.023357 16.9081
0001e0 15 b5 7c 41 a7 4e 89 41 bd e1 88 41 73 14 67 c0
       15.7942095 17.163404 17.110224 -3.6106231
0001f0 b8 b2 42 c1 c1 20 81 41 cf 3b 85 41 8f 37 7f c1
       -12.1686325 16.140993 16.654203 -15.951064
000200 26 98 3a c1 e8 8b 51 c0 73 1a 47 c0 af 57 84 41
       -11.662146 -3.2741642 -3.1109893 16.542814
000210 a3 8e 81 41 3c c9 80 41 01 d3 84 41 73 0b 83 c1
       16.194647 16.098259 16.60303 -16.38059
000220 2e a1 85 c1 40 25 84 c1 5e f4 3e c0 a2 f0 85 41
       -16.703701 -16.518188 -2.983665 16.742496
000230 07 4f 2e 40 eb 2f 82 c1 c1 6f 87 c1 8b 41 81 c1
       2.7235734 -16.273397 -16.929567 -16.157003
000240 52 13 81 c1 91 3a 82 c1 56 6c 62 c1 e8 6d 85 41
       -16.134434 -16.278597 -14.151449 16.678665
000250 32 29 86 41 f7 1f 86 c1 20 3b 84 c1 a5 f8 82 c1
       16.770115 -16.765608 -16.52887 -16.371408
000260 c2 58 83 c1 08 d3 71 41 6c 9e 88 41 d2 6f 37 c1
       -16.418339 15.114021 17.077354 -11.4648
000270 cd 12 85 c1 52 74 87 c1 a9 ce 6a 41 9f b3 83 41
       -16.63418 -16.931797 14.675454 16.462706
000280 d9 9c 82 c1 7a 78 87 c1 e7 14 86 c1 86 40 29 40
       -16.326586 -16.933826 -16.760206 2.6445632
000290 4d b6 56 40 b9 5a 82 41 02 2b 88 41 69 fb 60 c1
       3.3548768 16.294298 17.021 -14.061379
0002a0 78 ae 38 41 c5 d2 82 41 5b 65 80 c1 ed d1 12 40
       11.542595 16.352915 -16.04949 2.2940629
0002b0 e4 fc 36 c1 7b a3 87 c1 a0 84 82 c1 63 ed 85 41
       -11.436741 -16.954824 -16.314758 16.740911
0002c0 a5 f2 84 41 13 53 86 41 29 74 80 41 6a 8c 82 c1
       16.618479 16.790564 16.056719 -16.318562
0002d0 8a e3 80 41 a8 39 85 41 74 cd 87 41 e5 05 32 c1
       16.111103 16.653152 16.975319 -11.126439
0002e0 80 40 88 41 c8 e9 81 c1 87 62 84 41 7c 16 85 c1
       17.031494 -16.239151 16.54811 -16.635979
0002f0 87 c6 7f c1 78 05 78 c1 fd 47 81 41 32 d6 86 41
       -15.985969 -15.501335 16.16015 16.854588
000300 64 e3 84 41 3d 50 7d c1 a6 3c 6a 41 6e 32 87 c1
       16.61103 -15.832089 14.639807 -16.899624
000310 46 ad 89 41 99 58 38 41 ed 8a 81 c1 26 73 84 41
       17.209606 11.52163 -16.192835 16.556225
000320 38 15 86 41 c2 3a 81 c1 58 f3 80 c1 db 79 88 c1
       16.76036 -16.15369 -16.11882 -17.0595
000330 61 23 88 41 44 97 83 c1 e5 ad 0a 40 a8 1e 80 c1
       17.017275 -16.44886 2.1668637 -16.014969
000340 d8 31 81 c1 81 78 8a 41 7d e7 7f 41 b7 22 81 41
       -16.149338 17.30884 15.994016 16.14195
000350 09 3d 80 41 18 8f 86 c1 73 b8 87 41 46 b6 6d c1
       16.029802 -16.81987 16.965063 -14.857
000360 11 38 81 c1 63 30 84 41 2b f1 83 c1 65 82 7a c1
       -16.152376 16.523626 -16.492758 -15.656835
000370 c4 37 3b c1 b1 10 83 c1 60 21 83 c1 bf 70 86 c1
       -11.701115 -16.38315 -16.391296 -16.805052
000380 28 bd 7e 41 4a 71 7c 41 25 41 81 41 20 94 81 41
       15.921181 15.777658 16.156809 16.197327
000390 2e d6 80 41 cb 31 87 c1 d4 10 83 c1 fb 0e 82 c1
       16.10458 -16.899313 -16.383217 -16.257315
0003a0 7b de 82 c1 a5 c4 87 41 ae 5e 82 c1 ea ce 84 41
       -16.358633 16.971018 -16.29623 16.601032
0003b0 ec 7d 81 41 ff 24 81 c1 19 51 86 41 12 3c 86 c1
       16.186485 -16.143064 16.789598 -16.779331
0003c0 3e a2 de 40 58 ae 70 c0 4c 57 81 41 f1 f8 86 41
       6.957305 -3.760641 16.167625 16.871553
0003d0 80 51 7c 41 54 38 83 41 d8 82 7f c1 50 3b 86 41
       15.769897 16.402504 -15.969444 16.778961
0003e0 26 36 7e 41 d1 e8 87 41 13 72 88 41 b4 4d 4b c0
       15.88822 16.98868 17.0557 -3.1766176
0003f0 1f 81 42 c1 2a 90 81 41 84 b1 83 41 ac 3a 80 c1
       -12.156524 16.195393 16.461678 -16.028648

head.bias f4 [24]
000000 7e 4e 76 41 16 45 77 41 87 16 77 41 76 8c 78 41
       15.394163 15.454367 15.443 15.534292
000010 3f 1c 78 41 4e ef 77 41 c7 60 75 41 e2 97 76 41
       15.506896 15.495924 15.336127 15.412081
000020 7e c2 76 41 b5 25 76 41 94 69 76 41 04 e1 75 41
       15.422483 15.384206 15.400776 15.367435
000030 95 c6 76 41 02 e5 77 41 f0 af 76 41 96 59 77 41
       15.423482 15.49341 15.4179535 15.459372
000040 e8 64 77 41 35 d5 77 41 3c 94 75 41 8c ca 75 41
       15.462135 15.4895525 15.34869 15.36195
000050 16 72 75 41 1a 1c 78 41 e0 77 77 41 1a 03 77 41
       15.340353 15.506861 15.466766 15.438257
