artifacts/lstm/h32_best.pt (torch, 23530 bytes, 6 tensors)

lstm.weight_ih_l0 f4 [128, 1]
0	0x3f178a47	0.5919537
1	0x3f9d7277	1.2300557
2	0x3ef7a658	0.48369098
3	0x3f027edd	0.5097483
4	0x3ebdb535	0.37052312
5	0x3e01bde5	0.12670095
6	0x3ee37d9d	0.44431773
7	0x3e6c633f	0.23084734
8	0x3f123b8b	0.57122105
9	0x3f0f1e59	0.5590568
10	0x3f31647f	0.6929397
11	0x3f9c629a	1.2217591
12	0x3f386ce0	0.7204113
13	0x3f3e0f41	0.74242026
14	0x3e0e6748	0.13906586
15	0x3f9f08d8	1.2424574
16	0x3f45fda3	0.77340144
17	0x3e8c6d2d	0.27427045
18	0x3f9c8846	1.2229087
19	0x3dc46c1c	0.09590933
20	0xbdb13920	-0.08653474
21	0x3ed2dc0b	0.41183504
22	0x3e8bf40c	0.2733463
23	0x3f50086e	0.8126286
24	0x3f2eea23	0.68326014
25	0x3eb42772	0.35186344
26	0x3ec9a969	0.39387062
27	0x3f07f162	0.53102696
28	0x3fec324a	1.8452847
29	0x3f10b964	0.56532884
30	0x3f231f15	0.637193
31	0x3f983f1f	1.1894263
32	0x3f1380ef	0.5761861
33	0x3fe1854e	1.7618806
34	0x3f25553a	0.6458317
35	0x3ef3fe51	0.47654966
36	0x3e3a5a92	0.18198612
37	0xbe62ad75	-0.22136481
38	0x3d21cfa8	0.039504677
39	0xbcd35534	-0.025797464
40	0x3ed9adc3	0.42515382
41	0x3f6b4d62	0.9191495
42	0x3efd3466	0.4945404
43	0x3fc39d10	1.5282307
44	0x3f034a81	0.5128556
45	0x3edcd333	0.43129882
46	0x3d655276	0.055986844
47	0x3ee32983	0.44367608
48	0x3ecb3bd7	0.39694092
49	0x3da98906	0.08278088
50	0x3f5ad7f4	0.8548577
51	0xbe42d04e	-0.19024774
52	0xbf21db14	-0.6322491
53	0x3f44e2ef	0.76908773
54	0x3e9b42f6	0.30324525
55	0x3f933fa5	1.1503798
56	0x3e940d94	0.2891661
57	0x3e310526	0.1728712
58	0x3db76ecb	0.08956679
59	0x3e92bed7	0.28661224
60	0x3f86cf3d	1.0531994
61	0x3efb2e30	0.49058676
62	0x3ee5131d	0.44741145
63	0x3fbaa738	1.4582281
64	0x3f51e669	0.81992203
65	0x3f74044d	0.9531906
66	0xbf06195e	-0.5238246
67	0xbe9f4c5d	-0.31112948
68	0xbf0e5dfa	-0.55612147
69	0x3f1a1fec	0.6020496
70	0xbf35aace	-0.7096375
71	0x3ef64e41	0.48106578
72	0xbf750447	-0.9570965
73	0xbf74e71c	-0.95665145
74	0x3f2ab4c4	0.66682076
75	0xbf453930	-0.77040386
76	0x3f05dd59	0.52290875
77	0x3ee2acdd	0.4427251
78	0xbe16f2ac	-0.1474101
79	0x3f416ccb	0.7555663
80	0x3f83bb00	1.0291443
81	0x3e16138c	0.14655894
82	0x3f49758a	0.78694975
83	0xbe760ad6	-0.24027571
84	0xbef2106b	-0.4727815
85	0x3fba919a	1.4575684
86	0xbf62ccb4	-0.885936
87	0x3f2c17f1	0.6722403
88	0x3f2b3e60	0.6689205
89	0x3f03ba5f	0.51456255
90	0xbf7924ee	-0.97321975
91	0xbed1a051	-0.40942624
92	0xbec2956e	-0.3800463
93	0x3e7750b9	0.24151887
94	0xbf88d0e1	-1.0688745
95	0xbef4003b	-0.47656426
96	0x3f17f195	0.59353
97	0x3f459ce4	0.7719252
98	0x3f0088a9	0.50208527
99	0x3eeb9e3d	0.46019164
100	0xbe337bdc	-0.17527717
101	0x3e6737e6	0.22579917
102	0x3c3c81d1	0.01150556
103	0x3e612ad7	0.21988998
104	0x3e38de75	0.1805361
105	0x3f4673e1	0.7752057
106	0x3f1553ad	0.58330804
107	0x3f3a883e	0.7286414
108	0x3f7ea8a9	0.99476105
109	0x3f9f763b	1.2457956
110	0x3f3ce174	0.73781514
111	0x3f83ad8a	1.0287335
112	0x3ee50023	0.44726667
113	0x3f04aeab	0.5182902
114	0x3f7f9943	0.99843234
115	0x3f398c36	0.7247957
116	0xbe933c1e	-0.28756803
117	0x3e2075e0	0.15669966
118	0x3f0b7b31	0.5448485
119	0x3fd51c37	1.6649235
120	0x3f0790ee	0.5295552
121	0x3f2ac9e2	0.667143
122	0x3ed926db	0.42412457
123	0x3f842f06	1.032685
124	0x3f8dfaf5	1.1092211
125	0x3f193267	0.5984253
126	0x3e5c15ec	0.21492738
127	0x3f84e4f1	1.0382367

lstm.weight_hh_l0 f4 [128, 32]
0	0x3e3906a0	0.18068933
1	0xbd8507aa	-0.064956024
2	0xbdc3748a	-0.095437124
3	0xbea05c7b	-0.31320557
4	0xbe68b758	-0.2272619
5	0x3e6d77c1	0.23190214
6	0xbca2258b	-0.019793293
7	0x3e0f1454	0.13972598
8	0x3caf8de5	0.021429965
9	0xbe7c1bd5	-0.24619992
10	0x3e1c2aaf	0.15250657
11	0xbe2da919	-0.16959037
12	0x3e00ece5	0.12590368
13	0x3e89aad9	0.2688816
14	0xbe4c8c38	-0.19975364
15	0x3d5a7f45	0.05334403
16	0x3d121fce	0.035674863
17	0x3dc1c6cb	0.09461745
18	0x3dae7ed2	0.08520283
19	0xbeb66ab8	-0.35628295
20	0x3da0a8f1	0.07844723
21	0xbcb1ce0d	-0.021704698
22	0xbe1c5a85	-0.15268905
23	0xbd20c505	-0.039250392
24	0x3e132259	0.14368571
25	0x3cfc00fb	0.030762186
26	0x3cf6e707	0.03013946
27	0xbec3ce9f	-0.38243577
28	0x3d24b4b3	0.04021139
29	0x3ea49de9	0.32151726
30	0x3d539616	0.051656805
31	0xbdbd300f	-0.09237682
32	0x3d505867	0.050865557
33	0xbd0a17b4	-0.03371401
34	0xbe78e89e	-0.24307486
35	0x3d299762	0.041404136
36	0xbe4304ee	-0.1904485
37	0xbd3de8b1	-0.04636449
38	0xbc926554	-0.017870583
39	0xbd4061f5	-0.04696842
40	0x3cc9dcc7	0.024641408
41	0xbe8bb81b	-0.272889
42	0xbe102abd	-0.14078803
43	0xbe424d11	-0.18974711
44	0x3a4038d4	0.0007332687
45	0x3e132817	0.14370762
46	0x3b0b7804	0.0021281252
47	0x3e82a7de	0.25518698
48	0x3ea0cb5d	0.31405154
49	0x3db24b9f	0.0870583
50	0x3da9080c	0.08253488
51	0x3e0b7f18	0.13622701
52	0xbe79ca61	-0.24393608
53	0x3c934723	0.017978257
54	0xbdd17620	-0.10227609
55	0xbe2faae9	-0.17155041
56	0x3e6dffd5	0.23242123
57	0xbdb06794	-0.08613506
58	0xbe422190	-0.18958116
59	0xbca32128	-0.019913271
60	0x3defbaf9	0.11705584
61	0xbdd5f6d5	-0.1044747
62	0xbd224fda	-0.039626934
63	0xbe35de78	-0.17760646
64	0x3e90a411	0.28250173
65	0x3ecb68fa	0.39728528
66	0x3d887920	0.06663728
67	0xbec740b3	-0.3891655
68	0x3e27936f	0.16364835
69	0xbcca94d0	-0.024729162
70	0xbe027efb	-0.12743752
71	0xbe86d742	-0.26336104
72	0x3daae630	0.08344686
73	0xbe9bee74	-0.30455363
74	0x3d03daf2	0.032191224
75	0xbec75c16	-0.38937443
76	0x3da826e0	0.0821054
77	0xbd8ade92	-0.06780733
78	0x3e050c01	0.1299286
79	0xbc50013d	-0.012695608
80	0xbe77b117	-0.24188648
81	0x3ddb4e62	0.1070831
82	0xbda4751e	-0.08030151
83	0xbe92db25	-0.2868282
84	0xbe2d4b6e	-0.16923305
85	0xbe2ea2e4	-0.17054325
86	0xbe4ca182	-0.19983485
87	0x3d80f9d6	0.062976524
88	0x3e8c3bc7	0.27389356
89	0xbe56c286	-0.20972642
90	0xbdf70173	-0.12060823
91	0x3dc6ac8b	0.09700879
92	0xbecd2c02	-0.40072638
93	0x3cae7da6	0.021300148
94	0x3e68a8eb	0.22720687
95	0xbe2dc0d4	-0.1696809
96	0x3e42556a	0.18977895
97	0x3f1706d6	0.58994806
98	0xbdc8aafb	-0.09798237
99	0x3e259902	0.16171649
100	0x3cb66abb	0.02226769
101	0xbdcc4a61	-0.09975124
102	0xbd30a41e	-0.043125264
103	0xbebf2169	-0.37330177
104	0xbd9da9da	-0.07698412
105	0xbec09ec1	-0.3762112
106	0xbe7679c9	-0.24069895
107	0xbec3ee6f	-0.38267848
108	0xbd2aefb1	-0.041732494
109	0xbdbfca2d	-0.09364734
110	0x3e004def	0.1252973
111	0xbe400917	-0.18753468
112	0xbe329b4e	-0.17442057
113	0xbdde0780	-0.10841274
114	0x3c8a304a	0.01686873
115	0xbdc9b416	-0.09848802
116	0xbdd2c4a9	-0.10291416
117	0xbdf052b2	-0.11734523
118	0x3b2b8dc4	0.0026177028
119	0xbd8349b5	-0.06410543
120	0x3dcebeb2	0.10094966
121	0xbd7202ff	-0.05908489
122	0xbdb1babd	-0.086781956
123	0x3e4d08bf	0.20022868
124	0x3e55f4e1	0.20894195
125	0x3e48d87e	0.19613835
126	0x3d37e6c5	0.044897813
127	0x39f665da	0.00046996662
128	0x3dec1077	0.11526578
129	0x3e4b5b43	0.19859032
130	0xbdd23ded	-0.10265718
131	0xbe3edd3c	-0.18639082
132	0xbc915936	-0.017742734
133	0x3ea52cda	0.32260782
134	0xbeaabf08	-0.3334887
135	0xbcab2293	-0.02089051
136	0xbe016bf5	-0.12638839
137	0xbea91e71	-0.33031037
138	0x3ed0c3ff	0.40774533
139	0xbed9d847	-0.4254782
140	0xbe4cb77a	-0.19991866
141	0x3eaee570	0.34159422
142	0x3e1cbcc5	0.15306385
143	0xbdfc52a1	-0.12320448
144	0x3ea25f08	0.31713128
145	0xbe3e0b1c	-0.18558925
146	0x3ebdfa77	0.37105152
147	0x3e1c3a4f	0.15256618
148	0xbe1a2205	-0.1505204
149	0x3ec9756f	0.39347407
150	0xbda82179	-0.082095094
151	0x3e26c800	0.16287231
152	0x3d10a241	0.035310987
153	0x3eca2415	0.39480653
154	0x3cc49338	0.02399598
155	0xbd4c55bb	-0.049886446
156	0xbf107c98	-0.56440115
157	0xbedba93e	-0.4290256
158	0xbf01b3bf	-0.50664896
159	0xbd1dd6e7	-0.038535025
160	0x3e78e0d4	0.24304515
161	0xbdb2586a	-0.0870827
162	0xbf07f063	-0.53101176
163	0xbe5b8582	-0.21437648
164	0x3e07ae61	0.13250114
165	0x3e5ed7db	0.2176203
166	0xbbb1bfb8	-0.005424466
167	0x3dce9767	0.100874715
168	0xbd009b2f	-0.031397995
169	0xbe0a13bf	-0.13484095
170	0x3e7c27ba	0.2462453
171	0xbed03e50	-0.4067254
172	0x3d216c40	0.039409876
173	0x3f0b739a	0.5447327
174	0xbea28d07	-0.3174822
175	0x3ba659f7	0.0050766426
176	0xbd8973d7	-0.06711548
177	0x3f16c5d0	0.5889559
178	0x3e19b4e4	0.1501041
179	0xbeb3933b	-0.35073265
180	0xbe7aaf4a	-0.2448093
181	0xbe594976	-0.2121943
182	0x3e2b6c14	0.16740447
183	0x3e4eb3e7	0.20185815
184	0xbd7e7a51	-0.06212837
185	0x3f0eeaa1	0.55826765
186	0xbcf4bfbe	-0.029876586
187	0xbeec7412	-0.46182305
188	0xbf098976	-0.53725374
189	0x3e7b4e8d	0.24541683
190	0xbe851547	-0.25992796
191	0xbeee504f	-0.46545646
192	0x3ef5be34	0.47996676
193	0xbc9d9093	-0.019233977
194	0xbe9515fa	-0.2911833
195	0xbe38d613	-0.18050413
196	0xbdf78e5c	-0.120877
197	0x3e6b81eb	0.22998779
198	0x3e1d2068	0.15344393
199	0x3e48ca60	0.1960845
200	0x3e19279f	0.1495652
201	0xbede2905	-0.4339067
202	0x3ebe7ea0	0.37205982
203	0xbe6db7b5	-0.2321461
204	0x3d9be972	0.076128855
205	0xbd402258	-0.046907753
206	0x3c8ebc6d	0.017423833
207	0x3ed3616e	0.4128527
208	0xbe7a2fba	-0.24432269
209	0xbcd17452	-0.025568161
210	0x3dcbdecd	0.09954605
211	0x3df2fe7e	0.11864947
212	0xbeea39e3	-0.4574729
213	0x3e439ef8	0.1910361
214	0xbec6c750	-0.38823938
215	0x3e522f3b	0.2052583
216	0x3d7ea43a	0.062168337
217	0x3c9c6da7	0.019095255
218	0xbe53b516	-0.20674548
219	0xbd97c8b4	-0.07411328
220	0xbe9187f9	-0.2842405
221	0x3d859816	0.06523149
222	0x3e83cf70	0.257442
223	0xbdd01004	-0.10159305
224	0x3f08792d	0.533099
225	0x3c71c166	0.014755582
226	0xbebff18e	-0.3748898
227	0xbcfa5b0c	-0.030560993
228	0xbd9b1989	-0.0757323
229	0x3e7773e0	0.24165297
230	0x3c7da6be	0.015481649
231	0xbefc6a68	-0.49299932
232	0xbba0d964	-0.0049087275
233	0xbeeccf37	-0.46251842
234	0x3d5b5637	0.053549018
235	0xbf35b1e2	-0.7097455
236	0xbea68633	-0.3252426
237	0x3e8b21c4	0.271742
238	0xbeca96b1	-0.39568093
239	0xba3ea716	-0.00072728225
240	0x3c9ffecd	0.019530678
241	0x3ca95b14	0.020673312
242	0xbdbf21d2	-0.093326226
243	0xbdb57044	-0.088593036
244	0xbe9ecf27	-0.3101742
245	0x3e28b073	0.1647356
246	0xbe816500	-0.2527237
247	0xbec77d8a	-0.38962966
248	0xbe1a0d56	-0.1504415
249	0x3e31a730	0.17348933
250	0x3d858b4c	0.065207094
251	0x3c13bb6f	0.009016856
252	0xbe83f0eb	-0.25769743
253	0xbe02cb8b	-0.12772958
254	0x3d87d0e7	0.06631642
255	0xbe86868f	-0.26274535

lstm.bias_ih_l0 f4 [128]
0	0x3e5503f9	0.20802297
1	0x3cdf5b49	0.027265208
2	0x3c3c91ea	0.011509398
3	0xbcf7f117	-0.030266328
4	0xbe04d492	-0.12971714
5	0x3edc0451	0.42972043
6	0x3e5348c3	0.20633225
7	0x3e9eded2	0.31029373
8	0x3c9d76d1	0.019221695
9	0xbdb872e8	-0.09006292
10	0x3e81d5c5	0.25358406
11	0x3c42f186	0.011898404
12	0xbc9156e7	-0.017741634
13	0x3e194a1a	0.14969674
14	0x3b351548	0.0027631093
15	0xbe9e89fb	-0.30964646
16	0x3e9a2e0c	0.30113256
17	0x3e553e45	0.20824535
18	0x3e10508b	0.14093225
19	0x3eb147e1	0.34625152
20	0x3e423527	0.18965589
21	0x3e9117dd	0.2833852
22	0x3dbc1d37	0.0918526
23	0x3e9733f0	0.29531813
24	0x3e48ac2f	0.19596933
25	0x3d975ece	0.073911294
26	0x3dfe07e7	0.12403851
27	0x3e097cdd	0.13426538
28	0xbea59118	-0.3233726
29	0x3de7a8ff	0.1131153
30	0x3e88df82	0.26733023
31	0x3cb65ef9	0.022262083
32	0x3d81f2ec	0.06345162
33	0x3dbe6499	0.09296531
34	0x3e27f373	0.16401462
35	0xbcb2a4f1	-0.021807166
36	0x3cb8452a	0.022493917
37	0x3e111a81	0.14170267
38	0x3e5b4f75	0.21417029
39	0x3b1ccb5d	0.0023924925
40	0x3e2efc8e	0.1708853
41	0xbdee1ed7	-0.11626976
42	0xbe7b95b6	-0.24568829
43	0x3d9d8985	0.076922454
44	0x3c9b848d	0.018984104
45	0x3d94ff89	0.07275302
46	0x3eddaf2b	0.43297705
47	0xbcf035d5	-0.029322544
48	0x3e288469	0.1645676
49	0x3e840b21	0.2578974
50	0xbdf1ec88	-0.11812693
51	0x3edfe24d	0.4372734
52	0x3e55e492	0.20887974
53	0xbe183633	-0.14864425
54	0xbdeedec6	-0.116635844
55	0xbdf0109f	-0.1172192
56	0xbdad7a01	-0.08470536
57	0x3e585838	0.21127403
58	0xbe1a9f15	-0.15099747
59	0x3d5b749c	0.053578004
60	0xbe981993	-0.29707012
61	0x3e88ff6f	0.2675738
62	0x3e225d29	0.1585585
63	0x3e0e425b	0.138925
64	0x3dc5c6e3	0.09657075
65	0x3d2d3a75	0.042292077
66	0xbe533d36	-0.20628819
67	0xbeaa488f	-0.33258483
68	0x3de8eb4b	0.113730036
69	0x3e6fdcfa	0.2342414
70	0xbceefa90	-0.029172212
71	0xbdb0fd71	-0.0864209
72	0xbdd1d9ca	-0.10246618
73	0x3dd02daa	0.1016496
74	0xbe04e44b	-0.12977712
75	0xbe6f27e0	-0.23355055
76	0x3e5b2a14	0.2140277
77	0x3e744d62	0.23857644
78	0xbe8145d1	-0.25248578
79	0xbdac108e	-0.08401595
80	0x3e17e7c3	0.14834504
81	0x3d866a1d	0.06563208
82	0x3e25be11	0.16185786
83	0xbe43f44b	-0.19136159
84	0xbe44628c	-0.19178218
85	0xbd75056c	-0.059819624
86	0xbc025d4c	-0.007956814
87	0x3d024964	0.031808272
88	0x3dbf77f8	0.09349054
89	0x3e2c8c3f	0.16850375
90	0xbe203da7	-0.15648519
91	0xbde21de1	-0.11040855
92	0xbe300e70	-0.17193007
93	0x3e1b31cb	0.15155713
94	0xbe12d083	-0.14337353
95	0xbecbe2ea	-0.3982156
96	0x3ee20a0b	0.44148287
97	0x3e4fe9eb	0.20304076
98	0x3ed545b0	0.4165473
99	0x3e847fb0	0.25878668
100	0x3f3a0d97	0.72676986
101	0x3eb07dcf	0.34470984
102	0x3f1c7216	0.6111158
103	0x3f20444f	0.6260423
104	0x3e8cccd8	0.27500033
105	0x3da7327d	0.08163927
106	0x3e66ca9f	0.22538231
107	0x3e9f6a58	0.3113582
108	0x3d14ad01	0.036297802
109	0x3e02b223	0.12763266
110	0x3e1d0c40	0.15336704
111	0x3de24ba0	0.110495806
112	0x3f28678a	0.6578299
113	0x3f0783e4	0.52935624
114	0x3e3a3153	0.18182878
115	0x3dec41e2	0.11536004
116	0x3eced5be	0.40397447
117	0x3efb9bc1	0.49142268
118	0x3e83b1fa	0.25721723
119	0x3d5b518d	0.05354457
120	0x3e8aaebb	0.27086434
121	0xbd55e767	-0.052222636
122	0x3e11c896	0.14236674
123	0x3e1956bc	0.14974493
124	0x3e6f4a22	0.23368123
125	0x3ea0bd07	0.31394216
126	0x3ee0528d	0.4381298
127	0x3e010c50	0.12602353

lstm.bias_hh_l0 f4 [128]
0	0x3e39eca6	0.1815668
1	0x3dddb70d	0.1082593
2	0x3e82fd84	0.25584042
3	0x3e2e7ddc	0.17040199
4	0x3db5c083	0.08874609
5	0x3f025c13	0.50921744
6	0x3e1ed6e2	0.15511659
7	0x3ef79806	0.48358172
8	0xbd767fed	-0.060180593
9	0xbd3905eb	-0.04517166
10	0x3e4c3fd9	0.19946231
11	0x3e7f72d4	0.24946147
12	0x3e4ad0e4	0.19806248
13	0x3d472181	0.048615936
14	0x3e1a9974	0.150976
15	0xbe707d8d	-0.23485394
16	0x3e9c8cad	0.30576077
17	0xbd630b81	-0.055430893
18	0xbc0771be	-0.008266864
19	0x3e70a444	0.23500162
20	0x3d902c23	0.070396684
21	0x3e881e07	0.2658541
22	0x3dfc19ef	0.12309634
23	0xbc78a8cf	-0.015176966
24	0xbd7e3deb	-0.06207077
25	0x3dd2a700	0.10285759
26	0xbc64a349	-0.013954946
27	0x3c8fce70	0.017554492
28	0xbea42209	-0.32057217
29	0x3d342211	0.0439778
30	0xbcfa530c	-0.030557178
31	0xbe553a81	-0.20823099
32	0x3c2492b9	0.010044747
33	0x3d98d794	0.07462993
34	0x3e4960fb	0.19665901
35	0xbd2c1392	-0.04201085
36	0x3d6ee90d	0.058327723
37	0x3e2292dc	0.15876335
38	0x3e4bf2db	0.19916861
39	0x3dd3062d	0.10303912
40	0x3e02647d	0.12733646
41	0x3d040e14	0.03223999
42	0xbe213ff1	-0.15747048
43	0x3d8a8fa9	0.06765682
44	0x3dae4170	0.08508575
45	0x3e844864	0.2583648
46	0x3eb81d70	0.3595996
47	0x3e958ff1	0.2921138
48	0xbd7cf19c	-0.061753854
49	0x3e918e56	0.28428906
50	0xbe12ed19	-0.14348258
51	0x3f070d50	0.5275469
52	0x3e20791d	0.15671201
53	0xbe3743be	-0.17896935
54	0x3e406ba3	0.1879106
55	0xbd8e51c8	-0.06949192
56	0x3e177946	0.14792356
57	0x3d610bfd	0.054943074
58	0xbe5cb9bf	-0.21555232
59	0x3e6493e4	0.22322041
60	0xbea452f5	-0.3209454
61	0x3e807332	0.25087887
62	0xbdc97344	-0.09836438
63	0xbe0bb089	-0.13641562
64	0x3e152860	0.14566183
65	0x3d4fdd96	0.05074843
66	0xbe660253	-0.22461824
67	0xbe2f2926	-0.1710554
68	0xbcbb876a	-0.022891719
69	0x3e3baad9	0.18326892
70	0x3df39920	0.11894441
71	0x3d4ac321	0.049502496
72	0x3e351985	0.17685516
73	0xbd932538	-0.07184833
74	0x3e3f171a	0.18661156
75	0xbdbae728	-0.09126121
76	0x3e974201	0.29542544
77	0x3e0b4f4d	0.1360447
78	0x3c0d3313	0.008618134
79	0x3e19630c	0.1497919
80	0xbd4de2d0	-0.050265133
81	0x3e3f387a	0.18673888
82	0xbd487d72	-0.04894776
83	0xbdd4d058	-0.10391301
84	0xbcaa314d	-0.020775462
85	0x3d29972b	0.04140393
86	0x3d3f2ee4	0.046675578
87	0x3d66de4f	0.056364354
88	0x3ca23fd3	0.019805824
89	0x3e129dae	0.14317963
90	0x3db4f42a	0.08835633
91	0xbe64acd8	-0.2233156
92	0xbd7cfc32	-0.06176395
93	0xbe04928a	-0.12946525
94	0xbdc11ef6	-0.094297335
95	0xbe9a2742	-0.30108076
96	0x3ee771ba	0.45203954
97	0x3d52f461	0.05150259
98	0x3ea3ca65	0.31990352
99	0x3ea9c7d8	0.3316028
100	0x3ee718a0	0.45135975
101	0x3ebbd04a	0.3668235
102	0x3ec9113c	0.3927096
103	0x3ee50bd2	0.4473558
104	0x3edc462f	0.43022296
105	0x3e99301c	0.29919517
106	0x3e3737bc	0.17892355
107	0x3ed0c706	0.40776843
108	0x3d79255d	0.060826648
109	0x3dbab0c1	0.091157444
110	0x3ea47e9f	0.32127854
111	0x3e654210	0.22388482
112	0x3ebb0ec2	0.36534697
113	0x3e91c48e	0.28470272
114	0x3ed52055	0.4162623
115	0x3e6a3fac	0.22875851
116	0x3ed3aa2d	0.4134077
117	0x3ed63b8f	0.41842315
118	0x3e1c8792	0.15286091
119	0x3e8d41c7	0.27589247
120	0x3e09ca81	0.13456155
121	0x3cf72dca	0.030173201
122	0x3e7c1fc7	0.24621497
123	0x3dbeae53	0.093105935
124	0x3e7ee22a	0.24890962
125	0x3edfe621	0.43730262
126	0x3eb588df	0.35455987
127	0x3e8e5215	0.27797

head.weight f4 [24, 32]
0	0x41c361ad	24.422693
1	0x41c236d1	24.276766
2	0xc1c3bc05	-24.466806
3	0xc1c2ad55	-24.334635
4	0xc1c3e2bf	-24.485716
5	0x41c2490f	24.285673
6	0xc1c234b6	-24.275738
7	0x41c29c59	24.326342
8	0xc1c46785	-24.550547
9	0xc182bc45	-16.341928
10	0x41bbe30e	23.485867
11	0xc1c20b55	-24.255533
12	0x41c20348	24.251602
13	0x41c393df	24.447203
14	0xc1c341a2	-24.407047
15	0x41c3dcbf	24.482786
16	0x41c2b54c	24.338524
17	0x41c22749	24.269182
18	0x41c3410f	24.406767
19	0xc1c39a10	-24.450226
20	0xc1c19bb9	-24.201036
21	0x41c1a9f0	24.207977
22	0xc1c3b7e8	-24.464798
23	0x41c3a844	24.45716
24	0x41c3359d	24.401178
25	0x41c1e4e3	24.236761
26	0xc1c2c63a	-24.34679
27	0xc1c29971	-24.324923
28	0xc1c39a93	-24.450476
29	0x41c2dd63	24.358099
30	0xc1c199a2	-24.200016
31	0xc1c15e95	-24.171183
32	0x41c1df22	24.233952
33	0x41c1b51b	24.21343
34	0xc1c1df74	-24.234108
35	0xc1c22962	-24.270206
36	0xc1c19d89	-24.201921
37	0x41c2886e	24.316616
38	0xc1c27f35	-24.312113
39	0x41c178c1	24.183962
40	0xc1c1abc7	-24.208876
41	0xc18276db	-16.308035
42	0x41bc8c81	23.568605
43	0xc1c377c5	-24.433481
44	0x41c2d3f7	24.353498
45	0x41c1c0fa	24.219227
46	0xc1c41f71	-24.515352
47	0x41c1f66d	24.245325
48	0x41c2109a	24.258106
49	0x41c1e3a4	24.236153
50	0x41c18eda	24.194752
51	0xc1c20c7f	-24.256102
52	0xc1c2be5a	-24.342945
53	0x41c23031	24.273531
54	0xc1c2d79b	-24.355276
55	0x41c262fc	24.298332
56	0x41c19a8d	24.200464
57	0x41c3345b	24.400564
58	0xc1c151dc	-24.16497
59	0xc1c20567	-24.252638
60	0xc1c34936	-24.410748
61	0x41c2bd1b	24.342337
62	0xc1c337a0	-24.40216
63	0xc1c19784	-24.198982
64	0x41c198bd	24.19958
65	0x41c36aea	24.427204
66	0xc1c3d84f	-24.48062
67	0xc1c16269	-24.173052
68	0xc1c254fc	-24.291496
69	0x41c28fac	24.320152
70	0xc1c0afe7	-24.08589
71	0x41c24256	24.28239
72	0xc1c307b4	-24.378761
73	0xc1816cec	-16.178185
74	0x41bc01f0	23.500946
75	0xc1c40250	-24.50113
76	0x41c34c48	24.412247
77	0x41c2746b	24.306845
78	0xc1c2baa9	-24.341143
79	0x41c408ab	24.504232
80	0x41c3d8e2	24.4809
81	0x41c2386d	24.277552
82	0x41c27dd0	24.311432
83	0xc1c18150	-24.18814
84	0xc1c3d94e	-24.481106
85	0x41c29c29	24.32625
86	0xc1c1fe6c	-24.24923
87	0x41c31cf7	24.389143
88	0x41c33486	24.400646
89	0x41c3affa	24.460926
90	0xc1c2e908	-24.363785
91	0xc1c3cf2f	-24.476164
92	0xc1c38030	-24.437592
93	0x41c2eb01	24.364748
94	0xc1c13838	-24.15245
95	0xc1c21b11	-24.263216
96	0x41c1c176	24.219463
97	0x41c1937b	24.197012
98	0xc1c264a5	-24.299143
99	0xc1c25454	-24.291176
100	0xc1c2c178	-24.344467
101	0x41c20eb6	24.257183
102	0xc1c19cfb	-24.20165
103	0x41c217f1	24.26169
104	0xc1c2ca68	-24.348831
105	0xc1809202	-16.071293
106	0x41bc3618	23.526413
107	0xc1c3b3d2	-24.462803
108	0x41c194ea	24.197712
109	0x41c3fab0	24.497406
110	0xc1c3acec	-24.459435
111	0x41c320be	24.390987
112	0x41c264ae	24.29916
113	0x41c3c1ce	24.469631
114	0x41c2549d	24.291315
115	0xc1c13096	-24.148724
116	0xc1c32e8b	-24.397726
117	0x41c3952e	24.447842
118	0xc1c3f15f	-24.492857
119	0x41c40b7d	24.50561
120	0x41c21b65	24.263376
121	0x41c309bd	24.379755
122	0xc1c3c46b	-24.470907
123	0xc1c2f177	-24.367903
124	0xc1c26dfb	-24.303701
125	0x41c1a6f9	24.20653
126	0xc1c1fc4f	-24.248198
127	0xc1c251d6	-24.289959
128	0x41c1e3f3	24.236303
129	0x41c1ad1d	24.209528
130	0xc1c34b9e	-24.411922
131	0xc1c2c3b5	-24.34556
132	0xc1c369a7	-24.426588
133	0x41c17e12	24.186558
134	0xc1c19552	-24.19791
135	0x41c3c77c	24.472404
136	0xc1c1c227	-24.2198
137	0xc1821181	-16.258547
138	0x41bb1e96	23.389935
139	0xc1c3b907	-24.465345
140	0x41c323b4	24.392433
141	0x41c30fd2	24.382725
142	0xc1c2f668	-24.370316
143	0x41c35a54	24.419106
144	0x41c2d27f	24.352781
145	0x41c3fd1d	24.49859
146	0x41c1c19f	24.219542
147	0xc1c0fab1	-24.122408
148	0xc1c3648d	-24.424097
149	0x41c40146	24.500622
150	0xc1c35871	-24.418184
151	0x41c40961	24.50458
152	0x41c1d794	24.230263
153	0x41c38a15	24.442423
154	0xc1c17a75	-24.184793
155	0xc1c1dfe6	-24.234325
156	0xc1c4351b	-24.52593
157	0x41c1cd52	24.225254
158	0xc1c2511e	-24.289608
159	0xc1c27a0d	-24.309595
160	0x41c3a2c7	24.454481
161	0x41c303df	24.37689
162	0xc1c2e6e1	-24.362734
163	0xc1c36838	-24.425888
164	0xc1c38975	-24.442118
165	0x41c24908	24.28566
166	0xc1c1aa03	-24.208014
167	0x41c2d1a4	24.352364
168	0xc1c2983e	-24.324337
169	0xc1815b32	-16.169529
170	0x41bbbbb2	23.466648
171	0xc1c25f5b	-24.29656
172	0x41c2a202	24.329105
173	0x41c25200	24.29004
174	0xc1c17894	-24.183876
175	0x41c2d842	24.355595
176	0x41c1e305	24.23585
177	0x41c3783d	24.43371
178	0x41c3f10d	24.4927
179	0xc1c14a01	-24.161135
180	0xc1c34c5a	-24.412281
181	0x41c2116d	24.258509
182	0xc1c33040	-24.39856
183	0x41c41c5a	24.513844
184	0x41c164b6	24.174175
185	0x41c1a947	24.207655
186	0xc1c388d1	-24.441805
187	0xc1c1b999	-24.215624
188	0xc1c459b9	-24.54381
189	0x41c33858	24.402512
190	0xc1c120c4	-24.140999
191	0xc1c36fc7	-24.429579
192	0x41c1dc0d	24.232447
193	0x41c36abc	24.427116
194	0xc1c327cc	-24.394432
195	0xc1c20afc	-24.255363
196	0xc1c3c8cd	-24.473047
197	0x41c30370	24.376678
198	0xc1c1f3cd	-24.244043
199	0x41c3379b	24.402151
200	0xc1c37c29	-24.435625
201	0xc180b4a6	-16.088207
202	0x41badf2f	23.358976
203	0xc1c28ce7	-24.3188
204	0x41c25afa	24.294422
205	0x41c37a5b	24.434744
206	0xc1c1b208	-24.21193
207	0x41c19be6	24.201122
208	0x41c1b9ba	24.215687
209	0x41c377a4	24.433418
210	0x41c2f7e5	24.371042
211	0xc1c2e1da	-24.36028
212	0xc1c39b36	-24.450787
213	0x41c1d0e9	24.227007
214	0xc1c31f44	-24.390266
215	0x41c38170	24.438202
216	0x41c337dc	24.402275
217	0x41c2f997	24.37187
218	0xc1c148c6	-24.160534
219	0xc1c23584	-24.27613
220	0xc1c4001a	-24.50005
221	0x41c3aa9f	24.458311
222	0xc1c32351	-24.392244
223	0xc1c1d639	-24.2296
224	0x41c3a151	24.453768
225	0x41c172ab	24.18099
226	0xc1c3155f	-24.385435
227	0xc1c28d33	-24.318945
228	0xc1c2cb08	-24.349136
229	0x41c36ce8	24.428177
230	0xc1c12447	-24.142714
231	0x41c22535	24.268167
232	0xc1c192b1	-24.196627
233	0xc18007be	-16.00378
234	0x41bc90e4	23.570747
235	0xc1c432b6	-24.524761
236	0x41c3c1d8	24.46965
237	0x41c31f9b	24.390432
238	0xc1c2699e	-24.30157
239	0x41c351d7	24.41496
240	0x41c34d44	24.412727
241	0x41c2a46f	24.33029
242	0x41c17a7b	24.184805
243	0xc1c1978b	-24.198996
244	0xc1c1758c	-24.182396
245	0x41c2d9c2	24.356327
246	0xc1c182e6	-24.188915
247	0x41c331c6	24.399303
248	0x41c24347	24.28285
249	0x41c3845c	24.439629
250	0xc1c182d5	-24.188883
251	0xc1c28bb1	-24.318209
252	0xc1c1d117	-24.227095
253	0x41c27526	24.307201
254	0xc1c2a119	-24.328661
255	0xc1c3ae5e	-24.46014

head.bias f4 [24]
0	0x41c148a7	24.160475
1	0x41c2c4c2	24.346073
2	0x41c07848	24.058731
3	0x41c16c26	24.177807
4	0x41c2f787	24.370863
5	0x41c27ba8	24.310379
6	0x41c2b419	24.337938
7	0x41c10a5f	24.130064
8	0x41c0859d	24.06524
9	0x41c05386	24.040783
10	0x41c058fc	24.04345
11	0x41c10944	24.129524
12	0x41c04f3e	24.038692
13	0x41c209a1	24.254702
14	0x41c1afca	24.210835
15	0x41c161df	24.172789
16	0x41c14163	24.156927
17	0x41c0fa63	24.12226
18	0x41c17cce	24.18594
19	0x41c1ab50	24.208649
20	0x41c2451a	24.283741
21	0x41c2c7ab	24.347494
22	0x41c1c0df	24.219175
23	0x41c134f5	24.150858
