artifacts/lstm/h64_best.pt (torch, 77290 bytes, 6 tensors)

lstm.weight_ih_l0 f4 [256, 1]
000000 92 0c 7c 3f bc 62 3f 3f bd c6 77 3f 0a eb ef 3d
       0.9845668 0.7476003 0.96787626 0.11714752
000010 61 70 3e 3f 5e f1 5f 3f b6 18 b5 3e ca 9c c8 3f
       0.74390227 0.8747767 0.35370415 1.5672848
000020 7b a1 52 3f 59 a5 22 3e 19 a6 4d 3f bf ea b1 3f
       0.8227765 0.15883388 0.8033157 1.3899764
000030 03 52 5f 3f d1 b3 4c 3f 54 dd 56 3f e6 b4 2b 3f
       0.87234515 0.7996188 0.8393147 0.67072904
000040 ae ac 3f 3f 86 d4 2c 3f d5 2e a4 3e 82 0b 7e 3f
       0.74872863 0.67511785 0.3206698 0.9923631
000050 e7 eb 9b 3e 0b 62 fb 3e 7a cb 27 3f 95 17 09 3f
       0.30453417 0.49098238 0.65544856 0.5355161
000060 18 c9 e5 3f ef 29 9f 3e f7 aa 11 3f ce 56 32 3f
       1.7951994 0.3108668 0.56901497 0.69663703
000070 75 44 0f 3f d9 13 26 3f 00 09 c1 3e 1f 28 0d 3f
       0.5596383 0.64874035 0.3770218 0.55139345
000080 d2 c2 e4 3d b7 91 f9 3f 30 74 49 3f 5c 44 1d 3f
       0.111699715 1.9497594 0.78692913 0.61432433
000090 f0 cd a3 be 08 6c 3a 3f 72 1f 83 3f 5a 8b 12 3f
       -0.31993055 0.7282109 1.0243971 0.57243884
0000a0 21 b0 eb 3e 3b f3 d7 3d bf ab 6b 3f 10 fa 58 3f
       0.46032813 0.105444394 0.9205894 0.84756565
0000b0 ad f1 86 3f 22 e2 95 3f 16 15 9f 3d 4c 04 87 3f
       1.0542504 1.1709635 0.07767694 1.0548186
0000c0 34 bb 7c 3f a9 1d 15 3f fa d6 c3 3e 97 26 47 3f
       0.9872315 0.5824838 0.38249952 0.7779326
0000d0 ed f8 09 3e 1d d2 57 3f 21 d6 6e 3e 15 1c 41 3f
       0.13473864 0.8430498 0.23323871 0.75433475
0000e0 d0 22 86 3f 12 fb 52 3e 68 a7 b0 3f eb c2 e2 3f
       1.0479374 0.20603588 1.3801088 1.7715734
0000f0 36 b3 fd 3e cc 7b 15 3f 15 07 01 3e 99 59 e4 3e
       0.4955079 0.58392024 0.12600358 0.44599608
000100 25 48 f6 3f 43 26 23 3f 12 97 9a 3f 12 57 2e 3e
       1.9240767 0.6373026 1.2077353 0.17025402
000110 99 3f d5 3e 19 21 a4 3f 11 5c ac 3e 0d 54 b8 3f
       0.41650084 1.2822601 0.3366399 1.440065
000120 eb 75 af 3f fb bb 27 3f 92 37 14 40 7a 46 e4 3f
       1.3707861 0.6552121 2.3158917 1.7834008
000130 6b 1e c1 3e 77 40 25 3f 87 b4 16 3f 05 b4 98 3e
       0.3771852 0.6455149 0.5886921 0.29824844
000140 14 8d 40 3f 10 6b d3 3e 7e 69 7e 3e 59 85 34 3f
       0.7521527 0.4129262 0.2484493 0.7051597
000150 76 21 8d bd bc a3 a3 3f 87 a8 ce 3f 82 fd 02 3e
       -0.06891148 1.2784343 1.614518 0.12792018
000160 d8 a0 20 40 1e 8c 7e 3e a2 97 4d be 79 02 b2 3d
       2.5098171 0.24858138 -0.20077375 0.08691878
000170 23 e0 42 bd 56 8a 15 3e 0d 29 25 3f 15 65 b8 3f
       -0.047577035 0.14603552 0.64515764 1.4405848
000180 14 59 1a 3f cf 16 23 40 46 35 73 3e 92 f6 9d 3e
       0.6029217 2.5482671 0.23750791 0.3085218
000190 7d 68 52 be 63 6e 07 3f 4e fc c2 3f 89 bf 32 3f
       -0.20547672 0.5290281 1.5233247 0.6982351
0001a0 13 24 b6 3e f9 e0 99 be 0c 6b 58 3f 81 0b ac 3e
       0.35574397 -0.30054453 0.8453834 0.33602527
0001b0 77 6e 6b 3f 33 97 c0 3f 86 25 9a 3f 4a 01 3f 3f
       0.9196543 1.5046142 1.2042701 0.7461134
0001c0 1f d5 e0 3e 8d 11 56 3e 0f de d2 bd 7b e2 ea 3f
       0.43912598 0.20905133 -0.102962606 1.8350366
0001d0 ce 3a 2e 3e d5 37 52 3f 83 2f 18 3e ba c7 43 3e
       0.1701462 0.8211644 0.14861874 0.19119158
0001e0 f0 12 8d 3f 65 22 a4 3e 0b 57 c3 3f c3 f7 0d 40
       1.1021404 0.3205749 1.5260938 2.2182472
0001f0 1e a9 9b 3f 52 c0 23 3f ca e6 2f bf 0f 38 b0 3e
       1.2160985 0.6396533 -0.6871153 0.3441777
000200 90 72 da 3f 8b db 81 3e 38 d2 22 3f 2b 9a 3c 3d
       1.7066212 0.2536281 0.6360202 0.046045464
000210 3a ab 00 bf 5b 7a 3f bf 45 b5 a5 3e 5f 6e 6d be
       -0.5026127 -0.74796075 0.3236486 -0.23186634
000220 c8 5d 80 bf ba 2d b9 3f 5a da 60 bf 54 b0 19 3f
       -1.002862 1.446708 -0.8783318 0.6003468
000230 c6 45 3a bf db c2 e2 be 72 f2 29 bf b2 cd e5 be
       -0.72762716 -0.44289288 -0.6638557 -0.44883496
000240 ef 1e 0b 3f bf dd 12 bf 1b 1d 1e 3e ca b6 41 3f
       0.54344076 -0.5736961 0.1544079 0.7566954
000250 14 3f 82 be 63 05 ec 3f 91 d3 4d bf 48 fa b7 3e
       -0.2543875 1.8439144 -0.8040095 0.35933137
000260 10 5a f0 bd 09 76 3b 3e 53 70 ab 3e c7 68 7b 3f
       -0.11735928 0.18306746 0.33484134 0.9820675
000270 d0 3b 23 3f 54 ed 21 bf c5 48 95 3e 37 6e b2 bf
       0.6376314 -0.6325276 0.2915708 -1.3939885
000280 cd 5b 4c 3f 05 86 31 3f c3 b7 cc 3e bd cd 97 3f
       0.79827577 0.6934512 0.3998395 1.1859661
000290 fc 32 22 3e ec af 56 3f 6e 6c 34 3f 6d 77 b2 3e
       0.15839761 0.83862185 0.7047795 0.3485674
0002a0 b9 14 a8 3e 1a 38 0d be 6a b6 4b bf 25 01 db 3e
       0.3282831 -0.13790932 -0.79575217 0.4277431
0002b0 5a 0b 1c bf 44 ae ff be 5d 11 b2 3f ad 97 25 3f
       -0.6095482 -0.49937642 1.3911549 0.64684564
0002c0 3d c3 1f bf a6 dc d5 be 00 76 97 be ba 0a a8 3f
       -0.62407285 -0.41769904 -0.29582214 1.3128273
0002d0 40 97 b6 bf 5d 45 e3 be de 83 08 3e d7 db 02 3f
       -1.4264908 -0.44388857 0.13331553 0.511167
0002e0 ae 38 59 bf b4 cb b4 be 20 a3 ef 3e ff fa d7 be
       -0.8485211 -0.35311663 0.46804142 -0.42183682
0002f0 48 c0 7b 3f 22 1c f9 bd ba e2 0f 3f 9c 1f b5 bd
       0.9834027 -0.12163569 0.5620533 -0.0884392
000300 ed 1a 32 3f e9 55 9e 3f a7 8f 87 3f d4 38 c7 3f
       0.69572335 1.2369968 1.0590714 1.5564218
000310 ec 0f 4f 3f 31 a2 a1 3f f7 4f a2 3f 7d 86 13 3f
       0.8088367 1.2627622 1.2680653 0.5762709
000320 4e 11 3f 3f 75 0f 30 3d 28 db 30 3f c5 6b 9d 3f
       0.7463578 0.04298349 0.69084406 1.2298514
000330 16 35 9e 3f c0 ab a3 3f f1 7e 60 3f 28 21 83 3f
       1.235995 1.2786789 0.876937 1.0244493
000340 1f aa ce 3f ce a1 5d 3f 46 00 46 3f 61 3e 8a 3f
       1.6145667 0.8657502 0.7734417 1.0800287
000350 b6 4b 72 3f 96 cf 6c 3e fc 1d 37 3f d2 0b a4 3f
       0.94646776 0.23126063 0.7153013 1.2816107
000360 ab 43 86 3f 85 75 8d 3f 08 c3 05 3f 22 52 54 3f
       1.0489401 1.1051489 0.5225072 0.82937825
000370 c2 8d 1b 3f c3 45 81 3f 20 6b c2 3f 6c f2 4d 3f
       0.6076318 1.0099415 1.5188942 0.8044803
000380 58 45 64 3e 89 80 4d 3f 33 db 60 3f a2 77 f9 3e
       0.22292078 0.80274254 0.8783447 0.48724085
000390 8b cf 55 be 83 09 2b 3f 61 21 93 3f cf 16 c1 3f
       -0.20879953 0.6681139 1.1494561 1.5085086
0003a0 fc a2 73 3f 2c d9 2c be 72 1c 43 3f e7 40 45 3f
       0.9517057 -0.1687972 0.7621528 0.7705216
0003b0 74 dc 86 3f 1a 0a 95 3f 81 d8 22 be 66 02 86 3f
       1.0536027 1.1643708 -0.15902902 1.0469482
0003c0 16 68 96 3f d1 fb b4 3e 96 32 31 3f fd 92 3a 3f
       1.1750515 0.3534837 0.69217813 0.72880536
0003d0 b0 04 db bd c2 ac ee 3f 5f d8 f4 3f f4 0e a5 3f
       -0.106942534 1.8646472 1.9128531 1.2895188
0003e0 2c 08 67 3f a8 11 6e 3f 85 f4 52 3f 63 6c 56 3f
       0.90246844 0.9299569 0.8240436 0.83759135
0003f0 82 92 de 3e 91 bf 84 3f b1 44 44 be f1 39 0e 40
       0.43471152 1.0370961 -0.19166829 2.2222865

lstm.weight_hh_l0 f4 [256, 64]
000000 b2 1c 5f 3d 0f f0 54 bd 7e 12 8d be d4 17 64 bd
       0.054470725 -0.05198675 -0.2755317 -0.055686787
000010 82 b9 93 bd b4 11 93 3d cc a1 c6 3b ec cb 9f bd
       -0.07213117 0.07181111 0.006061768 -0.07802567
000020 d1 e6 fa 3d bf 5e 94 3d cb 65 82 be 0a 88 3d 3e
       0.12251056 0.07244634 -0.25468287 0.18508926
000030 c8 fa 62 be ef 0f a4 3d d5 c2 06 bf 03 7a b0 bc
       -0.22165978 0.080108516 -0.5264104 -0.021542555
000040 72 8c 01 be c9 be 18 bf 88 2f 7a 3e bd 53 90 bc
       -0.12651232 -0.59666115 0.24432194 -0.017618055
000050 f3 4b c8 bd 9b a3 32 be ca 8b d8 be 5c 97 9d bc
       -0.09780111 -0.17445223 -0.4229415 -0.019237213
000060 ab 97 6a bd 99 65 04 3e a1 d2 20 3f 39 e6 04 3e
       -0.057273548 0.12929381 0.62821394 0.12978448
000070 4c 0a ba 3e b4 28 b5 be 1e 82 e9 3d 50 27 d1 3b
       0.3633598 -0.35382617 0.11401771 0.0063828602
000080 e6 fb e5 3d 96 2b 48 3e 86 5b 1d 3f d2 e1 09 3e
       0.112296864 0.19547877 0.6146778 0.1346505
000090 91 41 69 be 8d 68 86 3e 46 41 79 3e 94 d0 40 3e
       -0.22778918 0.2625164 0.24341306 0.18829566
0000a0 c9 00 08 bc a2 29 01 bf d0 80 f7 be 8b e8 99 3e
       -0.008300968 -0.5045415 -0.48340464 0.3006023
0000b0 cf 26 a4 bd 16 f2 04 be 41 d0 56 3e f0 2b c8 3d
       -0.08015215 -0.12982973 0.2097788 0.097740054
0000c0 72 44 99 be d2 cc da be 5b c0 a0 be 01 e9 04 bb
       -0.29935032 -0.4273439 -0.31396756 -0.0020280483
0000d0 bf 7c fb 3d 01 79 25 3e 37 20 c6 3d a6 5f 1c 3f
       0.12279653 0.1615944 0.09674113 0.6108345
0000e0 47 22 37 bd e0 24 29 be 22 50 b0 3e 90 4f 2a be
       -0.044710424 -0.16517973 0.34436136 -0.16631913
0000f0 8c a4 a0 3e 5b d4 2a be c0 c6 27 3e a9 17 a8 3e
       0.3137554 -0.1668257 0.16384411 0.3283055
000100 57 e3 59 be 3d 59 ab 3d d5 1d 1a bd 6c f9 8a bd
       -0.2127813 0.0836663 -0.037626106 -0.06785855
000110 0c 97 81 bd a7 27 b7 3d 0e 7d f5 bd 0f 1a 8d be
       -0.06327638 0.0894311 -0.11986743 -0.27558944
000120 0c 3c a1 3d 39 2e 6b bd d4 09 43 3e c7 c5 8c 3c
       0.07872781 -0.05741713 0.19046718 0.017184151
000130 a9 72 94 bd f6 c0 0e 3d 7e 5c 92 3d db b6 2b bd
       -0.07248432 0.03485199 0.07146548 -0.04192243
000140 b9 77 5c bd 90 81 20 3d af ea be bd d8 0d bb bd
       -0.053825114 0.03918606 -0.09322106 -0.091335
000150 44 59 d3 bd f3 25 20 be a6 11 93 3d 50 43 79 3c
       -0.103197604 -0.15639476 0.071811005 0.015213802
000160 4b a3 b3 3d 0c 39 c9 bd 38 6f 88 3c c9 ca 9a bd
       0.0877138 -0.09825334 0.016654596 -0.075582094
000170 1a 26 02 3d a6 2b 53 3e 27 d1 b8 bd bb cf da 3d
       0.031774618 0.2062212 -0.09024268 0.10684153
000180 0d 12 6c be 99 c2 5d 3d 69 a3 59 3d e9 a4 00 be
       -0.23053761 0.05414066 0.053134356 -0.12562908
000190 cc b4 7c bd 53 57 a8 bd 25 99 68 bd 33 ed 08 3d
       -0.06169586 -0.08219781 -0.056786675 0.033429336
0001a0 5b 31 9b bc eb d7 2e 3e 30 99 e4 3d 63 3a 2b 3e
       -0.018944433 0.17074554 0.11162031 0.16721492
0001b0 3f 75 2d 3e 97 28 e7 3d 1b 82 15 be 95 9f 16 bd
       0.16939257 0.11287039 -0.14600413 -0.036773283
0001c0 03 52 2f 3d 47 42 79 bc 34 47 a0 bd 51 35 84 be
       0.04280282 -0.015213556 -0.07826081 -0.25821927
0001d0 18 59 81 bd 49 1a 12 3e 49 8a b8 3d 9f 52 3a bd
       -0.063158214 0.1426784 0.09010751 -0.04548895
0001e0 ca d6 c8 be ba 00 22 ba 11 23 46 3e 9a 8f 8b bd
       -0.3922637 -0.0006179918 0.19349314 -0.06814499
0001f0 7a ce 35 be 8d f6 b1 bb 27 5e 17 3d 16 c3 7f 3c
       -0.17754546 -0.0054310025 0.036955025 0.015610477
000200 b9 6b 0e 3e 2e 06 90 3e d3 e0 1e 3e 71 bd 88 3e
       0.1390828 0.28129715 0.15515451 0.26707032
000210 27 f9 40 3c 9b ff 47 3d 57 0e 5b 3e e1 55 e3 3c
       0.011778153 0.04882775 0.21392189 0.027750911
000220 33 29 4c bd 4d fb 8c bd ae 4b 52 be 18 9c ab 3d
       -0.049843978 -0.06883869 -0.20536682 0.08379382
000230 7f 4f 3e be db d5 f0 bd a2 45 04 3d 72 24 c8 bd
       -0.18585013 -0.1175954 0.03229297 -0.097725764
000240 72 fd d8 3c 04 3a 3a 3d 3f 0a 42 3d 0f 3b 1e be
       0.02648804 0.045465484 0.047373053 -0.15452217
000250 e6 b1 c1 bd a4 69 e2 bd e0 83 c4 bd 73 c7 36 3e
       -0.094577596 -0.110553056 -0.09595466 0.17849521
000260 02 d6 50 be df fe 1b 3e b9 26 27 bd 28 c3 ee 3a
       -0.20394138 0.15233944 -0.040808413 0.001821612
000270 6e 09 08 3e 63 ce 55 3d e6 ab 94 3e 6d 13 b4 3d
       0.13284847 0.05219878 0.29037398 0.08792768
000280 fc b0 f7 3e 9e f7 e8 3c 02 fc e2 3d 1b 73 9f 3c
       0.48377216 0.028438386 0.11083223 0.019464066
000290 11 d3 04 3d b8 30 29 3e 43 0a 2d 3e 9c 7b 81 3e
       0.03242785 0.16522491 0.16898446 0.2528962
0002a0 e6 e7 61 3e 85 a7 b6 3e 99 f5 94 3d 74 d2 34 3d
       0.22061118 0.35674682 0.072734065 0.044146016
0002b0 fe b3 26 be ff 16 06 bd 2e 9d de 3d 88 bf 8b bd
       -0.16279599 -0.032736775 0.108698234 -0.06823641
0002c0 9e 9c 1c be 8d 1d 12 be cc 96 89 3c be fc c5 bd
       -0.1529412 -0.14269085 0.016795538 -0.09667347
0002d0 ef dd 1a bd 3b 5a 10 be ce 48 80 3d 05 16 85 3d
       -0.03780931 -0.1409692 0.062638864 0.064983405
0002e0 ff 00 ce bb c2 17 0f be 7f 23 2e 3d 9b 40 1f 3d
       -0.00628674 -0.13973907 0.04251432 0.038879972
0002f0 ae 29 f6 3d 7d b6 4a bd 4a 74 44 be 94 65 1d be
       0.120196685 -0.04949044 -0.19184986 -0.1537078
000300 99 1b 30 be e2 32 44 3e 13 08 9c 3e 09 e5 2f 3e
       -0.17198028 0.19160035 0.3047491 0.17177214
000310 3e 7e a2 3c ae fa 31 be 6b 15 56 3e 62 9b ba be
       0.019835588 -0.17380783 0.20906608 -0.36446673
000320 be 52 08 be a0 44 58 3c 4d 30 00 be 54 05 03 3e
       -0.13312814 0.013199955 -0.12518425 0.12795001
000330 ce 23 e6 3d 5e af 97 be 99 68 fa bc ae f8 30 be
       0.11237298 -0.29625982 -0.030567454 -0.17282364
000340 44 b3 50 3e de f1 ad bd 8f 77 6f 3e 8f cb b6 bd
       0.20380884 -0.08493398 0.23385452 -0.089255445
000350 7c 24 2e be c7 b4 eb bd 54 b3 a5 bd 6b 4c 58 3e
       -0.17006105 -0.1150909 -0.08090845 0.21122901
000360 89 1d 4c be 21 8f 41 3e d2 a7 97 3e 7b a7 03 bb
       -0.19933142 0.18902256 0.29620224 -0.002008884
000370 bb cd a8 bd 8d aa d0 3b 14 e6 9e 3e 8c 1e 84 3d
       -0.08242365 0.0063679875 0.3103491 0.06451139
000380 db 4b bd 3d 30 d3 fd 3d 45 55 4b bd ff d6 ea bd
       0.09242984 0.123937964 -0.049641866 -0.114667885
000390 9d 8f 2c 3e a7 0f aa bd 24 83 a5 3d b4 bf 68 3e
       0.16851659 -0.08303767 0.08081654 0.22729379
0003a0 7b 61 e6 3d 69 25 73 3e 14 93 ec 3d 7c 63 28 3e
       0.11249062 0.2374474 0.115514904 0.164442
0003b0 8a 08 7b be 64 ea 48 be 3c 2f 42 be f2 53 b8 3d
       -0.24514976 -0.19620663 -0.18963331 0.09000386
0003c0 62 61 e7 bd 63 51 87 bd 3a 90 be bd 56 20 aa bd
       -0.11297871 -0.0660732 -0.09304853 -0.08306949
0003d0 07 f0 ff 3d 5e b8 97 be 42 7a e1 3d ba e0 83 bd
       0.124969535 -0.29632849 0.11009647 -0.064393476
0003e0 06 70 8f bd 5f 52 4c be 8b cc 21 bd 2c 64 8a bd
       -0.07003789 -0.19953297 -0.039501708 -0.067573875
0003f0 d3 4b eb bb c7 8d db bd 54 c1 ca bd b9 70 3f be
       -0.00718067 -0.10720401 -0.09900156 -0.18695344

lstm.bias_ih_l0 f4 [256]
000000 58 ea 90 3b ed fc b7 3c 93 d8 79 3e 8b a0 b0 3e
       0.004422467 0.022459472 0.24399023 0.34497485
000010 f6 16 cc 3d e6 2d 98 3e 14 74 44 3e 8e c6 6d 3c
       0.09965317 0.29722518 0.19184905 0.014512671
000020 89 02 b6 3e 92 a2 1e 3e 6f 58 a7 3c 47 e6 75 bd
       0.3554881 0.15491703 0.02042791 -0.060034063
000030 2e 4d b5 bd a3 16 1c 3d 08 ff d5 bd a2 55 07 3b
       -0.088526115 0.038107526 -0.10449034 0.0020650406
000040 f2 04 23 3e ed a7 b9 3c 50 55 24 3e 77 e2 94 3e
       0.15919855 0.022663081 0.16048169 0.2907903
000050 30 f4 2c 3e af 72 e1 3d 0a 82 42 ba 11 39 72 3e
       0.16890025 0.11008202 -0.000741989 0.23654582
000060 ee dd ed bc f4 b3 9a 3e e7 4c 14 bd 65 20 0d 3f
       -0.029036488 0.30215418 -0.036206152 0.55127555
000070 c4 17 41 bd a2 3b 8b 3d 77 f3 fa 3d 4a 5c ee 3d
       -0.047141805 0.067984834 0.122534685 0.116386965
000080 56 fe 8f 3d 66 2c 54 be 3a 13 a3 ba c7 5b 88 3e
       0.070309326 -0.20720062 -0.0012441643 0.2663252
000090 e3 9c d1 3d 5b 71 36 3e 72 10 82 bd 2b c0 8d 3e
       0.10235002 0.17816679 -0.06350793 0.27685675
0000a0 ff 44 3c 3e e0 5d e1 3d a8 40 8a 3d c9 15 b7 3d
       0.18385695 0.11004233 0.067506135 0.08939702
0000b0 e4 db 7b 3d 72 05 64 3a f0 c6 20 3d ff 27 18 be
       0.061489 0.0008698321 0.03925222 -0.14859007
0000c0 88 9d 38 be f4 4d 49 3e d3 0d 49 3e 17 81 a3 3e
       -0.18028843 0.19658643 0.1963418 0.31934425
0000d0 9a 3b aa 3d 0a b8 c9 3d e5 73 b2 3e 5b d1 6e be
       0.08312149 0.09849556 0.34854046 -0.2332205
0000e0 89 66 b0 3e 47 81 c8 3e bd b8 91 be 9c 5f e2 3b
       0.34453228 0.3916113 -0.28461257 0.00690837
0000f0 1f c7 19 3e 07 fa ec 3d 70 56 47 3e 7c 1e 8e 3d
       0.15017365 0.115711264 0.19466567 0.06939408
000100 05 10 26 be cc 76 0f 3d 29 4b 67 3e c0 da 42 3e
       -0.16217048 0.035025403 0.22587265 0.19028759
000110 3a af 16 3d d0 d9 16 be 85 5c f3 3d bb 49 b6 3d
       0.036788203 -0.14731526 0.11882881 0.08900782
000120 08 53 8b be c6 2a d3 bc 3b 90 28 3d 06 3a 44 be
       -0.27211785 -0.025777232 0.041153174 -0.19162759
000130 f4 cf 34 be b0 11 92 3d 31 0d 95 bd 6a d5 a9 3d
       -0.17657453 0.0713228 -0.07277907 0.082926586
000140 87 a2 06 3e aa 03 9d bb 6f 1e 6e 3e ef c4 f3 3d
       0.13147937 -0.0047916966 0.23253797 0.119027965
000150 45 93 70 3e d5 10 53 bd 9e 88 58 be 2b 22 3a 3e
       0.23493679 -0.051529724 -0.21145865 0.18177097
000160 aa 19 77 bd 77 8b 64 3e 50 00 53 3e 42 bf 60 3c
       -0.06032721 0.22318827 0.20605588 0.013717474
000170 73 0c 10 3e 02 5c 44 3d a6 f4 fe 3d f2 06 82 3c
       0.14067249 0.047939308 0.12449007 0.015872452
000180 4d 73 67 bd cc 0d 24 be 02 d4 5c bd 04 da 04 be
       -0.056506444 -0.16020888 -0.053913124 -0.12973791
000190 62 0e 0f 3e 4a c7 f1 bd e8 2b 6a 3b 6d 05 16 bd
       0.1397033 -0.118055895 0.0035731737 -0.03662627
0001a0 f4 72 bd 3e f1 ec 9c 3e fc 07 0b be 9a a3 3f 3e
       0.37001765 0.30649522 -0.13577265 0.18714753
0001b0 43 80 45 bd 51 a1 33 bd 64 0b 45 be 79 77 0d 3d
       -0.048218023 -0.043855015 -0.19242626 0.034537766
0001c0 9e 51 4e 3e f4 c9 31 3e ec 52 f9 3d 2f bc 0d be
       0.20148322 0.17362195 0.12174019 -0.13841318
0001d0 b3 90 d0 3c d8 d2 b6 3c 85 5c 5f 3e 8b 70 49 3d
       0.025459623 0.022317335 0.21812637 0.049179595
0001e0 cf bc 0f be 6d a7 b9 3e 78 7a 87 bd 1b 2a b9 bb
       -0.14036869 0.36260548 -0.06615156 -0.0056507713
0001f0 23 f2 d6 bd 8e 3d 7e 3c 81 ff 26 3e d9 01 12 3e
       -0.10495403 0.0155176055 0.16308405 0.14258517
000200 b3 c4 7a bd a8 e3 43 3e 99 ce eb 3c 73 4a 97 3e
       -0.061222743 0.19129813 0.028785037 0.29548988
000210 39 a6 b6 bd 38 a6 4f be 3f a9 0e 3e 89 6e 8c be
       -0.08918423 -0.20278251 0.1393175 -0.27428082
000220 06 cd 52 be e2 e0 cb 3c 88 eb 67 3c e9 03 14 3d
       -0.20586023 0.024887506 0.014155276 0.03613654
000230 7c bc 57 bd 67 92 44 be 49 18 a2 3c 4e fa 39 be
       -0.052669987 -0.19196473 0.01978697 -0.1816189
000240 cc 5f 27 3e c5 c7 87 bd 5c cf a5 3e 46 01 c8 bc
       0.16345137 -0.066299 0.32384765 -0.02441467
000250 5d 69 2e be 90 8f 82 bd 5a 5a 55 be 12 ac 16 3e
       -0.1703238 -0.063750386 -0.20835248 0.14714077
000260 d8 4b a4 be 8a 8a 9b 3e d2 e0 76 3e ce d9 56 3d
       -0.32089114 0.30379134 0.241092 0.05245381
000270 85 d9 a5 bd 9a d3 31 3e 7b 11 36 3e 2a 0a bc bd
       -0.08098129 0.17365876 0.17780106 -0.09181626
000280 2a 0f 31 3e 55 e6 12 3e 34 af aa 3d 89 62 e1 bc
       0.17290941 0.14345677 0.083341986 -0.027512806
000290 89 60 d7 3d 14 c7 6f 3e 77 8c 2b 3e 1b 7d 0d 3e
       0.105164595 0.23415786 0.16752802 0.13817255
0002a0 95 29 59 3e bd 94 93 3d cf dd 86 bd af 41 3c 3d
       0.21207269 0.07206104 -0.065852754 0.04596108
0002b0 ed c3 1b be ab 70 64 be 2a cf 92 3d 67 2c 8f 3d
       -0.15211459 -0.22308604 0.0716842 0.06990891
0002c0 40 33 aa bb a7 69 02 be 06 60 0f be 9f c0 eb 3d
       -0.0051940978 -0.12735616 -0.14001474 0.11511349
0002d0 a5 f8 c7 bd 9a 11 a0 be b5 50 f7 3d 66 6c 83 3c
       -0.09764222 -0.3126343 0.120759405 0.0160429
0002e0 e7 0a 0d be 19 8c 5e be 57 c4 1a bd d3 d3 88 bd
       -0.1377369 -0.2173313 -0.0377849 -0.06681027
0002f0 f6 68 48 3e b2 04 f9 bd 2f 42 2e 3d aa 14 88 be
       0.1957129 -0.12159099 0.042543586 -0.26578265
000300 0d 19 08 3e 11 43 6c 3e 14 fc 93 3e 10 83 7e 3a
       0.13290806 0.23072459 0.28903258 0.0009708861
000310 a1 2d 80 3b 72 12 05 3d fe c1 07 bd 68 f8 d4 3e
       0.0039116894 0.032488294 -0.03314399 0.4159577
000320 42 81 cf 3e db 54 f5 3d 26 f1 88 3e c6 47 98 3e
       0.40528303 0.119790755 0.26746482 0.2974226
000330 5b 46 38 3d d0 2f 9c bd e9 af a8 3e 62 bf 57 bd
       0.04498897 -0.07626307 0.3294671 -0.05267275
000340 fc 52 13 3e 0c 6a 4d 3e 78 97 be 3d 72 37 d8 3e
       0.14387125 0.20059985 0.09306234 0.422298
000350 83 e9 85 bd 0f c1 52 3e 49 fa 10 3d 53 2f ff bd
       -0.065386795 0.20581459 0.03539494 -0.12460198
000360 05 58 02 bd 22 f3 1e 3e 99 6d 83 3e c0 ec 29 3e
       -0.031822223 0.15522435 0.25669554 0.16594219
000370 0e 7b 8b 3d 77 94 60 be 45 ec 88 be 7c eb 9f bd
       0.0681058 -0.21931635 -0.2674276 -0.07808587
000380 d5 2c 11 3e 3b de a5 3e b4 21 7d 3a 48 46 c1 3e
       0.14177258 0.3239611 0.0009656206 0.37748933
000390 3e 2d 49 3c aa 04 59 3e dc 8f 1a bd 30 6b a7 bd
       0.012278853 0.21193185 -0.03773485 -0.08174741
0003a0 1b 75 89 3e f8 cf 5a 3e 70 f9 03 3e 94 6b 38 3e
       0.26847157 0.21368396 0.12888122 0.18009788
0003b0 e7 d5 6d 3d 1c a4 30 3c 92 de c2 bd 4e 13 cc bc
       0.05806532 0.010781314 -0.09515108 -0.024911549
0003c0 de 2c 0e 3d e1 d4 c3 3e 48 de 5a bd cf 8d 02 3f
       0.034710757 0.3824835 -0.05343464 0.5099763
0003d0 89 80 34 bc 4b 23 91 3d a6 a1 cf bd 58 98 29 be
       -0.011016973 0.0708681 -0.10138254 -0.16562021
0003e0 12 0e 44 3f d5 d6 8f 3d b9 19 b9 3b 1c 00 9d 3e
       0.7658397 0.07023398 0.0056488183 0.30664146
0003f0 91 da 9b 3e 1b 2c 4c bc 73 3e f7 3d 46 8c bd bd
       0.3044019 -0.012461687 0.12072458 -0.09255271

lstm.bias_hh_l0 f4 [256]
000000 94 1c b9 3c fc 69 d2 3d bf b5 d5 3d 95 a8 a4 3e
       0.022596635 0.10274121 0.10435056 0.32159868
000010 35 30 86 3e b5 10 99 3e 76 2d 18 3d 07 fa 55 bd
       0.26208654 0.2989556 0.03715273 -0.052240398
000020 0b c2 cd 3e 16 bb f9 bb 93 d0 40 3b ec 1b ff bd
       0.40187106 -0.0076211793 0.0029421195 -0.124564976
000030 cb 47 e7 bd b1 36 e2 bc 9a 27 c4 bd 53 b5 0a 3d
       -0.1129299 -0.02761397 -0.09577866 0.03386433
000040 29 99 7b 3e b6 d4 22 3d 6b 55 de 3d c6 3c 91 3e
       0.24570145 0.03975364 0.10856136 0.2836668
000050 a6 5b 27 3e 3a 10 24 3d 5a d6 e6 3d 3f 41 06 3e
       0.16343555 0.040054537 0.11271353 0.13110827
000060 f6 a2 01 be 32 a8 93 3e 0c 2d bb 3d 3d 2b 01 3f
       -0.12659821 0.2883926 0.091394514 0.504566
000070 83 b4 e1 3c f0 c4 a1 3d d2 2d e2 3d bf 41 a5 3d
       0.027551895 0.07898891 0.11043896 0.08069181
000080 5d 6b 57 3d 02 12 6e bd 05 77 8f bd 05 d4 de 3e
       0.052592624 -0.058122642 -0.07005123 0.43521133
000090 40 24 1a 3d ef dd 21 3e b3 0d 8d 3c 4f b1 17 3e
       0.037632227 0.15807317 0.017218446 0.14813732
0000a0 d7 df 13 3e 7e e9 39 3d 93 85 9b 3d 94 fa c5 3d
       0.14440857 0.04538869 0.07593837 0.096669346
0000b0 5f a1 7f bd e8 93 0d bb ed e7 43 bd 1c d7 0f bc
       -0.062409755 -0.0021603052 -0.047828604 -0.008779313
0000c0 ff bf db bd 0b 1f 33 3d 29 0c cf 3b 9b f3 c2 3e
       -0.1072998 0.043730777 0.0063185883 0.3807648
0000d0 50 9e c6 3d 55 44 28 bd f8 f3 33 3e a6 d0 90 bd
       0.096981645 -0.04108079 0.17573535 -0.070710465
0000e0 63 8d b0 3e 2e 57 86 3e 32 86 80 be 7e b0 12 be
       0.3448287 0.26238388 -0.25102383 -0.14325139
0000f0 22 e7 3c 3e f1 55 33 3d 78 ac 4a 3e 46 65 6d 3e
       0.18447545 0.043783132 0.19792354 0.23183164
000100 11 a5 42 be e2 69 1f 3e a9 05 fb 3d 75 ef 42 3e
       -0.1900828 0.15567735 0.12256939 0.19036658
000110 ab 52 a7 3c 38 b2 ec bc 8a 1a 90 3e 07 61 b4 3d
       0.020425161 -0.028893575 0.28145248 0.08807569
000120 60 0d 77 bd f9 39 24 be 59 c1 d0 bd 99 4d 68 be
       -0.06031549 -0.1603774 -0.10193128 -0.22685851
000130 27 dc dd bd 49 5e cf 3c 05 0d 17 bd 15 fc cb 3d
       -0.10833006 0.025313513 -0.03687765 0.0996019
000140 f8 de ae bc 7a 19 ed 3d c5 e8 8b 3e ca b7 af 3c
       -0.021346554 0.11577125 0.27326027 0.021449942
000150 1e 9d c4 3e 44 a4 b2 bd 55 50 7f be 67 e0 38 3e
       0.3840112 -0.087227374 -0.24932988 0.18054353
000160 0f b3 36 3d 53 ac 5d 3e 4e 43 c6 3d bf 89 20 bd
       0.044604357 0.21647768 0.09680806 -0.039193865
000170 57 60 2f bd 56 b4 66 bd 92 db 84 3e 31 37 59 bd
       -0.042816486 -0.056324326 0.2594877 -0.05303115
000180 f6 de 38 bd 76 0d b8 3c 23 07 55 3c ef 2a 72 3d
       -0.045134507 0.022467356 0.01300219 0.059122976
000190 8f 61 42 3d cd 85 71 3d f5 7c 7a 3c 6f 02 b5 3d
       0.04745632 0.058965493 0.015288581 0.08838355
0001a0 35 06 ae 3e 05 b4 e6 3d 4d 53 1a be b8 b1 00 3b
       0.3398911 0.11264805 -0.15070839 0.0019637179
0001b0 ac 67 ed bd ce fb d1 3c 04 95 61 be bf b7 14 3d
       -0.115920395 0.025632765 -0.22029501 0.036308046
0001c0 78 c4 3f 3e 10 a6 16 3e 6a c4 5c 3e 82 a0 40 be
       0.1872729 0.14711785 0.21559301 -0.18811229
0001d0 8c 9e 50 be 99 a4 b2 3c 3a b6 92 3e 1a 5f ec bd
       -0.20372981 0.021807002 0.28654653 -0.11541577
0001e0 d9 cc 08 3d d5 b4 83 3e 54 2e 1c 3d 10 49 8a bd
       0.033398483 0.257239 0.03813012 -0.06752217
0001f0 d8 08 86 be 4c 2d 3a bc 1b 63 a1 3e 0c 21 b2 3e
       -0.26178622 -0.011363339 0.31520924 0.34790838
000200 da 34 eb 3d 45 6b 18 3e 72 c9 25 3e ae 39 8c 3e
       0.1148469 0.1488467 0.16190127 0.27387756
000210 79 1a 0e 3d 04 54 a9 bd 76 3d 32 3e 15 4e 72 be
       0.034693215 -0.08267978 0.17406258 -0.23662598
000220 c3 42 ba be b9 47 b1 3d c1 b9 ce bd 76 6d 86 3d
       -0.3637906 0.08656258 -0.100940235 0.06563847
000230 d2 9a 84 bd 5f 52 6a be 03 a6 29 3e 2b 8f 1d be
       -0.06474842 -0.22882985 0.16567235 -0.15386645
000240 f3 ef 4f 3e d2 a6 5b be f6 3a 80 3e 8c e8 04 3e
       0.20306377 -0.21450356 0.25044984 0.12979335
000250 f2 04 00 be 37 74 02 3d 0f ac 5c bc 65 ba 2c 3e
       -0.12501886 0.031849112 -0.013468756 0.16867979
000260 2a 77 c8 be 02 03 6b 3e c8 b0 6b 3e b1 98 16 3d
       -0.39153415 0.22950366 0.23016655 0.03676671
000270 d8 1f 35 3c 27 b3 f1 bb 1c ae a3 3e 16 65 30 3d
       0.011054955 -0.007376093 0.31968772 0.043065153
000280 27 e2 46 3e 9f 41 1d 3d aa e2 ca bd 65 7f 2d 3d
       0.19422208 0.03839266 -0.09906514 0.04235782
000290 37 8a 63 3e 53 ba db 3d e0 7f 25 3e 52 01 43 3e
       0.22220694 0.10728898 0.16162062 0.19043472
0002a0 d5 7a 02 3e fd 3e 87 3d 9e 36 13 3e 13 d9 7f 3e
       0.12742169 0.06603811 0.14376304 0.24985151
0002b0 4b 34 0e be 52 3b 8f be 7f 0b bf bb 90 f1 04 3e
       -0.13887136 -0.27974945 -0.005830228 0.12982774
0002c0 94 ed 70 bc 0c 84 0d be ce 1d 76 bc 9a ac 34 3d
       -0.014705081 -0.13819903 -0.015021754 0.04410992
0002d0 d5 23 15 bd f6 be 86 be a6 39 99 3e 3a f4 83 3d
       -0.036411125 -0.26317567 0.29926795 0.06443067
0002e0 62 ea ab bc 9e 51 59 be 72 0b c8 bd 38 48 62 bc
       -0.020985786 -0.2122254 -0.09767808 -0.013811164
0002f0 70 50 1b 3e ee 27 00 be a5 e2 5f bd d2 35 15 be
       0.15167403 -0.12515232 -0.054659504 -0.14571312
000300 dc d8 4f 3d 66 08 ae 3d 5b 58 5f 3e e3 3c 39 be
       0.050743923 0.084976956 0.21811049 -0.18089633
000310 23 2a 9e 3c d5 f3 49 3e 15 bb b8 3b 62 2b f2 3e
       0.019307202 0.19721921 0.0056375363 0.47298723
000320 d3 5c de 3e 97 bb e6 ba 3c ae 9c 3e a8 db 9f 3e
       0.43430194 -0.0017603514 0.3060168 0.31222272
000330 23 93 86 3d f4 3a ed 3b 86 3f 9e 3e 3e 49 c8 bc
       0.06571033 0.007239694 0.3090784 -0.024448987
000340 fb e1 38 3d a0 23 9e 3d 1b 8b 8a 3e 0c 18 9b 3e
       0.045137387 0.07721639 0.27059254 0.30291784
000350 39 ad ba bd e1 07 df 3d a0 79 73 3e c7 82 35 bd
       -0.09115071 0.10890175 0.23776865 -0.044314172
000360 9c 37 2a 3d 03 69 0d 3e 99 f3 bd 3e ef 18 62 3e
       0.04155694 0.1380959 0.37099913 0.22079824
000370 fa 10 7d 3d fc 2b 83 be 44 30 82 bd f3 4c 1d 3e
       0.06178377 -0.25619495 -0.06356862 0.15361385
000380 61 b9 b0 3e 1b 6e a7 3e f4 27 a4 3c 30 eb e1 3e
       0.34516433 0.3270119 0.020038582 0.44124746
000390 f1 e3 e3 3d 47 f7 a2 3e 53 50 0d 3d 07 8c d1 bd
       0.11127461 0.31829283 0.03450043 -0.10231786
0003a0 0a bb 9f 3e 92 ed a1 3e b6 18 28 3e 84 2f 67 3e
       0.31197387 0.31626564 0.16415676 0.2257672
0003b0 1b 0c 88 3d 37 12 5a 3e 3a 19 20 be 41 ca 9d 3c
       0.06642934 0.21296011 -0.15634623 0.019261481
0003c0 48 f0 06 3d 8d 15 b9 3e fc 75 a1 3d 01 7d ee 3e
       0.032943994 0.36149254 0.07883832 0.46579745
0003d0 84 69 9e bc d1 c8 bb bd fc 32 22 bc dc 5d 32 be
       -0.019337423 -0.09169162 -0.009899851 -0.17418617
0003e0 cb 0a 47 3f 88 80 13 3e ef 13 1f be 90 59 0b 3e
       0.77750844 0.144045 -0.15534948 0.13608384
0003f0 d0 04 9c 3e 94 53 48 bd 1c 83 da 3d 31 90 71 3d
       0.30472422 -0.04890783 0.106695384 0.058975402

head.weight f4 [24, 64]
000000 56 c4 b2 41 9d 9f b0 41 2d 40 b0 41 34 fd b0 41
       22.345867 22.077936 22.031336 22.123634
000010 ea f5 af c1 b7 c4 b1 c1 d0 b7 af 41 b9 08 b0 c1
       -21.995075 -22.221052 21.964752 -22.00426
000020 00 5d b1 c1 22 2a b2 41 b7 13 b1 c1 b9 be b1 41
       -22.17041 22.270573 -22.134626 22.218126
000030 cd b9 b1 c1 cd 91 b0 c1 32 7b b0 c1 5d 16 af c1
       -22.215723 -22.071192 -22.060154 -21.88592
000040 64 6d b0 41 52 cf af c1 52 b4 af 41 2c 86 b0 41
       22.053413 -21.97623 21.963047 22.065514
000050 c5 2b af c1 f3 c6 b1 41 a0 9e b0 c1 ba 30 b1 41
       -21.896372 22.222143 -22.077454 22.148792
000060 b3 9c b0 c1 12 77 af 41 2c fb af 41 d0 8c b0 41
       -22.076513 21.93314 21.997643 22.068756
000070 3e 29 b1 41 8d df b0 c1 f1 10 b0 41 3a fc b2 c1
       22.145138 -22.109156 22.008272 -22.373158
000080 d0 1c b1 41 94 5b b2 41 7f 58 af 41 d6 fe b0 41
       22.139069 22.294716 21.918211 22.124432
000090 67 79 7e c1 35 8a b0 41 d0 f4 b0 41 12 a3 b1 41
       -15.904639 22.067484 22.119537 22.204624
0000a0 c4 48 b1 41 90 89 af c1 97 72 b0 c1 4c 86 af 41
       22.16053 -21.94217 -22.055952 21.940575
0000b0 bf a5 b1 c1 dd fb b1 c1 23 01 b2 41 28 67 b1 41
       -22.20593 -22.24798 22.250555 22.17537
0000c0 f2 a3 b1 c1 4c 96 b0 c1 61 7a b0 c1 06 0b b2 41
       -22.205051 -22.073387 -22.059755 22.255383
0000d0 1a 36 b2 c1 dc a5 b0 c1 96 8a b1 41 9a 1f b0 41
       -22.276417 -22.080986 22.192669 22.01543
0000e0 f9 f7 b0 c1 25 3b b0 c1 0a d3 b0 41 7b 37 b2 c1
       -22.12108 -22.02888 22.103046 -22.27709
0000f0 74 6b b0 41 80 aa b0 c1 1e 7c b1 41 5b 9c b0 c1
       22.052467 -22.083252 22.185604 -22.076345
000100 c8 fd b1 41 4f 87 b1 41 35 20 b0 41 0f 2d b0 41
       22.248917 22.191069 22.015726 22.022001
000110 8e ab af c1 50 ab b0 c1 08 c5 b0 41 b1 69 b0 c1
       -21.958767 -22.083649 22.096207 -22.051607
000120 e2 d9 b0 c1 cb cc b0 41 86 03 b2 c1 1e 2b b1 41
       -22.106388 22.099997 -22.25172 22.146053
000130 dc a2 b0 c1 66 68 b1 c1 86 d0 b0 c1 ba ed ae c1
       -22.079521 -22.175976 -22.101818 -21.866077
000140 6f 90 b0 41 28 d6 af c1 50 4d b0 41 d2 35 b1 41
       22.070524 -21.979568 22.03775 22.15128
000150 77 94 af c1 a0 f2 b1 41 bb 21 b2 c1 56 b2 b0 41
       -21.947493 22.24347 -22.26647 22.087078
000160 95 06 b1 c1 37 a0 b0 41 d8 d9 af 41 03 f9 af 41
       -22.128214 22.07823 21.981369 21.996588
000170 29 4e b0 41 54 36 b1 c1 b2 f1 b0 41 64 50 b1 c1
       22.038164 -22.151527 22.118015 -22.164253
000180 bb db b0 41 fa 72 b0 41 50 ff af 41 c6 20 b2 41
       22.10729 22.05614 21.999664 22.266003
000190 a9 00 7e c1 b4 b8 b0 41 17 e4 b0 41 86 cc af 41
       -15.875161 22.090187 22.111372 21.974865
0001a0 75 dd b0 41 b9 ca af c1 c4 10 b0 c1 3d 7a af 41
       22.108133 -21.973986 -22.008186 21.934687
0001b0 c5 e4 b1 c1 89 bb b1 c1 60 38 b2 41 e8 4b b1 41
       -22.236704 -22.21657 22.277527 22.162064
0001c0 c6 c3 b1 c1 ad d9 b0 c1 5a 02 b0 c1 44 22 b1 41
       -22.220592 -22.106287 -22.001148 22.141731
0001d0 26 01 b1 c1 6a bd b0 c1 d3 09 b0 41 00 b0 ae 41
       -22.12556 -22.092487 22.004797 21.835938
0001e0 19 72 b0 c1 a8 8f b1 c1 88 fa b0 41 6b 08 b2 c1
       -22.055712 -22.195145 22.12233 -22.25411
0001f0 bd 8b b1 41 32 b6 af c1 bd a1 b0 41 01 89 b0 c1
       22.193232 -21.963963 22.078974 -22.066896
000200 11 9a b1 41 19 5c b1 41 e9 3b b1 41 72 e8 b0 41
       22.200228 22.16997 22.154253 22.113499
000210 03 69 b0 c1 42 dd b0 c1 2d 58 b0 41 fc b9 b0 c1
       -22.051275 -22.108036 22.043055 -22.090813
000220 02 be b1 c1 60 ab b0 41 b8 a3 b0 c1 25 22 b1 41
       -22.217777 22.08368 -22.07994 22.141672
000230 77 f5 af c1 22 8a b1 c1 b0 1e b1 c1 84 a2 af c1
       -21.994856 -22.192448 -22.139984 -21.954353
000240 23 11 b1 41 51 19 b1 c1 86 98 af 41 7c 6e b0 41
       22.133368 -22.137362 21.949474 22.053947
000250 d1 84 af c1 1f 65 b1 41 c2 65 b0 c1 eb a4 af 41
       -21.939852 22.174376 -22.049686 21.955526
000260 5d 1d b1 c1 fa 46 b0 41 66 33 af 41 0c bc af 41
       -22.139338 22.034657 21.900097 21.96682
000270 b0 01 b0 41 d3 52 b0 c1 d0 97 b0 41 37 24 b1 c1
       22.000824 -22.040442 22.074127 -22.142683
000280 18 5a b0 41 bc a4 b1 41 7c c9 ae 41 8c 0d b0 41
       22.043991 22.205437 21.848381 22.006615
000290 2d 11 7d c1 f7 22 b1 41 cf 30 b0 41 cb 25 b0 41
       -15.816693 22.142073 22.023832 22.018454
0002a0 7a a8 b0 41 c8 d2 ae c1 91 66 b0 c1 81 a7 af 41
       22.082264 -21.85292 -22.050081 21.956789
0002b0 1e a0 b0 c1 c0 3a b0 c1 f8 76 b1 41 4c 52 b1 41
       -22.078182 -22.028687 22.18309 22.165184
0002c0 dc 66 b0 c1 32 44 af c1 f2 88 af c1 68 86 b1 41
       -22.050224 -21.908298 -21.941868 22.190628
0002d0 c2 69 b1 c1 3a 38 b0 c1 5c 4c b0 41 58 26 af 41
       -22.17664 -22.027454 22.037285 21.893723
0002e0 76 e6 b0 c1 62 87 b1 c1 70 eb b1 41 ae c6 b1 c1
       -22.11253 -22.191105 22.23996 -22.222012
0002f0 c2 58 b0 41 52 d4 af c1 c4 bf b0 41 2f f0 af c1
       22.043339 -21.978672 22.093636 -21.992277
000300 27 a1 b0 41 70 bf af 41 9b 5b b0 41 e9 e6 af 41
       22.078688 21.968475 22.04473 21.98775
000310 28 de af c1 c7 be b0 c1 b6 0f b1 41 b4 87 af c1
       -21.983475 -22.093153 22.132671 -21.941261
000320 b5 ba b0 c1 d8 74 b1 41 bf f6 b0 c1 d5 e3 b0 41
       -22.091166 22.182053 -22.120481 22.111246
000330 40 25 b1 c1 a1 2c b0 c1 4a eb af c1 e9 97 af c1
       -22.143188 -22.021791 -21.989887 -21.949175
000340 cb 1f b0 41 02 ef b0 c1 54 e3 ae 41 11 88 af 41
       22.015524 -22.116703 21.861 21.941439
000350 af 0c b0 c1 2a 89 b1 41 0a 4a b0 c1 22 c1 b0 41
       -22.006193 22.191975 -22.036152 22.094303
000360 9e 03 b0 c1 12 10 b0 41 87 16 b0 41 49 cc b0 41
       -22.001766 22.007847 22.011 22.099749
000370 f4 f9 af 41 90 26 b0 c1 ef b2 b0 41 a7 b7 b1 c1
       21.997047 -22.01883 22.08737 -22.214674
000380 95 50 b0 41 c6 e4 b1 41 c2 7e b0 41 a5 10 b1 41
       22.039347 22.236706 22.061893 22.133127
000390 d9 28 7c c1 25 33 b1 41 6e 83 af 41 fa d5 b0 41
       -15.759973 22.149973 21.939175 22.10448
0003a0 c6 60 b0 41 da 01 af c1 3a e9 b0 c1 09 80 af 41
       22.047253 -21.875904 -22.11388 21.937517
0003b0 c7 70 b0 c1 52 96 b1 c1 2e 94 b1 41 24 69 b0 41
       -22.055067 -22.198399 22.197353 22.051338
0003c0 f7 df b0 c1 2c 52 af c1 d0 cc af c1 53 17 b1 41
       -22.109358 -21.915123 -21.975006 22.136389
0003d0 2b 77 b0 c1 ec 7d af c1 4e 42 b1 41 48 2a af 41
       -22.058187 -21.936485 22.157375 21.895645
0003e0 d3 be b0 c1 1b 30 b1 c1 7e f8 b1 41 74 a8 b1 c1
       -22.093176 -22.148489 22.246334 -22.207253
0003f0 f3 49 b0 41 61 ea b0 c1 bc 5c b0 41 87 74 b1 c1
       22.036108 -22.114443 22.04528 -22.181898

head.bias f4 [24]
000000 77 82 ae 41 45 bb ae 41 54 59 ae 41 3d 69 ae 41
       21.813704 21.84144 21.793617 21.801386
000010 16 30 ad 41 29 77 ad 41 f1 f4 ad 41 92 49 ad 41
       21.64848 21.683184 21.7446 21.660923
000020 61 b1 ad 41 bc b8 ae 41 af 8b ae 41 e0 f8 ae 41
       21.71161 21.840202 21.818205 21.871521
000030 ca 56 ad 41 38 1f ae 41 42 ce ae 41 c0 01 ad 41
       21.667377 21.765244 21.850712 21.625854
000040 69 6f ae 41 9c df ae 41 21 26 ad 41 8e 67 ad 41
       21.8044 21.859184 21.643618 21.675564
000050 8f c0 ae 41 b3 05 ad 41 0c a2 ad 41 a0 a4 ae 41
       21.844023 21.627783 21.704124 21.830383
