artifacts/lstm/L1_best.pt (torch, 77153 bytes, 6 tensors)

lstm.weight_ih_l0 f4 [256, 1]
000000 cc 5f b6 3f 13 c8 a0 3f 93 6f 79 3f 5a ab 6c 3f
       1.4247985 1.2561058 0.97435874 0.9244896
000010 45 3d 2c 3f 69 72 16 3f 7e 2d 01 3f 17 36 37 3f
       0.6728099 0.58768326 0.5046004 0.7156691
000020 52 d8 7b 3f a8 8c 87 3f 7f 98 81 3f 31 22 a1 3e
       0.98376954 1.05898 1.0124663 0.31471398
000030 3d a0 98 3e 98 21 e1 3f 67 0f 57 3f ba ff 53 3f
       0.29809752 1.7588377 0.8400788 0.8281208
000040 60 a7 5b 3f e3 31 93 3f 16 79 72 3f d5 a6 f8 3e
       0.8580227 1.1499599 0.9471601 0.48564783
000050 64 cd 66 3f fb 9c 33 3f ed ac ae 3e 90 c9 06 3f
       0.9015715 0.7016141 0.34116307 0.5265131
000060 31 a5 6c 3e 43 6b 1f 3f 62 d4 a6 3e b4 6e 91 3f
       0.2310989 0.62273043 0.3258391 1.1361909
000070 90 c8 12 be 92 f9 19 3f 36 4e fa 3e ba aa ce 3e
       -0.14334321 0.6014644 0.48887795 0.4036463
000080 d7 ab a3 3f e5 de 6f 3f dd 55 c7 3e b9 ba 16 3f
       1.2786816 0.93699485 0.38932696 0.58878666
000090 f6 79 8e 3f 65 e7 34 3f 5a 84 77 3f 5f 4c 63 3f
       1.113097 0.7066558 0.9668633 0.8878841
0000a0 52 d6 68 3e 4f b4 77 3f 54 c2 3f 3f c7 05 3f 3f
       0.22738007 0.96759504 0.74905896 0.7461819
0000b0 57 28 aa 3e b9 d8 b2 3e 13 0c 13 3f ff db 6d 3f
       0.33233902 0.3493097 0.574403 0.9291381
0000c0 e3 45 9b 3f 81 33 08 40 66 ee 0e 3f 35 6d 02 3f
       1.2130703 2.1281435 0.5583252 0.50947887
0000d0 45 89 df 3e f2 a0 bb 3f 82 cf a5 3e a9 ab 06 3f
       0.43659416 1.4658492 0.32384878 0.5260568
0000e0 f7 63 42 3e 82 5e d6 3e bf 39 87 3f 26 8d e0 3c
       0.18983446 0.4186898 1.0564498 0.027411055
0000f0 8d 3c f3 3f b0 24 49 3f b3 24 00 3f be e8 76 3e
       1.9002854 0.78571606 0.50056 0.24112222
000100 b0 b4 d4 3f d2 4f a9 3f 0d 63 3a 3f df a7 5b 3f
       1.6617641 1.3227484 0.7280739 0.85803026
000110 e3 39 e6 3e fe 6a 9d 3e 7f 8c 1c 3e 69 d1 20 3f
       0.4496604 0.3074569 0.1528797 0.62819535
000120 f6 19 17 3f 98 82 a8 3f 13 5a 21 3f 13 ee a1 3e
       0.5902399 1.3164854 0.6302807 0.3162695
000130 f3 3c 00 3f 1f 4f 2d 40 58 9b 02 3f e1 df 53 3f
       0.50093 2.7079542 0.51018286 0.8276349
000140 94 b6 89 3f a0 b4 aa 3f f9 3e 4c 3f fd 95 38 3f
       1.0758843 1.3336372 0.7978359 0.72103864
000150 67 fe 9b 3f 16 08 2f 3e b6 bc ff 3e 79 15 19 be
       1.2187012 0.17092928 0.49948663 -0.14949597
000160 e8 ca 97 be 5a 44 f7 3e d4 a1 05 40 ab 59 0c 40
       -0.29646993 0.48294336 2.0880022 2.192973
000170 cc 60 47 3f 3d a5 4c 3d 8e 09 a7 3f da fd 49 3e
       0.77882075 0.04996227 1.3049791 0.19725743
000180 36 7d 89 3f d7 8b 1c 3d 97 0b 3f 3f 5c 9a a3 3e
       1.0741336 0.0382193 0.7462706 0.31953704
000190 09 bf b7 3f 84 ef 73 3f 5a db 3a 3f d1 60 86 3e
       1.4355174 0.95287347 0.72990954 0.2624574
0001a0 c9 b2 c2 3e e8 07 e0 3f e5 01 a2 bd 48 16 a1 3f
       0.38027027 1.7502413 -0.079105176 1.2584925
0001b0 85 64 8d 3d 2c fc d3 3d 92 03 17 40 54 67 2a 3f
       0.06903938 0.10350832 2.359593 0.66563916
0001c0 5d 5b ad 3f cb 04 15 40 16 1d d3 3e 10 dc b0 3e
       1.3543507 2.3284175 0.41233128 0.34542894
0001d0 80 3f 79 3f a9 3a 16 40 de 10 36 bc 75 89 10 40
       0.9736252 2.3473303 -0.01111242 2.2583897
0001e0 00 42 3a be 05 72 5b 3e ec 70 89 3f c6 f2 4d 3f
       -0.1818924 0.21430214 1.0737586 0.8044857
0001f0 a9 cd 1b 40 0e 33 e1 3e ac 19 6a 3e b2 b2 33 3d
       2.4344275 0.43984264 0.22861356 0.04387159
000200 b3 51 0a bf bf 16 5f bf da 6f 09 bf 6a 42 a9 3c
       -0.54030913 -0.8714408 -0.53686297 0.020661552
000210 6b 90 09 bf 8f ee a5 be 16 94 3b bf ef 1b fa 3e
       -0.5373599 -0.32408568 -0.73272836 0.48849437
000220 80 60 d8 3e 5e 36 2f 3f e5 cd 1d 3f 28 15 49 3e
       0.42261124 0.6844233 0.61642295 0.19636977
000230 8c 75 99 bf e3 1d a8 be 58 ab f3 be 65 fe b9 be
       -1.1988997 -0.32835302 -0.47591662 -0.363269
000240 e0 f6 fa be 37 0b ae be 8e 00 11 3f b1 cc c6 bf
       -0.49016476 -0.3399293 0.5664147 -1.5531217
000250 8f a6 8a 3f 98 ff 19 3f a2 b2 64 3e 57 fe 07 bf
       1.083208 0.6015563 0.22333768 -0.53122467
000260 ad 6e 05 3f 6f 71 47 3f dd fc ae bf ac 1c 80 bf
       0.52122 0.7790746 -1.3670918 -1.000875
000270 ce ac 02 bf 08 33 33 bf 2b 9b 25 3f 39 2e e8 3e
       -0.5104493 -0.6999974 0.6468989 0.45347765
000280 e4 e4 b7 be bd 9b 2e 3f 59 f9 0d 3f af 89 bb be
       -0.35916817 0.6820639 0.554586 -0.36628482
000290 07 75 9d 3e 7a ed 02 bf 7a e7 39 3f c6 f7 f4 3e
       0.30753347 -0.5114361 0.7261883 0.47845286
0002a0 f6 ee 1e be 73 d0 8c 3f 2d 18 21 3f c3 98 6b bf
       -0.15520844 1.1001114 0.62927514 -0.9202997
0002b0 8c c3 95 be 96 b7 24 bf bb 7b 9d bf 45 36 39 3f
       -0.29250753 -0.6434263 -1.2303385 0.72348434
0002c0 d2 ee 29 3f b1 20 be 3e e8 c0 8d be da ab fa bd
       0.66380036 0.37134317 -0.27686238 -0.12239809
0002d0 97 be dd be a8 42 0c bf a4 1c 56 bf 86 c4 bf bf
       -0.4330947 -0.5478921 -0.8363745 -1.4981849
0002e0 43 56 0b 3f 5c 15 ac 3e 88 3f a2 3e 32 69 0c bf
       0.544285 0.33610046 0.31689095 -0.54848015
0002f0 a2 21 5c 3d c2 e2 9b 3e 0d 53 c2 be b7 73 9b be
       0.053743012 0.3044644 -0.37953988 -0.3036172
000300 ed d6 a0 3f 06 c7 71 3f 10 f0 07 40 7c 3f d6 3f
       1.256559 0.9444431 2.1240273 1.6738124
000310 7d d5 99 3f bf 2d 20 40 dd 1d 3b 3f 7f 84 5a 3f
       1.2018276 2.5027921 0.7309244 0.85358423
000320 f2 35 07 40 f0 e6 bc 3f 9a 6e 02 3f fa e4 a6 3f
       2.1126676 1.4757977 0.50950015 1.3038628
000330 72 16 9b 3d 53 dd 4c 3f 8b a5 87 3f 47 22 93 3f
       0.075726405 0.80025214 1.0597395 1.1494836
000340 4f 36 f8 3f b8 d8 53 3f 13 5b 90 3f fa 4a a5 3e
       1.9391574 0.8275256 1.1277794 0.32283765
000350 ac 19 68 3f 9a 7e 99 3f ce f4 de 3f e1 b4 63 3f
       0.9066417 1.1991761 1.7418458 0.88947874
000360 ed d1 84 3e cd 08 3e 3f 66 50 d1 3e 49 7e b3 3f
       0.2594141 0.7423218 0.40881652 1.4022914
000370 20 88 ba 3d e7 39 53 3f 22 cb 26 3f 39 14 99 3f
       0.09107995 0.82510227 0.65153706 1.1959296
000380 1a 83 4c 3f 0a a1 c1 3f f0 78 11 bd e6 4c 0a 40
       0.79887545 1.512727 -0.035515726 2.1609435
000390 91 23 3b 3f 8d dc 99 3f e3 2e 60 3f 77 4f 1f 40
       0.73101145 1.2020432 0.87571543 2.4892251
0003a0 78 ca 8a bd 2f c9 1a 3f c7 ed 15 40 14 28 2f 3f
       -0.06776899 0.6046323 2.3426378 0.6842053
0003b0 74 3c c2 3f 03 31 0a 3f 8c 44 1d 3f 6c c0 e2 3f
       1.5174699 0.53981036 0.6143272 1.7714972
0003c0 ba 19 08 3d 0b 7a 02 40 7d c9 cf 3f c3 7d 2a 40
       0.03322766 2.038699 1.6233364 2.663926
0003d0 41 da 04 3f 61 d9 58 3f d1 3a de 3e 78 37 0f 3f
       0.5189553 0.84706694 0.43404248 0.55944014
0003e0 1a 2a 7d 3e 9b 0b d5 3f 92 a1 54 3f 58 fd 40 3d
       0.24723092 1.6644167 0.83059037 0.047116607
0003f0 4b 71 b4 3e 58 fa 32 3f 9f d0 8c 3f 0b 1b 64 3f
       0.35242686 0.69913244 1.1001166 0.89103764

lstm.weight_hh_l0 f4 [256, 64]
000000 2d d4 8f be 30 aa 03 bd cd f4 9f bd e0 10 8c bd
       -0.28091565 -0.032144725 -0.07810364 -0.06839156
000010 92 75 e5 bd 92 60 82 3e a9 65 3e 3e 16 e3 db bd
       -0.112040654 0.25464302 0.18593468 -0.107366726
000020 0a a3 97 bd f6 7c 1a 3e 0b 18 36 bc 3b c4 8f bd
       -0.07404144 0.15086731 -0.011114131 -0.0701985
000030 c1 4a 64 3e 5e 30 ce be 55 ab fe bc 7c 1f 56 bd
       0.22294141 -0.40271276 -0.031087557 -0.05227612
000040 d7 0e 3a 3d 60 26 1a bf de 0b a5 3d cf 67 97 3e
       0.04542431 -0.60214806 0.08058904 0.29571387
000050 4c 5d 18 be 9a 71 3a 3d 60 9b 8c bd 8c 2d dc bd
       -0.1487934 0.045518495 -0.06865573 -0.10750875
000060 b4 b8 11 3c b3 fc 48 3a 75 5f 3e 3c 4f ec a5 3d
       0.008894134 0.00076670496 0.011619438 0.08101713
000070 c5 29 02 bd 11 ab 07 3b bd 84 89 3e f9 c7 52 be
       -0.031778116 0.0020701329 0.26859084 -0.20584096
000080 3a d7 25 be 16 8e ab 3c 1e d5 cb 3d fc 0a ba 3d
       -0.16195384 0.020941775 0.09952758 0.09084126
000090 6e 3f cc 3d e6 2f bf bd 7c fd 23 be 3a 92 1c bd
       0.09973036 -0.09335308 -0.16014665 -0.03822539
0000a0 71 17 61 3e d7 29 6a be 5b 6e 17 3e 78 01 d2 3c
       0.21981598 -0.22867523 0.14788191 0.025635466
0000b0 1a 86 4b 3e 47 53 8b be 1d 2f b6 3e ab 26 08 be
       0.19875374 -0.27211973 0.3558282 -0.13296
0000c0 19 94 95 3e fd 18 24 3d 84 bb 49 3e dc e7 ee 3c
       0.29214552 0.040062893 0.19700438 0.029163294
0000d0 77 3c 14 be 38 4a 9b 3e 49 2a 5d bc 25 50 94 3c
       -0.1447619 0.30330062 -0.013498851 0.018104622
0000e0 39 93 93 3c e9 5b 72 3d 9b 52 8c 3c 2c 16 5f 3d
       0.018014537 0.059169684 0.017129233 0.054464504
0000f0 ff 10 bc 3e fb 01 1d 3e 26 a1 15 3d af 3c 28 3d
       0.36731717 0.15332787 0.036530636 0.041073497
000100 7e 23 a3 bd 1b 0c 31 3e 5f eb cc 3d 48 df 4c 3e
       -0.07965754 0.17289774 0.10005831 0.2000705
000110 c1 0c c4 bd b1 db c7 3c 43 3f 85 be f2 ed 95 3d
       -0.09572745 0.02439675 -0.26024827 0.07320775
000120 5e 68 eb 3e 53 ca c0 bd 4f d0 3b 3e 0a 8a dd 3d
       0.45978063 -0.0941359 0.18341182 0.108173445
000130 12 24 9b 3d f5 74 52 3d 23 5f 27 bd 6a 13 dd 3d
       0.07575239 0.05138107 -0.040862214 0.107947186
000140 29 59 ad bd 11 a5 a8 ba ba 8b bd bd 27 f7 98 3b
       -0.084642716 -0.0012866576 -0.09255166 0.0046681347
000150 ab 8f 06 be 44 1a 6c bd 7c e1 af bd d9 95 07 3d
       -0.13140742 -0.057642236 -0.085879296 0.03310189
000160 06 8b da bd 35 d6 23 3d 7b 11 6d 3e 2d c5 ad 3d
       -0.10671048 0.039999206 0.231512 0.08484874
000170 bd d6 ea bd 37 f6 bb 3b 08 88 96 3e 48 30 24 3d
       -0.11466739 0.005736138 0.2940066 0.040085107
000180 33 86 cc bd ef ab 34 be 44 9f 25 3e a7 e0 cf bc
       -0.09986534 -0.17643712 0.16174036 -0.025375677
000190 ae ad 99 3d 4f 23 28 3e 5f 8b 08 3f e6 52 b5 3c
       0.0750383 0.16419719 0.53337663 0.022134256
0001a0 04 b1 08 bf 62 dc db 3d 33 0d 51 ba 1b 81 fa 3d
       -0.53395104 0.10735394 -0.0007974684 0.12231656
0001b0 87 2a 9f be bd ab 2e 3c 8b 19 44 bd 27 79 c9 bd
       -0.31087133 0.010661063 -0.047875922 -0.09837561
0001c0 98 b5 cd 3d d4 8b 66 bc ed 72 1e 3e a5 08 e2 3d
       0.10044402 -0.014071424 0.15473528 0.11036805
0001d0 bf a0 52 be 07 c4 70 3b a9 d2 94 be 04 36 56 bd
       -0.20569132 0.0036737935 -0.2906697 -0.052297607
0001e0 a0 fe aa bd 59 5d a5 3e 0c d4 bf 3d ae 7e 5e 3d
       -0.08349347 0.3229778 0.093666166 0.05432003
0001f0 1e 70 b8 3e d1 a1 82 be e2 e6 01 be 82 c2 99 bd
       0.3602304 -0.2551408 -0.12685731 -0.075078025
000200 de 6f 9d 3d af c2 d6 bb 98 22 4e be 60 b2 49 3e
       0.076873526 -0.00655397 -0.20130384 0.19696951
000210 86 0f fc 3d 32 dd 72 3e a6 05 35 3e 57 4d 8f bc
       0.12307648 0.23717192 0.17677936 -0.017492933
000220 77 f8 29 3e e4 73 a2 3d e1 81 20 bd 57 42 2d be
       0.16598688 0.07932261 -0.039186362 -0.16919838
000230 9f 4c 11 3e 0a 69 4a be 71 25 cb 3d 18 66 4e 3d
       0.14189385 -0.19766632 0.09919251 0.050390333
000240 a0 6e 07 be 12 f0 a7 bd 98 26 8f bd a0 cd 29 3c
       -0.13225794 -0.08200087 -0.06989783 0.010363966
000250 46 68 42 bd b1 c7 78 be 39 67 10 3e 8f 81 d8 bd
       -0.047462724 -0.24294926 0.14101876 -0.10571586
000260 7e 2c f2 3d 5c d5 7d be 92 6e 16 3e 3c fb d3 3d
       0.118248925 -0.24788421 0.14690617 0.103506535
000270 aa 79 0c 3e fe bf 85 be ab 02 78 3d 3f d8 04 be
       0.13718286 -0.2612304 0.06054942 -0.12973116
000280 aa 5b c1 be fa f8 69 3e f1 e5 26 3c 6c b1 06 3e
       -0.37765247 0.22848883 0.010186658 0.13153619
000290 9b c3 c5 3e 4a cd bf bd a7 5a 2c be db 40 b7 3d
       0.38625798 -0.09365328 -0.16831456 0.08947917
0002a0 9a 05 25 be 00 ef 35 be 6a c5 65 3e c4 bc 0d 3e
       -0.16115418 -0.17766953 0.22438589 0.1384154
0002b0 f4 27 5b 3e 80 9f 4a bd 4d 3d 07 3e 9e c2 8c be
       0.2140196 -0.049468517 0.13206978 -0.2749223
0002c0 ff 8f 70 3e d2 4e d9 3d bd 1e 21 3d 6a 9b ea 3d
       0.2349243 0.10610737 0.039335955 0.11455424
0002d0 b0 a7 58 bd 8e 91 2f 3e 69 1b 93 bc aa 36 b7 3d
       -0.052894294 0.17145368 -0.017957406 0.08945973
0002e0 c8 28 93 3e f2 1c f2 bd 2d 9f 9f 3e d1 8b d8 3d
       0.2874205 -0.11821927 0.3117613 0.10573543
0002f0 2f 1f bb 3c 9a d2 2f 3d e4 e5 7f bd 9c c1 28 3e
       0.022842018 0.042925455 -0.0624751 0.16480106
000300 87 36 40 be 3c 00 fe 3d d0 c3 db 3b 78 e7 0c 3f
       -0.187708 0.124023885 0.0067066923 0.55040693
000310 04 ab 54 bd ed 8e 48 be a9 46 87 3e 95 08 ff 3d
       -0.051920906 -0.19585772 0.26421097 0.12452809
000320 44 78 19 3f 7a 5c e9 bd 6f 3f 3e be 23 6f ad 3d
       0.59949136 -0.11394592 -0.18578885 0.08468463
000330 a8 21 a2 3e 58 f3 86 bd 47 4e 94 3d aa 6a 5c 3d
       0.31666303 -0.06589383 0.07241493 0.05381266
000340 4c c1 97 be 70 f5 5c 3d 8f 49 53 3d 03 bd 1c 3e
       -0.2963966 0.053945005 0.051583823 0.15306477
000350 5c 38 07 be 45 dc 01 be cf a7 3e 3e 62 84 79 3e
       -0.13205093 -0.12681682 0.18618701 0.24366906
000360 1b 46 87 be 37 d8 d4 3d 87 16 23 bd c7 d1 8e 3e
       -0.26420674 0.10392802 -0.039816406 0.27894422
000370 5b bd f0 3d 37 d0 42 3e 25 ec ac bd 67 eb ad bc
       0.11754867 0.1902474 -0.084434785 -0.021230413
000380 97 b2 c1 be 7d 93 d8 bc 13 5c ad bc a5 15 c5 bd
       -0.37831566 -0.026437515 -0.021162068 -0.09623269
000390 1d 50 06 3f 4c 3c 41 be fb b9 d3 bc 20 67 52 be
       0.52465993 -0.18870658 -0.025845518 -0.20547152
0003a0 e8 92 a2 3d 82 bf a4 bd f9 27 27 be 60 65 55 3e
       0.079381764 -0.0804434 -0.16323842 0.20839453
0003b0 0b 8a e6 bc 0c 8a 62 3d bf b2 f8 3d aa 20 aa 3d
       -0.028141996 0.055307433 0.12143468 0.083070114
0003c0 e5 ec ab bd 91 ff d7 bd 2b 5a c6 bd 33 f1 98 3c
       -0.083947934 -0.10546792 -0.09685167 0.0186697
0003d0 5d 09 3f 3d 24 44 c4 3d d7 ef c9 be 4e 10 ce 3d
       0.04663979 0.09583309 -0.39440796 0.100617036
0003e0 94 03 94 be 9e 3f ff 3d c9 1b cc 3e 5f 62 75 3e
       -0.2890898 0.12463306 0.39864948 0.23963307
0003f0 8a 80 07 be 18 c5 02 3e 39 85 ee 3c d6 fd e8 bc
       -0.13232628 0.12770498 0.02911626 -0.02844135

lstm.bias_ih_l0 f4 [256]
000000 7e 5d db 3c 29 77 93 3d fd 61 ca bd 65 78 1b 3e
       0.026777979 0.07200462 -0.09881971 0.15182646
000010 92 44 0f 3e f6 ec 95 3d f1 85 5f bd 8c a8 24 bd
       0.13991001 0.07320587 -0.054571096 -0.0401998
000020 2c bb d5 3d 9b 34 63 3e 6f 53 bb bd d2 6f 81 3e
       0.10436091 0.22188036 -0.09146773 0.25280625
000030 1d d3 d7 3b c2 ea b1 bd 79 77 05 3e 07 de 51 bc
       0.006586446 -0.086873546 0.13033856 -0.012809283
000040 05 bf 08 bd 4d af e4 bd bd f2 37 bc c1 48 f9 3c
       -0.033385295 -0.111662485 -0.011227307 0.0304302
000050 b3 75 46 3e 6a fc 7e 3e b2 9d a1 3e a0 39 91 be
       0.19380836 0.24900976 0.31565624 -0.28364277
000060 d6 ba 82 3b e9 9c 1e 3e 19 62 ee 3e 73 36 b2 bd
       0.0039895577 0.15489544 0.46559218 -0.087017916
000070 19 30 02 3e 2b 22 bc 3d ee 50 43 3d 89 7e 65 3e
       0.1271366 0.091862045 0.047684602 0.2241155
000080 fb 27 38 be f3 7e 96 be f1 62 50 3e 05 28 a2 bd
       -0.17984001 -0.2939373 0.20350243 -0.07917789
000090 09 a2 3d be be dd 2b 3e b9 12 07 3e 25 c8 51 3e
       -0.18518843 0.16783807 0.13190736 0.20486505
0000a0 d6 94 9a 3c a4 77 5e 3e 03 fd d0 bc 7f e4 4b 3e
       0.018869799 0.21725327 -0.02551127 0.19911383
0000b0 ce 7c 32 3c 4a c6 d0 3e e3 8d 39 3e e6 8f 9d 3e
       0.010894014 0.40776283 0.18120532 0.30773848
0000c0 df 7f 82 bd 8d f8 46 be b8 c8 43 3e 3f c0 e2 3d
       -0.06372046 -0.19430752 0.19119537 0.11071824
0000d0 a8 61 89 bd be c5 4d be 00 8f 74 3e b5 42 2b 3e
       -0.067080796 -0.20094964 0.23882675 0.16724665
0000e0 8a 02 d2 3c ec 60 7b 3e ef b3 83 bc 58 d5 c6 bc
       0.025635976 0.24548692 -0.01607701 -0.024271652
0000f0 72 00 1e be 95 17 ab 3d f3 cc ad 3d d2 01 2c 3e
       -0.15429857 0.08354107 0.084863566 0.1679757
000100 55 e5 84 bc 62 14 50 be e3 98 1e be 62 4b fd 3d
       -0.016222635 -0.20320275 -0.15488009 0.12367894
000110 9c d9 ac 3c 20 44 44 3e be 44 14 3b 8d 81 49 3d
       0.021099858 0.19166613 0.0022623981 0.049195815
000120 df e0 25 3e 2e 93 55 3d 25 b9 2a be 92 83 97 3d
       0.16199063 0.052142315 -0.1667219 0.07398142
000130 5a b8 87 3d ff a8 1b be 18 db 80 3d 09 91 e4 3d
       0.06626959 -0.15201186 0.06291789 0.11160476
000140 31 91 35 3e f2 b5 42 3e 35 53 35 3d a3 99 f9 3d
       0.17731167 0.19014719 0.044268806 0.12187507
000150 4a c2 96 be 36 24 27 3d 28 05 66 3e d7 01 17 3d
       -0.29445106 0.040806018 0.22462904 0.03686699
000160 0a 46 3e 3e 1c f3 06 be b2 e4 a0 be 7f d2 0e be
       0.18581405 -0.13178676 -0.3142448 -0.13947485
000170 3e a3 f4 bd e5 a4 a8 ba 25 0f f7 bd 0e 0e 70 3e
       -0.119451985 -0.0012866525 -0.120634355 0.23442861
000180 d1 c4 f2 bc ee ae 41 be 29 ab 0c 3e 9f 99 ad bd
       -0.029634865 -0.18914387 0.13737167 -0.084765665
000190 93 35 06 be c0 42 29 be 2c 1c 63 3d 7f 11 36 3e
       -0.13106374 -0.1652937 0.05544679 0.17780112
0001a0 93 0a 83 3e d0 24 9c be fb 6f 6f be ff 34 34 bd
       0.25594005 -0.30496836 -0.23382561 -0.043995854
0001b0 d8 53 46 3e 93 8b ab 3d 49 f6 b1 bd 10 c8 1a be
       0.19367921 0.08376231 -0.08689553 -0.1511538
0001c0 b5 3d af 3d a7 0f a1 3d 3c c0 f6 3d 94 01 23 3e
       0.085566916 0.078643136 0.120483845 0.15918571
0001d0 62 62 02 be 51 17 37 be d4 50 33 3e f2 b3 75 3c
       -0.12732843 -0.17879988 0.17511302 0.014996516
0001e0 e6 53 55 3e 43 93 02 3d 40 55 8d 3d ee c0 29 be
       0.20832786 0.03187872 0.06901026 -0.16577503
0001f0 58 c1 ba bd 1e ae cb 3d 7f 48 28 bc 83 1b d4 3d
       -0.09118909 0.099453196 -0.010271191 0.1035681
000200 76 0c 0b be 9c ae 54 be 8d 60 69 be 81 6e 8c 3e
       -0.13578972 -0.20769733 -0.22790737 0.27428058
000210 56 d5 31 be 50 f9 45 be 11 f3 80 bd b7 c5 44 bc
       -0.17366537 -0.19333386 -0.06296361 -0.0120100295
000220 1d 38 48 3e 81 67 8b 3e 13 3e 42 bd 31 5d 89 3e
       0.19552656 0.27227405 -0.04742248 0.26828912
000230 62 3b 92 3d 6a ed fa bd 25 65 56 bd b1 d1 51 be
       0.071402326 -0.122523144 -0.052342553 -0.20490147
000240 e0 f0 c3 bc ca 74 19 be f7 0d 21 3e e3 50 c2 bd
       -0.02391857 -0.14985958 0.15727983 -0.09488084
000250 e8 c3 15 3e 29 d2 3b 3e 57 78 3b 3e 89 61 1f 3e
       0.14625514 0.18341888 0.18307625 0.1556455
000260 ad 5d 04 3e a6 b9 a2 3d d5 b6 5e be 5b b3 26 3c
       0.1292636 0.07945566 -0.21749432 0.010174598
000270 9f 2f fa 3c 07 57 d3 3d e1 95 de bc 83 f6 19 3e
       0.030540286 0.103193335 -0.027171077 0.15035443
000280 b8 2a 58 be a7 eb cc 3c 2b 6e 30 3e 42 c4 ad bd
       -0.21110046 0.025014712 0.17229526 -0.08484699
000290 b9 be 2f 3e 2c 25 47 be b9 1f 09 3e 38 e6 0f 3e
       0.17162599 -0.19447774 0.13391007 0.14052665
0002a0 41 e1 a8 be ee c6 6c 3d 5b d5 51 3e d4 b9 8a be
       -0.32984355 0.0578069 0.20491545 -0.270949
0002b0 aa 44 4c be b6 cc 42 be 00 70 d6 bd 7c 44 93 bb
       -0.19948068 -0.19023404 -0.10470581 -0.004494248
0002c0 b0 5d d1 3d c3 b0 05 bd 2e 63 78 be da b2 ae be
       0.102229476 -0.032639276 -0.24256584 -0.34120828
0002d0 e0 9e 76 be 25 e6 d0 bd cd ff cf bd c6 25 54 be
       -0.24084044 -0.102001466 -0.10156212 -0.20717534
0002e0 0c af 89 bb 63 a0 a0 3d 29 43 71 3d 53 fd d7 bd
       -0.0042017754 0.07843091 0.05890194 -0.10546365
0002f0 46 22 08 3e a0 68 0d 3e b9 39 bf bd b3 bb 3c 3d
       0.13294324 0.13809443 -0.093371816 0.04607744
000300 a8 ce ea 3d 3d 29 20 3f 0c 30 25 be 3d 52 f0 bd
       0.11465198 0.62562925 -0.1613161 -0.11734436
000310 df 44 6e bd 59 52 8e 3d bd b2 04 bd f9 f7 87 3d
       -0.05817115 0.069493 -0.03239702 0.06639094
000320 0b bd 04 be 18 cb 92 3e 14 9a 6c 3d 4e 42 36 bd
       -0.12962739 0.28670573 0.057764128 -0.044496827
000330 d1 f3 2e be 2c f9 ae 3e 9d 3e ea 3d d2 e1 ad 3d
       -0.17085196 0.34174478 0.11437724 0.084903374
000340 1a 18 43 be 6c 66 0e 3e 2b 7a aa 3d f8 4a 26 3c
       -0.19052163 0.13906258 0.08324083 0.01014971
000350 6d 03 b4 3e 95 41 63 3d 89 33 3e bd ca 0d e8 bd
       0.35158864 0.055482466 -0.046435867 -0.11330755
000360 dd 39 85 3e 12 50 8d 3d 0e 87 8f 3e 6d fb a1 3d
       0.2602071 0.06900038 0.28032726 0.07909284
000370 5a c7 c0 bc 9e b1 bd 3e e6 25 bb 3b 1a f3 fa 3d
       -0.023532558 0.37049574 0.005711305 0.12253399
000380 1b 1b 09 3e ae 5b 02 3d 0c cf 12 3e 19 b5 f1 bd
       0.13389246 0.031825714 0.14336795 -0.1180212
000390 d5 3d 42 3e dc 6e 07 bb 22 b7 06 3e 4c b9 5c bd
       0.189689 -0.0020665443 0.13155797 -0.05388765
0003a0 aa 80 d3 bd 2f 82 a3 3e 1e 66 cf 3d 0c f1 de 3d
       -0.10327275 0.3193526 0.10126899 0.1088582
0003b0 37 ea 76 be d3 d7 88 3e a6 7a bc 3e 5b 70 c5 bd
       -0.24112783 0.2672716 0.36812323 -0.09640571
0003c0 cd 10 4e 3e 9a f8 eb bd c7 e7 50 be c1 04 60 be
       0.20123596 -0.11522026 -0.20400916 -0.21876813
0003d0 c0 16 cf 3e b9 19 a5 3e a9 2b 46 3e 5a d5 54 3e
       0.40447044 0.32246187 0.19352593 0.20784512
0003e0 b8 d3 ae 3d b4 f0 4f 3a 63 2f 7c 3e 6a ab 01 bd
       0.08536476 0.0007932291 0.24627452 -0.031657614
0003f0 35 07 36 3e 32 aa 8d 3e 75 7a 19 3e 62 22 8d bd
       0.17776187 0.2766891 0.1498812 -0.068913236

lstm.bias_hh_l0 f4 [256]
000000 86 d0 fb bc 9f 9a ea 3c fb 58 af 3c db 61 01 3e
       -0.03073908 0.028638182 0.021404734 0.12634985
000010 77 ce 33 3e 62 ee 86 3e 96 4c 47 be b0 76 af bd
       0.17559229 0.26353747 -0.19462809 -0.0856756
000020 65 f7 00 3e 70 b6 40 3e a6 15 ac bd c8 40 86 3e
       0.12594374 0.18819594 -0.084025666 0.262213
000030 2f 1c 3c 3d e5 ae 47 bd 6a e6 9b 3e 1b 19 0a 3e
       0.045925315 -0.048750777 0.3044923 0.1348614
000040 e7 f6 d4 3c 91 e6 ea 3b 5a b5 f1 3c 20 97 47 3e
       0.025996638 0.007168599 0.02950542 0.19491243
000050 2c 0b 26 3e 9f 5b 85 3e d6 a7 a0 3e fd fc 40 be
       0.16215199 0.26046464 0.3137805 -0.18846507
000060 52 64 2d 3d aa d8 19 3e 94 d7 82 3e b2 78 2c bb
       0.042332 0.15024057 0.25555098 -0.0026317057
000070 d3 e9 bd 3d 2b 4f bd 3d 7a ec e3 3b 6d f8 ad 3e
       0.09273114 0.09243616 0.0069556804 0.33978596
000080 c6 25 03 be e4 c1 fb bd a6 9e 86 3e 3d f1 f4 bd
       -0.12807378 -0.12292841 0.26292914 -0.11960075
000090 5d 62 41 bd 0a b7 a7 3d 5a 8e 59 3d f9 5c a4 3d
       -0.047212947 0.08189209 0.053114273 0.080255456
0000a0 91 51 06 be 58 2c 6d 3e 22 f4 c5 3c 00 e9 88 3e
       -0.13117053 0.23161447 0.024164263 0.26740265
0000b0 fd 52 20 3e 2b 3d 60 3e 40 9f 30 3e 55 58 82 3e
       0.15656658 0.21898334 0.17248249 0.25458017
0000c0 64 a7 a3 bd 8e 46 54 bd 1f 6c 25 3e 87 45 9a 3d
       -0.079909116 -0.0518251 0.16154526 0.075327925
0000d0 3c ab 55 bd 05 c9 21 bd f5 20 86 3e bd 96 1d 3e
       -0.052165255 -0.039498348 0.2619702 0.15389533
0000e0 58 dd d7 bd 0c dd 2b 3e 80 ae 16 3d 18 a0 24 bd
       -0.10540265 0.16783541 0.03678751 -0.04019174
0000f0 46 5b f8 bd 33 64 a7 3d 8b 0d 3d 3d 75 01 14 3d
       -0.12126784 0.08173408 0.046155494 0.036134202
000100 38 3a 1a be 78 2b 7c be 50 ca 1f bd a1 07 60 3e
       -0.15061271 -0.24625957 -0.0390113 0.2187791
000110 72 c5 b0 3d 1d 07 41 3e db 61 c0 bd cc 03 b4 3d
       0.0863141 0.1885037 -0.093936644 0.08789787
000120 a2 55 53 3e 99 13 c5 bb ec 13 46 be 01 89 b6 3d
       0.20638135 -0.006014299 -0.19343537 0.0891285
000130 41 46 87 bd b1 04 eb bd 01 48 e5 3d b5 f1 c7 bd
       -0.06605197 -0.11475504 0.11195374 -0.09762899
000140 17 45 92 3d 43 20 18 3e 15 2d 06 3d 81 ff e2 3d
       0.07142084 0.14856057 0.032757837 0.1108389
000150 e3 5e 9c be af c3 21 3d 66 84 88 3e f4 24 c5 3c
       -0.30541143 0.03949326 0.26663512 0.024065472
000160 18 8d 33 3d 95 30 b1 bd b6 6c 63 be e0 64 08 be
       0.04383573 -0.086518444 -0.22209439 -0.13319731
000170 3b dc e9 bc d7 32 e4 3b 07 4a 7b be ea 55 ae 3d
       -0.028547397 0.0069640684 -0.24539958 0.085124806
000180 dc dc f9 bd 1d a4 45 bc 58 74 28 bc db 76 86 3d
       -0.12200329 -0.012063053 -0.010281645 0.06565639
000190 de 39 2d be e4 69 aa 3d 52 ee 00 be f0 58 f6 3c
       -0.16916606 0.08320978 -0.12590912 0.030071706
0001a0 27 11 9a 3e 86 a7 e9 bd 84 b1 0c be 26 dc 17 be
       0.3009121 -0.11408906 -0.13739592 -0.14830074
0001b0 86 19 1c 3e 5c aa 14 be e4 50 db bd da dd d5 bd
       0.15244111 -0.14518112 -0.10708788 -0.104427055
0001c0 87 62 c9 bd 20 ea e6 bd 8c f7 a3 3d 9f 5c 95 3e
       -0.09833246 -0.112751245 0.080062 0.29172227
0001d0 dd 9b c8 bd 4a 26 15 be 60 54 7b 3e 94 56 7c bd
       -0.097953536 -0.14565387 0.24543905 -0.061606005
0001e0 f5 c7 1e 3e fa 4a 20 3e 00 64 04 bb f8 10 5a bd
       0.15505965 0.15653601 -0.0020201206 -0.05323884
0001f0 ae 44 38 3c 08 1b 86 3e a5 f7 27 bd 72 0a 10 3e
       0.011246843 0.26192498 -0.041007657 0.14066485
000200 cd f9 64 be ff 0f 81 bd 5d ce 37 be 23 b5 99 3e
       -0.22360916 -0.06301879 -0.17949815 0.3002101
000210 b4 44 fe bd 0f 3d 10 be 67 e3 0c 3e d8 9e 18 3e
       -0.12415448 -0.14085792 0.13758622 0.14904344
000220 54 3e 13 3e 1e 42 88 3e ce 8f 08 3e 8d 24 85 3e
       0.14379245 0.26612943 0.13336107 0.2600445
000230 1a b1 d0 3d 85 ea 8f be 7c 84 30 be 02 b8 80 be
       0.101900294 -0.28108612 -0.17238039 -0.25140387
000240 33 1b c8 bd db e3 a7 be 0d 7a 61 bb 6f 0d f0 bd
       -0.09770813 -0.32791027 -0.0034405023 -0.11721312
000250 4d d8 df 3c e0 35 15 3d 79 56 3e 3e c5 28 db 3d
       0.02732482 0.036428332 0.18587674 0.107011355
000260 2d f0 21 3c 30 9b aa 3d 74 7f 04 bd 5e 5c 40 bd
       0.0098839225 0.08330381 -0.03234811 -0.04696309
000270 bd 2e 28 be 24 8a 05 be 10 18 01 3e e5 9c 41 bc
       -0.16424079 -0.13040978 0.12606835 -0.011817192
000280 23 d2 07 be 14 32 e5 3d 8e f8 4b 3e 60 3f 90 be
       -0.13263755 0.11191192 0.19919035 -0.2817335
000290 6a 99 83 3e f4 4d 83 bc 58 31 b4 3d 18 33 84 3e
       0.25702983 -0.016028382 0.08798474 0.2582023
0002a0 90 47 00 be 4c 7a 26 3e ba 0d a3 3d a3 89 b9 bc
       -0.12527299 0.1625759 0.079616025 -0.022648638
0002b0 57 e4 24 be 5b ea 8f be 10 73 47 be ba b0 89 3d
       -0.1610273 -0.28108487 -0.19477487 0.06723161
0002c0 30 86 49 3e 9a d4 f5 3c 38 a9 b3 be 8f f0 94 be
       0.19680095 0.030008603 -0.3509004 -0.29089782
0002d0 c1 e6 84 be 77 53 0c be 8b c5 30 be 11 31 31 be
       -0.259573 -0.13703714 -0.17262857 -0.17303874
0002e0 7f 80 b6 bd 44 3b 6d 3e eb 4e 93 3e bd 63 56 bc
       -0.089112274 0.2316714 0.28771147 -0.013085303
0002f0 90 15 9f 3b d6 ef 69 bc ad d6 b8 bd 4c 17 e0 bd
       0.0048548654 -0.014278373 -0.09025321 -0.109419435
000300 50 cf 46 3e ab ce 17 3f cc 70 fe bd 99 cd 46 be
       0.19415021 0.59299725 -0.12423858 -0.19414367
000310 00 f9 b4 bd 3f 36 d9 bd 14 0a 67 be ae 1c 86 3e
       -0.088365555 -0.1060605 -0.22562438 0.26193756
000320 b4 7d c1 bd a3 8f c4 3e 21 eb ae bd 35 56 af 3c
       -0.09447804 0.38390836 -0.08540941 0.021403411
000330 ce a3 40 be df e3 6e 3e 53 bb 07 3e c6 25 65 3e
       -0.18812487 0.23329113 0.13255052 0.2237769
000340 53 6d 57 be fb 4e 9f 3e 0c 69 26 3e bf 67 34 3e
       -0.21037798 0.31114945 0.1625101 0.17617701
000350 02 3b a2 3e 24 fc 10 3e 84 ea 6f 3d 48 b9 50 be
       0.31685644 0.14158684 0.05857326 -0.20383179
000360 c4 d1 18 3e 01 fd 29 3e 76 a5 cd 3e 33 d4 3e 3d
       0.14923769 0.1660042 0.401653 0.046589088
000370 da 91 1e 3e 1a 05 b5 3e ba af 53 ba e0 71 3c 3e
       0.15485325 0.35355455 -0.00080751965 0.18402815
000380 99 56 b4 3d 5b c9 21 be 9a 29 0c 3e de 28 0c be
       0.0880558 -0.15799467 0.13687745 -0.13687465
000390 53 bd 80 3e cf 79 89 3d 6f eb 29 3e 0a 7e 15 3b
       0.25144443 0.06712686 0.16593717 0.002281072
0003a0 a5 82 a8 3c 2c 10 c1 3e 77 56 e4 bd 7a 16 36 3e
       0.020570109 0.3770765 -0.11149304 0.17782012
0003b0 25 14 56 bd fd d6 5e 3e fe 71 52 3e 57 09 71 3d
       -0.052265305 0.21761699 0.20551297 0.058846798
0003c0 b7 ea 1e 3e fa d1 db bb 4b 89 14 be dd 91 88 be
       0.15519224 -0.0067083808 -0.14505498 -0.26673785
0003d0 05 a1 c4 3e 53 03 3c 3e e8 9d ef 3d 6c d5 4d 3e
       0.38404098 0.18360643 0.1170004 0.20100945
0003e0 f6 a7 26 bc 93 f7 5d 3d 4c 0d 47 3e 1d 9c cc 3d
       -0.010171881 0.054191183 0.19438666 0.09990714
0003f0 ec 11 25 3e b2 6d a4 3d 1f c1 9c bc 51 d0 89 3d
       0.16120118 0.08028735 -0.019135056 0.06729186

head.weight f4 [24, 64]
000000 21 09 b1 c1 fa f9 b1 c1 38 5c b0 c1 28 d0 b1 41
       -22.129457 -22.247059 -22.045029 22.226639
000010 b3 ae b1 c1 80 3d b2 c1 55 ae b0 c1 bb 3d b1 41
       -22.210302 -22.28003 -22.085123 22.155142
000020 e3 49 b1 41 cc 8b b2 41 c6 ed ae 41 6a 19 b0 41
       22.161077 22.31826 21.8661 22.01241
000030 83 fc b0 c1 0d 59 b1 c1 45 4a b0 c1 3f 4f b0 c1
       -22.123297 -22.168482 -22.036264 -22.038694
000040 48 b4 b1 c1 45 f0 b0 c1 4d 87 b1 41 95 59 b2 c1
       -22.213028 -22.11732 22.191065 -22.293741
000050 e6 b1 b2 41 a8 da b1 41 80 d0 ad 41 3f fd b0 c1
       22.336864 22.231766 21.726807 -22.123655
000060 71 7c b1 41 28 0b b0 41 70 10 b1 c1 d5 9f b1 c1
       22.185762 22.005447 -22.133026 -22.203043
000070 bd d1 b0 c1 37 97 b0 c1 f8 eb b1 41 29 6d b0 41
       -22.102411 -22.073835 22.24022 22.0533
000080 86 a9 b0 c1 3d 6a b0 41 0c 9c b0 41 51 f7 b1 c1
       -22.082775 22.051874 22.076195 -22.24576
000090 8f fc b0 41 4f fb b0 c1 03 ea af 41 61 8c b1 41
       22.12332 -22.12271 21.989264 22.193544
0000a0 f1 3b 87 41 b7 18 b1 41 dd 7d b1 41 b3 d9 b0 c1
       16.904268 22.137068 22.186457 -22.106298
0000b0 47 f2 b0 c1 f5 5c b1 c1 43 b9 b1 c1 cb fa b0 41
       -22.1183 -22.17039 -22.21546 22.122458
0000c0 0c c1 b1 41 19 a6 b1 41 02 6d b1 c1 ff 4e b2 c1
       22.219261 22.206102 -22.178226 -22.288572
0000d0 17 3e b2 c1 54 c7 b0 c1 bd 9e b0 c1 7f c4 b2 c1
       -22.280317 -22.097328 -22.077509 -22.345945
0000e0 71 83 b0 41 ad 6f b1 41 a8 da b0 41 98 3e b1 c1
       22.06418 22.17953 22.106766 -22.155563
0000f0 14 68 b2 41 e4 7a b0 41 91 4d b0 c1 d6 a2 b0 c1
       22.30082 22.060005 -22.037874 -22.07951
000100 a7 54 b0 c1 39 6f b0 c1 8c e6 b0 c1 be b2 b1 41
       -22.041334 -22.054308 -22.112572 22.212276
000110 47 a3 b1 c1 65 ac b1 c1 0e 37 b1 c1 75 52 b0 41
       -22.204725 -22.209177 -22.151882 22.040262
000120 94 5a b1 41 b9 11 b1 41 4c 5e af 41 95 78 b0 41
       22.169228 22.133654 21.921043 22.058878
000130 5e ac b1 c1 57 11 b2 c1 79 1b b0 c1 5b 15 b1 c1
       -22.209164 -22.258467 -22.013414 -22.135427
000140 ac 2f b1 c1 8a 87 b1 c1 11 7e b1 41 2c d2 b1 c1
       -22.148277 -22.191181 22.186556 -22.227623
000150 fc 37 b1 41 30 40 b0 41 2e b6 ad 41 fc 50 b1 c1
       22.152336 22.031342 21.713955 -22.164543
000160 49 b3 b1 41 34 8e b0 41 e8 38 b2 c1 89 52 b2 c1
       22.212542 22.069435 -22.277786 -22.2903
000170 3b c6 b1 c1 15 e0 b1 c1 cc cf b0 41 0b 82 b1 41
       -22.221792 -22.234415 22.101463 22.188498
000180 12 44 b1 c1 b9 c2 b0 41 83 e9 b0 41 b3 f3 b1 c1
       -22.158237 22.09508 22.11402 -22.243994
000190 05 de af 41 07 e1 af c1 86 de b0 41 3d ed b0 41
       21.983408 -21.984877 22.108654 22.115839
0001a0 81 b3 86 41 3e 16 b1 41 69 32 b1 41 c1 c0 b0 c1
       16.837648 22.13586 22.149614 -22.094118
0001b0 b3 8e b2 c1 fb 2f b1 c1 c7 c2 b0 c1 20 d4 b1 41
       -22.319677 -22.148428 -22.095106 22.228577
0001c0 dc a7 b1 41 1e 36 b1 41 89 c1 b0 c1 cb 76 b0 c1
       22.206963 22.151424 -22.0945 -22.058004
0001d0 ab 37 b1 c1 89 52 b2 c1 ac a7 af c1 d4 7a b2 c1
       -22.152182 -22.2903 -21.956871 -22.309975
0001e0 f9 86 b0 41 aa 09 b1 41 89 a8 b0 41 95 df b1 c1
       22.065905 22.129719 22.082293 -22.23417
0001f0 86 24 b1 41 39 4d b0 41 04 dc b0 c1 2d 0a b0 c1
       22.142834 22.037706 -22.10743 -22.004969
000200 d3 f6 b1 c1 54 5b b1 c1 7f c6 b0 c1 17 7c b0 41
       -22.24552 -22.169594 -22.096922 22.06059
000210 7d 79 b0 c1 0d 60 b1 c1 cf 6e b1 c1 6d f1 b0 41
       -22.05932 -22.1719 -22.179106 22.117884
000220 97 9a b0 41 1c e2 b0 41 30 01 af 41 a3 4f b0 41
       22.075483 22.110405 21.87558 22.038885
000230 8b 27 b0 c1 72 8e b1 c1 b2 1f b1 c1 8b 2c b0 c1
       -22.019308 -22.194553 -22.140476 -22.02175
000240 f0 01 b1 c1 44 1b b1 c1 42 63 b1 41 9c dc b1 c1
       -22.125946 -22.138313 22.173466 -22.23272
000250 e2 5e b0 41 af fe af 41 4e c1 ac 41 79 26 b0 c1
       22.04633 21.999357 21.594387 -22.018785
000260 0a 19 b1 41 97 30 b0 41 11 0b b2 c1 86 62 b1 c1
       22.137226 22.023726 -22.255404 -22.173107
000270 98 87 b1 c1 73 04 b1 c1 5a c5 b1 41 e9 b9 af 41
       -22.191208 -22.127172 22.221363 21.965776
000280 cd 61 b0 c1 83 ad b0 41 61 3b b1 41 6e d7 b1 c1
       -22.047754 22.084723 22.153994 -22.23019
000290 6b 4d b0 41 55 04 b1 c1 6c 98 b0 41 9f 5e b0 41
       22.037802 -22.127115 22.074425 22.046202
0002a0 f5 47 86 41 14 72 b1 41 f9 01 b1 41 0e da b0 c1
       16.785135 22.180702 22.125963 -22.106472
0002b0 ab fa b1 c1 eb ee b0 c1 cd 2a b1 c1 d1 60 b0 41
       -22.247396 -22.11666 -22.145899 22.047274
0002c0 16 9e b1 41 98 30 b2 41 90 c8 b1 c1 7d 2b b1 c1
       22.20219 22.273727 -22.22293 -22.146235
0002d0 fd b4 b0 c1 ff 84 b1 c1 18 63 b0 c1 48 f9 b1 c1
       -22.088373 -22.18994 -22.048386 -22.24672
0002e0 27 b9 b1 41 8b bb b0 41 d9 58 b1 41 06 ee b1 c1
       22.215406 22.091574 22.168383 -22.241222
0002f0 c3 a3 b1 41 8d c7 b0 41 c3 74 b0 c1 ae 5e b0 c1
       22.204962 22.097437 -22.057013 -22.04623
000300 65 99 b1 c1 a4 4e b1 c1 97 18 b1 c1 d3 24 b0 41
       -22.1999 -22.163399 -22.137007 22.01798
000310 33 86 b0 c1 75 3c b0 c1 20 c3 b1 c1 2c fb b0 41
       -22.065527 -22.02952 -22.220276 22.122643
000320 26 60 b1 41 29 68 b0 41 92 e4 ae 41 10 24 b0 41
       22.171947 22.05086 21.861607 22.017609
000330 fc a9 b0 c1 a7 c2 b1 c1 81 86 b0 c1 6f bd af c1
       -22.083 -22.220045 -22.065676 -21.967497
000340 8c c1 af c1 76 eb b0 c1 0e 1e b1 41 95 c6 b1 c1
       -21.969505 -22.114971 22.139675 -22.221964
000350 d3 ad b1 41 b5 d1 b0 41 74 ab ad 41 8c 52 b1 c1
       22.209875 22.102396 21.708717 -22.165306
000360 7b 0e b1 41 a6 45 b1 41 e6 bd b0 c1 a8 ce b1 c1
       22.13207 22.159008 -22.092724 -22.225906
000370 c2 50 b0 c1 f2 d2 af c1 21 a8 b1 41 42 26 b0 41
       -22.039433 -21.978 22.207094 22.01868
000380 e6 b1 af c1 16 e2 b1 41 d6 bd b0 41 12 e7 b0 c1
       -21.961864 22.235394 22.092693 -22.112827
000390 32 e1 b0 41 b1 01 b1 c1 4f f0 b0 41 0d e1 b1 41
       22.109959 -22.125826 22.117338 22.234888
0003a0 30 81 85 41 d8 41 b1 41 87 15 b1 41 f3 c8 b1 c1
       16.68808 22.15715 22.135511 -22.22312
0003b0 96 68 b0 c1 0c 11 b1 c1 83 52 b0 c1 cb f3 b0 41
       -22.051067 -22.133324 -22.040289 22.11904
0003c0 3c 7e b0 41 a7 9c b0 41 87 f4 b0 c1 08 30 b1 c1
       22.061638 22.07649 -22.119398 -22.148453
0003d0 6e 8e b1 c1 45 6a b1 c1 69 7a af c1 b2 3c b1 c1
       -22.194546 -22.17689 -21.93477 -22.154636
0003e0 66 57 b1 41 42 95 b1 41 85 d4 b0 41 44 cd b1 c1
       22.167675 22.19788 22.10377 -22.225227
0003f0 23 86 b1 41 5f 5e b0 41 6c 6c b1 c1 89 f8 b0 c1
       22.190496 22.04608 -22.17794 -22.121355

head.bias f4 [24]
000000 8d d6 ae 41 05 b0 ae 41 d1 2e af 41 5f 74 ae 41
       21.854761 21.835947 21.89786 21.806822
000010 4a 19 af 41 f1 26 ae 41 b5 31 ae 41 c4 4d af 41
       21.887348 21.769014 21.774271 21.912971
000020 3a 4f af 41 6f 69 ae 41 28 93 ae 41 54 57 ae 41
       21.913685 21.801481 21.821854 21.79264
000030 7e 43 ae 41 d0 0e af 41 9b d2 af 41 bc 15 af 41
       21.782955 21.882233 21.977835 21.885612
000040 cb f4 ae 41 f9 66 ae 41 25 74 af 41 46 d4 ae 41
       21.869528 21.80028 21.931711 21.85365
000050 ab 88 ae 41 c2 ce af 41 13 10 ae 41 cb f9 ae 41
       21.816732 21.975956 21.757849 21.87197
