artifacts/lstm/L2_best.pt (torch, 210593 bytes, 10 tensors)

lstm.weight_ih_l0 f4 [256, 1]
0	0x3f074666	0.52841794
1	0x3e12a199	0.14319457
2	0xbf1b6edf	-0.6071605
3	0x3e73ca63	0.23807673
4	0x3eef4acc	0.46736753
5	0x3dbaf756	0.09129207
6	0x3f1f6d6c	0.6227634
7	0x3e1bc165	0.15210493
8	0xbde2464e	-0.11048566
9	0x3ea5300c	0.3226322
10	0x3da04edd	0.07827542
11	0x3ef2a8aa	0.47394305
12	0x3f12bf10	0.5732279
13	0x3e6f2ee1	0.23357727
14	0xbe9f8161	-0.31153396
15	0xbe87ed63	-0.265483
16	0x3dc33c94	0.09533039
17	0x3f22ad33	0.6354553
18	0xbe8015db	-0.25016674
19	0x3f194c8f	0.59882444
20	0x3dd6ad89	0.10482318
21	0x3e0a7597	0.1352142
22	0x3e8b6231	0.27223352
23	0x3ea7522a	0.32679874
24	0x3f16fd3a	0.58980143
25	0xbe2a01a6	-0.16602191
26	0x3d83de7c	0.0643892
27	0x3e338545	0.17531307
28	0x3cf87522	0.03032929
29	0xbef1587c	-0.4713782
30	0x3eb85524	0.36002457
31	0x3ee5a961	0.44855788
32	0xbda7a3c1	-0.081855305
33	0x3e8a53a8	0.2701695
34	0xbf1ce2e1	-0.6128369
35	0x3e0a9b6b	0.1353585
36	0xbf76ec19	-0.96454006
37	0x3e15a6a8	0.14614356
38	0xbf99bb1f	-1.201023
39	0x3ec20c7a	0.37900144
40	0x3c15e1c5	0.009148066
41	0x3ddd1bfa	0.10796352
42	0xbcd83c53	-0.026395952
43	0x3eb62589	0.35575512
44	0xbf4b1870	-0.79334164
45	0xbea24ea5	-0.31700626
46	0x3e1270b0	0.143008
47	0xbcdffc65	-0.02734203
48	0x3f5e2fe4	0.86791825
49	0xbd4bd8ff	-0.04976749
50	0xbe39a16c	-0.18127984
51	0x3f0b45c2	0.54403317
52	0x3dc34acf	0.09535753
53	0x3e9920b0	0.2990775
54	0xbedf117b	-0.43568024
55	0xbea41449	-0.32046726
56	0x3f31bff6	0.69433534
57	0x3e675fc0	0.2259512
58	0x3eab580c	0.33465612
59	0x3e87f91f	0.26557252
60	0xbd483394	-0.048877314
61	0x3f5beb9b	0.8590638
62	0xbe3422f9	-0.17591466
63	0x3e3bbc3d	0.18333526
64	0x3f44a699	0.7681671
65	0x3dd09c52	0.10186066
66	0xbeb41b3f	-0.35177037
67	0x3e85c4b1	0.26126626
68	0x3edb2a96	0.42805928
69	0x3dce6969	0.10078699
70	0x3f2baba9	0.6705881
71	0x3e90360a	0.2816623
72	0xbdf60748	-0.120131075
73	0x3e6a7c10	0.22898889
74	0xbda1b40a	-0.07895668
75	0x3e0cde38	0.13756645
76	0x3eec887f	0.46197888
77	0x3e7b0499	0.24513473
78	0x3d93abaf	0.072104804
79	0x3dd554cf	0.104165666
80	0xbe07905d	-0.13238664
81	0xbd2eb460	-0.042652488
82	0x3cc74345	0.024324069
83	0x3ef280b3	0.47363815
84	0x3e1d714f	0.15375255
85	0x3e569437	0.20954977
86	0x3e011c15	0.12608369
87	0x3e803809	0.2504275
88	0x3f5cb28f	0.8620996
89	0xbeaf2f10	-0.34215593
90	0xbe4ca91d	-0.19986387
91	0x3ced3bae	0.028959122
92	0xbd00d9b6	-0.031457625
93	0xbef129e3	-0.4710227
94	0x3e75394b	0.23947637
95	0x3ecc83b7	0.3994424
96	0x3e08c7cc	0.13357466
97	0x3e1c0252	0.1523526
98	0xbec3f4b1	-0.38272622
99	0x3e24b27d	0.16083713
100	0xbf95dfbe	-1.1708906
101	0x3db24c8b	0.08706006
102	0xbf8b1643	-1.0866169
103	0x3ef2709a	0.47351533
104	0xbde96ba6	-0.113974854
105	0x3de7d5f2	0.11320104
106	0xbd28b9d3	-0.04119284
107	0x3e7be785	0.24600036
108	0xbf1742cf	-0.59086317
109	0x3e766cdb	0.24064963
110	0x3e8616f1	0.26189378
111	0xbdf00082	-0.11718847
112	0x3f0d133b	0.5510747
113	0x3e29d97c	0.1658687
114	0xbb180307	-0.0023195164
115	0x3ec1169a	0.37712556
116	0x3eb9dda2	0.36301905
117	0x3e032dfd	0.12810512
118	0xbd6f0707	-0.05835631
119	0xbe246155	-0.16052754
120	0x3f5f5fc0	0.8725548
121	0x3e60ab4d	0.21940346
122	0x3ec4425c	0.38331878
123	0x3e8cd1e5	0.27503887
124	0x3ebf3c90	0.37350893
125	0x3f3d25f3	0.7388603
126	0xbd87fd12	-0.06640066
127	0xbe17e786	-0.14834413
128	0xbf026cdd	-0.5094736
129	0xbebec4e6	-0.37259597
130	0x3d87c2a4	0.06628922
131	0x3ed5adc4	0.41734135
132	0x3e76f579	0.24117078
133	0xbe812372	-0.25222355
134	0xbef829ff	-0.4846954
135	0xbf0bcc70	-0.5460882
136	0x3e8a7a0b	0.27046236
137	0xbf05ccca	-0.5226561
138	0xbeadd348	-0.33950257
139	0xbee5c1be	-0.44874376
140	0xbece9471	-0.40347627
141	0xbedcdcc3	-0.43137178
142	0x3ec8cede	0.39220327
143	0xbcae293d	-0.021259898
144	0x3d21c96d	0.039498735
145	0xbf29c21c	-0.6631181
146	0x3cd7d36b	0.02634593
147	0xbf01a1a5	-0.50637275
148	0xbf011a1b	-0.5043046
149	0x3e5bfa86	0.21482286
150	0xbe92c4a3	-0.28665647
151	0x3f0d87c7	0.55285305
152	0xbf322de7	-0.6960129
153	0xbf6442c9	-0.89164406
154	0xbf8e454e	-1.11149
155	0x3e99b43d	0.30020323
156	0xbebe7784	-0.37200558
157	0xbe472b02	-0.1945
158	0x3e928049	0.286135
159	0xbeef8357	-0.46779892
160	0x3dcc3656	0.09971301
161	0xbf15e47f	-0.5855178
162	0x3d8d2ecc	0.068936914
163	0xbef89734	-0.4855286
164	0x3ec994d2	0.39371353
165	0xbde2ba24	-0.1107066
166	0x3ec9a95a	0.39387017
167	0xbebed923	-0.37275037
168	0x3ea10366	0.31447905
169	0xbeb7312e	-0.3577971
170	0xbd34f2be	-0.04417681
171	0xbee04b07	-0.4380724
172	0x3c8ec875	0.01742957
173	0xbd93ed59	-0.07223005
174	0x3ef2f1f6	0.47450227
175	0x3e10dd3a	0.14146891
176	0x3ef404cd	0.47659913
177	0xbdabe914	-0.083940655
178	0x3d6ddc86	0.058071636
179	0x3eeb6ffb	0.45983872
180	0x3eaf549d	0.34244242
181	0xbecbe5de	-0.39823812
182	0xbe6a6858	-0.22891366
183	0xbb8d6121	-0.004314557
184	0x3ee8ad34	0.45444643
185	0x3f06485a	0.5245415
186	0xbeded87a	-0.43524534
187	0x3ec3f461	0.38272384
188	0x3e2a2a2b	0.16617648
189	0x3f24a76c	0.64317966
190	0x3f63add7	0.88937134
191	0x3f00986e	0.5023259
192	0x3fa31203	1.2739872
193	0x3d9b22ab	0.07574972
194	0xbeaff443	-0.34366044
195	0x3e8e4c01	0.2779236
196	0x3e51f2c0	0.20502758
197	0x3e848eed	0.25890294
198	0x3fa02469	1.2511111
199	0x3f625234	0.8840668
200	0xbdd13f8d	-0.102171995
201	0x3fa1e1e1	1.2647058
202	0x3e8506d0	0.2598176
203	0x3f7b3f0c	0.98143077
204	0x3fae13cb	1.359979
205	0x3f452cc9	0.7702146
206	0x3e268eb3	0.16265373
207	0x3d999c81	0.07500554
208	0xbf075899	-0.52869564
209	0x3f6fa107	0.93605083
210	0x3da6f160	0.081515074
211	0x3fc4a9d4	1.5364327
212	0x3f39fada	0.72648394
213	0x3e509152	0.20367935
214	0xbe4120c1	-0.18860151
215	0x3f21329b	0.6296784
216	0x3fc336ea	1.5251133
217	0xbea162e9	-0.31520775
218	0xbe37eb15	-0.1796077
219	0xbdbf21e7	-0.09332638
220	0x3f367674	0.71274495
221	0xbf29b8b0	-0.66297436
222	0xbed20c2c	-0.4102491
223	0x3cfe9aa0	0.03107959
224	0xbc924c98	-0.017858788
225	0x3f7109bd	0.94155484
226	0xbe3ad48a	-0.1824514
227	0x3fb5bab4	1.4197602
228	0xbfc57716	-1.5426967
229	0xbde8d127	-0.11368018
230	0xbee9efa4	-0.45690644
231	0x3efee82c	0.49786508
232	0x3ed3c38c	0.41360128
233	0x3e7d6ee6	0.24749336
234	0x3e9e030c	0.308617
235	0x3ee9f9b9	0.45698336
236	0xbf1d3910	-0.61415195
237	0x3e140265	0.14454038
238	0x3eacc179	0.33741358
239	0xbeff79f5	-0.49897733
240	0x3fb1e4ea	1.3897984
241	0xba839042	-0.0010037499
242	0xbcfceaee	-0.030873742
243	0x3f97b60d	1.1852432
244	0x3e152fce	0.14569017
245	0x3e4b730c	0.19868106
246	0x3f33a3be	0.70171726
247	0xbd9af3e5	-0.075660504
248	0x3f9af943	1.2107319
249	0x3ea78545	0.32718864
250	0x3efb780e	0.49115032
251	0xbd9968ad	-0.074906684
252	0x3e9462da	0.28981668
253	0x3fcdba37	1.6072453
254	0xbe790e46	-0.24321851
255	0x3d66fccf	0.05639344

lstm.weight_hh_l0 f4 [256, 64]
0	0x3d98aadf	0.07454466
1	0xbd398195	-0.045289595
2	0x3decdf51	0.11566032
3	0xbd2804b4	-0.04102011
4	0xbe0647e7	-0.13113366
5	0xbdebc8d0	-0.11512911
6	0xbddfbc2e	-0.10924564
7	0xbe170f94	-0.14752036
8	0x3e4b1531	0.19832303
9	0xbe9ee423	-0.3103343
10	0x3d13e200	0.036104202
11	0xbd4f70cb	-0.050644677
12	0x3d75b7aa	0.05998961
13	0x3de25176	0.11050694
14	0x3dc2b92f	0.09507977
15	0xbcc9568e	-0.024577405
16	0x3e4d51ae	0.2005069
17	0x3d4efeb4	0.050535873
18	0x3a8c6602	0.0010711553
19	0x3e1ad5bc	0.15120596
20	0x3d608133	0.054810714
21	0xbde0870a	-0.10963257
22	0x3e06401f	0.13110398
23	0xbdf7eff9	-0.12106318
24	0xbdc43d04	-0.0958195
25	0xbd5950ad	-0.053055454
26	0xbe86926f	-0.26283595
27	0xbda8bb00	-0.082387924
28	0x3c38a634	0.011270095
29	0xbe1902b2	-0.14942434
30	0xbd1821cf	-0.037141617
31	0xbe0c45cf	-0.13698505
32	0x3d246b00	0.040141106
33	0xbbbfa8ed	-0.005848995
34	0xbd9324e9	-0.071847744
35	0xbce31f1d	-0.027724797
36	0x3d5ceec3	0.05393864
37	0x3c9de5f5	0.019274691
38	0x3dc4bdbc	0.096065015
39	0x3cb14ca8	0.021642998
40	0x3cf8eabe	0.030385371
41	0x3e0fafc7	0.14031897
42	0x3e1e9924	0.15488106
43	0xbe06eec2	-0.13177016
44	0xbde8882e	-0.11354099
45	0x3d9a8e9d	0.075467326
46	0x3d3974bc	0.045277342
47	0xbe5d8f25	-0.21636637
48	0x3e2a5c3d	0.16636749
49	0x3d9248d6	0.071427986
50	0xbd120356	-0.035647713
51	0x3c49fb7c	0.012328025
52	0x3c8c61ba	0.017136443
53	0xbe2bc83e	-0.16775605
54	0xbe121ebd	-0.14269538
55	0x3d8e763c	0.06956145
56	0x3e652422	0.22377065
57	0x3c188b5c	0.00931057
58	0x3d037b87	0.032100227
59	0x3db1a9ea	0.08674987
60	0x3e266143	0.1624804
61	0xbde819cb	-0.113330446
62	0x3da79969	0.081835575
63	0x3c5eeed7	0.013606749
64	0x3e0ec850	0.139436
65	0x3df646d1	0.12025226
66	0x3d8d0ae5	0.068868436
67	0xbb73f592	-0.0037225229
68	0x3e0f0e8c	0.13970393
69	0x3c74da40	0.014944613
70	0x3d91d028	0.07119781
71	0xbd471b97	-0.048610296
72	0xbd167120	-0.03672898
73	0xbd74579a	-0.059653856
74	0xbd9d0ef1	-0.076688655
75	0x3de1d1a2	0.110263124
76	0x3e233e28	0.1594168
77	0x3dae7de4	0.085201055
78	0xbd2bec41	-0.041973356
79	0xbc3b75f8	-0.0114417
80	0xbda4fab8	-0.08055633
81	0xbdb58686	-0.08863549
82	0x3d79888f	0.060921248
83	0x3c414f97	0.011798761
84	0x3e1606f5	0.14651091
85	0xbd82f01b	-0.06393453
86	0xbdc08b40	-0.0940156
87	0x3d9ed9f6	0.077564165
88	0xbe03f727	-0.1288725
89	0xbe45f753	-0.19332628
90	0x3befadcf	0.007314421
91	0xbe2522c6	-0.16126546
92	0x3d46e30a	0.048556365
93	0x3b27fa05	0.00256312
94	0xbdf200e6	-0.118165776
95	0xbe764301	-0.24048997
96	0x3e0c9274	0.13727742
97	0x3df767e6	0.12080364
98	0x3d02ae75	0.031904656
99	0x3c8b16e5	0.01697869
100	0xbce1d96a	-0.027569491
101	0xbd952c59	-0.07283849
102	0x3e2696c6	0.16268453
103	0xbe474d31	-0.1946304
104	0xbce2d323	-0.027688568
105	0xbcdebbf9	-0.027189242
106	0x3dba189f	0.09086727
107	0x3d6577b7	0.056022372
108	0xbda6d46e	-0.081459865
109	0xbd8cf80f	-0.06883251
110	0x3e2a2b11	0.16617991
111	0xbd3c2591	-0.045934264
112	0xbe106fcc	-0.14105147
113	0x3d9b01f0	0.07568729
114	0xbc9c2a82	-0.019063238
115	0x3cef26fd	0.029193396
116	0xbd9a8d83	-0.075465225
117	0xbb03ef16	-0.002013152
118	0x3e0c48b4	0.13699609
119	0x3c2f0ae3	0.010683748
120	0xbc21502a	-0.009845773
121	0xbd01ba54	-0.031671837
122	0x3bf7f235	0.007566715
123	0xbd9a5c3b	-0.07537123
124	0xbe3a990d	-0.18222447
125	0x3d51b187	0.051194694
126	0x3d994836	0.07484476
127	0xbcbe8449	-0.023256438
128	0xbdb04d2a	-0.08608468
129	0x3e2a2035	0.16613849
130	0xbd8e8b44	-0.069601566
131	0x3dfb2770	0.122633815
132	0xbc85e7e8	-0.016345933
133	0xbc9eddba	-0.019392837
134	0x3e28e52e	0.16493675
135	0x3d6fbaf1	0.05852789
136	0xbe1a75aa	-0.15083948
137	0x3d97ccce	0.0741211
138	0xbe221d3e	-0.15831468
139	0x3d0e248c	0.034702823
140	0x3d96ee1f	0.07369637
141	0x3dab4eb4	0.08364621
142	0x3bbbd64d	0.0057323338
143	0xbdb3b0e8	-0.087739766
144	0x3ca90ef4	0.020637013
145	0x3e758035	0.23974688
146	0x3d8eaedf	0.06966948
147	0x3cac4887	0.021030677
148	0xbcf0ede8	-0.029410318
149	0xbd82aa04	-0.06380084
150	0xbd50fe49	-0.051023755
151	0xbd6de844	-0.058082834
152	0x3d013f66	0.031554602
153	0x3d27343f	0.04082131
154	0x3cbfb29c	0.023400597
155	0xbdb7c30d	-0.0897275
156	0x3e730417	0.23732029
157	0xbe17dd66	-0.1483055
158	0xbd840618	-0.06446475
159	0x3c1eee2e	0.009700341
160	0xbdf24098	-0.118287265
161	0xbcdb8bb4	-0.026800014
162	0xbdd483fd	-0.10376737
163	0x3d5b56f0	0.053549707
164	0x3dc1bf50	0.09460318
165	0xbe034e83	-0.12822919
166	0xbd2042b3	-0.03912611
167	0x3db4666d	0.08808599
168	0x3d4dc547	0.050236966
169	0x3c1aa283	0.00943816
170	0x3cb323e6	0.021867704
171	0x3dd83454	0.10556856
172	0xbdb60dff	-0.08889388
173	0x3e146681	0.14492227
174	0x3d1c205c	0.038116798
175	0xbe3be0a5	-0.18347414
176	0x3dc724dd	0.09723828
177	0x3d58a334	0.052890018
178	0xbe85b71d	-0.26116267
179	0x3b802600	0.00391078
180	0xbcfd3ea5	-0.03091366
181	0x3ddb684e	0.10713254
182	0xbd8d9939	-0.069139905
183	0xbd086bc2	-0.03330589
184	0xbe569739	-0.20956124
185	0xbc5be4e1	-0.013421268
186	0xbd71f7a0	-0.059074044
187	0xbd486c0d	-0.04893117
188	0xbde63940	-0.11241388
189	0x3e384a28	0.17997038
190	0x3e33ce40	0.17559147
191	0xbd5e08cf	-0.05420762
192	0x3c158eb8	0.009128265
193	0xbe4cde68	-0.20006716
194	0x3d0b4b53	0.03400738
195	0xbd9d289e	-0.07673763
196	0x3e82e866	0.2556793
197	0xbcca980a	-0.024730701
198	0xbe8c6c26	-0.2742626
199	0xbe97fbe8	-0.29684377
200	0x3dfb9920	0.12285066
201	0xbe503b7b	-0.2033519
202	0xbec18cc1	-0.378027
203	0xbe1cfee3	-0.15331607
204	0xbddb3744	-0.107039005
205	0xbe48ba43	-0.19602303
206	0x3ccf8a39	0.025334464
207	0xbdf5eb97	-0.12007826
208	0xbd95ebdc	-0.07320377
209	0xbe85e460	-0.261508
210	0xbdd3ad64	-0.10335806
211	0xbdda7a72	-0.10667886
212	0xbcd332a5	-0.025780985
213	0x3c584c45	0.013201778
214	0x3d0d6cfd	0.034527767
215	0x3e6dab85	0.23209961
216	0xbeca0e3d	-0.39463988
217	0xbe5c9f55	-0.21545155
218	0x3d8846bb	0.06654116
219	0xbdb20fe4	-0.08694437
220	0x3d199fff	0.0375061
221	0xbd206516	-0.039158903
222	0x3e44a9ea	0.19205442
223	0xbddc691a	-0.10762234
224	0xbe3baddd	-0.18328042
225	0x3de1ff2e	0.11035
226	0x3e1a919f	0.15094613
227	0x3debf6c5	0.11521677
228	0x3d4a9996	0.049462877
229	0xbe93ebb5	-0.28890768
230	0x3e88f0f1	0.26746324
231	0xbab0a12a	-0.0013475765
232	0xbd5cd4d4	-0.053913906
233	0x3d4828dc	0.04886709
234	0xbd30a01a	-0.043121435
235	0xbe3bb553	-0.18330888
236	0xbeba1e06	-0.3635103
237	0x3d846b33	0.06465759
238	0x3e0b125d	0.13581224
239	0xbcb4bab8	-0.02206169
240	0x3e296e12	0.16545895
241	0xbdda961d	-0.10673163
242	0xbe5746c0	-0.21023083
243	0x3d1d5228	0.03840843
244	0x3ea32f96	0.31872243
245	0xbe35fe5d	-0.17772813
246	0x3c640e2d	0.013919395
247	0xbe082af5	-0.13297637
248	0x3dd325af	0.10309922
249	0x3d36af12	0.044600554
250	0xbe5dfe11	-0.2167895
251	0xbe7e71ff	-0.24848174
252	0xbd6971a5	-0.056993145
253	0x3eacb609	0.33732632
254	0x3c80e645	0.015734801
255	0x3e3ac97e	0.18240926

lstm.bias_ih_l0 f4 [256]
0	0x3c503b7d	0.012709496
1	0x3d5d9a90	0.05410248
2	0x3e007b31	0.12546994
3	0x3e9af351	0.3026376
4	0x3d1da23a	0.03848479
5	0x3df63493	0.120217465
6	0xbd8a18e2	-0.06743027
7	0x3e05726f	0.13031934
8	0x3d19ee90	0.037581027
9	0xbe862721	-0.26201728
10	0xbdfe763e	-0.12424897
11	0x3da19c90	0.0789119
12	0x3d8274fa	0.06369968
13	0xbe02d453	-0.12776308
14	0xbd70bf2b	-0.058776062
15	0xbdb9798b	-0.090563856
16	0xbe74d2ad	-0.23908491
17	0x3dfa6577	0.12226384
18	0x3d1562e4	0.036471263
19	0x3e383efc	0.17992777
20	0x3dcd3fa3	0.10021903
21	0xbc6dc120	-0.014511377
22	0x3d768a31	0.060190383
23	0xbca3eab9	-0.020009385
24	0x3dc6216b	0.09674343
25	0x3d6fd754	0.058554962
26	0x3e8ede5a	0.27904016
27	0xbe5a610b	-0.21326081
28	0x3e4c203c	0.19934171
29	0xbe7b37a6	-0.24532947
30	0xbcf5c70d	-0.030002141
31	0x3ef96400	0.48709106
32	0xbe54c4ea	-0.20778242
33	0xb903efb6	-0.00012582433
34	0xbd88e48b	-0.06684216
35	0xbcd7a95b	-0.026325872
36	0x3debdd69	0.1151684
37	0xbe324d71	-0.17412354
38	0xbc44dd12	-0.012015598
39	0xbcceb259	-0.025231527
40	0xbcaa9b6d	-0.020826066
41	0xbcdd5db6	-0.027022224
42	0xbda6b191	-0.08139337
43	0x3db35dd0	0.08758128
44	0xbd969a29	-0.073536225
45	0x3e85e6e1	0.2615271
46	0xbd94ee0b	-0.072719656
47	0x3a00c592	0.0004912253
48	0x3cf1b1dd	0.029503757
49	0xbe1fe38f	-0.1561415
50	0xbe610824	-0.21975762
51	0xbd5f2588	-0.054479152
52	0x3d29b4e7	0.041432288
53	0x3e980dce	0.29698032
54	0xbdd11938	-0.10209888
55	0xbe528e17	-0.20562015
56	0xbe4678a2	-0.19381955
57	0x3d17a31e	0.037020795
58	0x3deeb908	0.11656386
59	0x3e0f357a	0.13985243
60	0x3d5a11da	0.05323968
61	0x3ddb6872	0.10713281
62	0x3e4c47fd	0.19949336
63	0xbddee388	-0.10883242
64	0xbe076a61	-0.13224174
65	0x3ca3c561	0.019991579
66	0x3db01b1e	0.08598922
67	0x3e2909c9	0.16507639
68	0x3dc59ed1	0.096494325
69	0xbc5ec56d	-0.013596875
70	0xbd88f954	-0.066881806
71	0x3be9edf0	0.00713896
72	0x3be28047	0.0069122645
73	0xbc3a5d83	-0.011374834
74	0xbe456015	-0.19274934
75	0x3d976838	0.07392925
76	0xbd7fcd69	-0.062451754
77	0xbdd64108	-0.104616225
78	0xbd9f097a	-0.077654794
79	0x3e4850ae	0.19562027
80	0xbd46da30	-0.048547924
81	0xbddad585	-0.10685257
82	0x3e879f9d	0.26488963
83	0xbe296091	-0.16540743
84	0xbe0cda97	-0.1375526
85	0x3d252365	0.040316958
86	0x3c62de29	0.013846912
87	0xbe3b2fd3	-0.18279962
88	0xbe295822	-0.16537526
89	0xbe0d524c	-0.13800925
90	0xbe5778b7	-0.21042143
91	0x3a161741	0.0005725511
92	0x3e2310c8	0.1592437
93	0xbe3b026e	-0.18262646
94	0xbe11c356	-0.14234671
95	0x3e393efc	0.18090433
96	0xbda5a8ee	-0.080888614
97	0xbde22695	-0.11042515
98	0x3debaf7d	0.11508081
99	0x3c9fd53b	0.019510856
100	0xbdce16a0	-0.10062909
101	0xbe705bc3	-0.23472504
102	0xbd09dc77	-0.033657517
103	0xba2baa48	-0.0006548506
104	0xbe24134b	-0.16022985
105	0xbd054ce8	-0.032544047
106	0x3d5e9240	0.054338694
107	0xbe0c3bc2	-0.13694671
108	0xbbba8494	-0.005692074
109	0x3e87e3b7	0.2654092
110	0xbd2c6043	-0.04208399
111	0xbd1e2cc6	-0.038616918
112	0x3d00c1de	0.031434886
113	0x3d8e6ba0	0.069541216
114	0xbe7ec72c	-0.24880666
115	0x3e11616d	0.14197321
116	0xbd0a7a19	-0.033807848
117	0x3e618186	0.22022066
118	0x3e4e562f	0.20150064
119	0xbcce81f9	-0.02520846
120	0xbe3dac9d	-0.18522878
121	0x3ccfdfdd	0.025375301
122	0xbb5a585a	-0.0033316822
123	0x3d27f0e8	0.04100123
124	0x3d964358	0.073370636
125	0xbd8789cf	-0.06618082
126	0x3cda7c4f	0.026670603
127	0xbe04d40c	-0.12971514
128	0xbc7c7304	-0.015408281
129	0xbc549be8	-0.012976624
130	0x3d30022e	0.04297083
131	0xbc338f76	-0.010959497
132	0x3d49b3c4	0.049243703
133	0xbd6e2d4c	-0.058148667
134	0xbd9265db	-0.07148334
135	0xbe023389	-0.12714972
136	0xbb8a4227	-0.0042193118
137	0x3dcda68d	0.10041533
138	0xbd8a6e7e	-0.06759356
139	0xbda205a9	-0.07911236
140	0xbe125df0	-0.14293647
141	0xbd9e5047	-0.077301554
142	0xbddc17fe	-0.10746764
143	0xbe49eb8f	-0.19718765
144	0x3cd970bb	0.026543012
145	0xbd2a47f9	-0.041572545
146	0x3cbb8799	0.022891806
147	0xbe68c2e1	-0.2273059
148	0x3d2c88a6	0.042122506
149	0x3bcd47e3	0.006264673
150	0xbc141415	-0.009037991
151	0x3dad98a8	0.084763825
152	0xbe1c5e52	-0.15270355
153	0x3db1e105	0.08685497
154	0x3c9852dc	0.018594198
155	0x3c174627	0.009233034
156	0xbd81c19d	-0.06335757
157	0x3d7c0bec	0.061534807
158	0x3db9f3ad	0.090796806
159	0xbdf16c3b	-0.117882214
160	0xbc4f8fff	-0.012668609
161	0x3d63dfa0	0.055633187
162	0xbd4dee35	-0.050276
163	0xbdaca29b	-0.08429452
164	0xbd392988	-0.045205623
165	0xbdae5bbd	-0.085135914
166	0x3b2e915f	0.002663694
167	0xbdd52d94	-0.10409084
168	0x3e115756	0.14193472
169	0xbc09ee42	-0.0084186215
170	0x3d4c5ab0	0.049891174
171	0xbda1e7a7	-0.07905512
172	0x3d327bbd	0.043575037
173	0xbe317af9	-0.17332067
174	0x3dd37cd5	0.10326544
175	0x3b0c8559	0.0021441786
176	0x3dc72999	0.09724731
177	0xbdacd4f2	-0.084390536
178	0xbc6c5832	-0.014425324
179	0x3e57141f	0.2100377
180	0x3ddc07eb	0.10743698
181	0xbde21f60	-0.110411406
182	0x3e6a7d15	0.22899278
183	0xbdc62678	-0.09675306
184	0x3d1fcc93	0.039013457
185	0x3dffa1c7	0.124820285
186	0xbdc742a3	-0.09729507
187	0xbdf79204	-0.12088397
188	0xbe4a956a	-0.1978356
189	0x3e1718ed	0.14755602
190	0x3d57cffa	0.052688576
191	0x3d06dd55	0.032925922
192	0xbe0387ea	-0.12844816
193	0x3e113da7	0.14183675
194	0x3d4a2a6a	0.049356855
195	0x3e884182	0.26612478
196	0x3e54cddb	0.20781653
197	0x3cd8ec7c	0.026479952
198	0xbdd29922	-0.10283114
199	0x3e1b9829	0.15194763
200	0x3e0cd0bb	0.137515
201	0x3d8ed5e9	0.06974394
202	0x3b34e1f2	0.0027600494
203	0xbe0307a3	-0.12795882
204	0x3c09b9de	0.008406131
205	0xbc74fcba	-0.014952833
206	0x3d99d518	0.075113475
207	0x3dc69140	0.09695673
208	0xbe2493d7	-0.16072021
209	0xbcdc7518	-0.026911303
210	0xbc1ef933	-0.009702968
211	0x3caf2938	0.02138196
212	0x3d4501d4	0.048097447
213	0x3c89a982	0.01680446
214	0xbda2ea6c	-0.07954869
215	0xbca9d8f6	-0.020733338
216	0x3c8dbd00	0.017302036
217	0x3d904451	0.0704428
218	0x3ea8dc9d	0.32980815
219	0x3d6d506f	0.057938036
220	0xbd10e526	-0.035374783
221	0xbd9c5f6f	-0.0763539
222	0xbe3c9345	-0.18415554
223	0x3f042ef9	0.51634175
224	0xbcefef2a	-0.029288847
225	0xbddc398a	-0.10753162
226	0x3de8f95d	0.11375687
227	0xbcb85ef1	-0.02250621
228	0xbd6fb46a	-0.058521666
229	0xbe94f222	-0.29090983
230	0x3e0c51b5	0.13703044
231	0xbd95e1f4	-0.07318488
232	0xbe444f5f	-0.19170903
233	0xbe7eb8b8	-0.24875152
234	0x3d424004	0.04742433
235	0x3d333742	0.04375387
236	0xbc475401	-0.012166024
237	0x3e8ded35	0.27720037
238	0x3d782cd9	0.060589645
239	0xbdec4251	-0.11536086
240	0xbddba58e	-0.107249364
241	0xbe748a19	-0.23880805
242	0xbdd7b95d	-0.10533402
243	0xbd9e2e9e	-0.07723735
244	0x3c5e0455	0.0135508375
245	0x3e9fdce0	0.31223202
246	0x3d3bad12	0.04581935
247	0xbe4c517c	-0.19952959
248	0xbd223d0c	-0.039609
249	0xbcbb8249	-0.022889273
250	0x3be95d94	0.007121751
251	0xbbfa54b7	-0.0076394933
252	0xbc53c61f	-0.012925654
253	0xbe13f375	-0.1444834
254	0x3db62fa0	0.088958025
255	0xbdace415	-0.08441941

lstm.bias_hh_l0 f4 [256]
0	0xbc9d7d8a	-0.0192249
1	0xbdb4ba56	-0.08824603
2	0x3d5cfd25	0.053952355
3	0x3e9133ab	0.28359732
4	0xbc656c5a	-0.014002884
5	0x3c3d1016	0.01153948
6	0x3d8d9ad9	0.069143005
7	0x3e81314d	0.25232926
8	0xbe114f6d	-0.14190455
9	0xbe476097	-0.1947044
10	0x3d0cdd88	0.034390956
11	0x3d49fe28	0.049314648
12	0x3a57d911	0.00082339445
13	0x3d2c0290	0.04199463
14	0xbd5365da	-0.051610805
15	0x3cc9a443	0.024614459
16	0xbea8ecb6	-0.32993096
17	0x3d4317fd	0.0476303
18	0xbd32a40d	-0.043613482
19	0x3e0e93fe	0.13923642
20	0x3c7d3307	0.01545406
21	0x3d14cdbd	0.03632902
22	0xbc939ec6	-0.018020045
23	0x3c984905	0.018589506
24	0xbd86bc7e	-0.06578921
25	0xbc325d71	-0.010886536
26	0x3d933c7b	0.0718927
27	0xbe36324d	-0.17792626
28	0x3e400b97	0.18754421
29	0xbd73aca0	-0.0594908
30	0xbe3806b8	-0.17971313
31	0x3ef54e1a	0.4791115
32	0xbd04ff72	-0.032470174
33	0xbd20febd	-0.039305437
34	0x3d724dc2	0.059156187
35	0xbe4fa6a3	-0.2027841
36	0xbde608ce	-0.11232148
37	0xbe0a36a5	-0.13497408
38	0x3d00cf67	0.031447794
39	0xbe2094b5	-0.15681727
40	0xbe4ce228	-0.20008147
41	0xbd7fc8f4	-0.062447503
42	0xbdca2c3e	-0.0987172
43	0x3e113b79	0.14182843
44	0x3cfec346	0.031098973
45	0x3e20e78b	0.15713327
46	0xbdb37e58	-0.087643325
47	0x3c976662	0.018481437
48	0x3d596cbf	0.053082224
49	0xbe15ea1a	-0.14640084
50	0xbd711f81	-0.058867935
51	0x3da312a2	0.07962538
52	0x3e0438a2	0.12912229
53	0x3e9cd8c1	0.3063412
54	0x3dab79a4	0.083728105
55	0xbd5159d0	-0.051111042
56	0xbe3411e5	-0.17584951
57	0x3ddebcd0	0.10875857
58	0x3dca4dfa	0.09878154
59	0xbd21e005	-0.039520282
60	0xbc618aec	-0.013766032
61	0x3d0b9c69	0.03408471
62	0x3d74e0fc	0.059784874
63	0xbd8a796d	-0.067614414
64	0xbe2fe304	-0.17176443
65	0x3b741202	0.0037242179
66	0x3d34323b	0.043993216
67	0x3e2e5e24	0.170281
68	0x3c59fa82	0.013304355
69	0x3d8771c4	0.06613496
70	0x3d964299	0.07336921
71	0x3d8f9c80	0.07012272
72	0xbd7ac2bc	-0.06122087
73	0x3cd98126	0.02655084
74	0xbe2f798e	-0.17136213
75	0x3c8b3edd	0.016997749
76	0xbda8dd6b	-0.08245357
77	0xbe10b316	-0.14130816
78	0xbb337cc8	-0.0027387608
79	0x3de53d24	0.11193302
80	0xbdadda44	-0.084888965
81	0xbddd662e	-0.10810505
82	0x3da61705	0.081098594
83	0x3bc364ad	0.005962929
84	0x3bc92ccc	0.0061393734
85	0xbd80fe07	-0.06298452
86	0x3e13a681	0.14418985
87	0xbe00007d	-0.12500186
88	0x3c721ac9	0.014776894
89	0xbde64951	-0.11244453
90	0xbe43fdc3	-0.19139771
91	0x3d0fc6d7	0.035101738
92	0x3db40a9a	0.087910846
93	0xbd334f87	-0.043777015
94	0xbdd0d6c5	-0.10197214
95	0x3e1762f7	0.14783846
96	0xbc5c2af2	-0.013437973
97	0xbe0004b5	-0.12501796
98	0x3e32c87e	0.17459294
99	0x3d0ac0f4	0.03387542
100	0x3d48a375	0.04898401
101	0xbe27b481	-0.1637745
102	0xbb54a66a	-0.0032447823
103	0x3d60f1f8	0.05491826
104	0xbe0478b8	-0.12936676
105	0xbe781242	-0.24225715
106	0xbc4e8f08	-0.0126073435
107	0xbe4f4386	-0.20240602
108	0xbe2f18ea	-0.17099348
109	0x3de41a4a	0.11137827
110	0xbd2030d4	-0.039109066
111	0xbdd2e8d3	-0.10298314
112	0xbdc8bada	-0.09801264
113	0xbd3ff296	-0.046862207
114	0xbe712c8a	-0.23552147
115	0xbd508d66	-0.050916098
116	0xbd63f30e	-0.055651717
117	0x3e109a67	0.141214
118	0x3e5a378d	0.21310253
119	0xbd015e37	-0.03158399
120	0x3c754c2c	0.014971774
121	0x3d1be971	0.038064424
122	0x3d054bdc	0.03254305
123	0xbb82976a	-0.003985335
124	0x3cdf5524	0.027262278
125	0xbdad4087	-0.08459573
126	0xbe0d0c06	-0.13774118
127	0xbd98033b	-0.07422491
128	0xbd77abf3	-0.060466718
129	0x3ca6f34d	0.020379687
130	0x3d60bbe1	0.054866675
131	0xbc857c90	-0.016294748
132	0x3dd3c561	0.103403814
133	0xbd8b25fa	-0.06794353
134	0xbd9a3e7f	-0.075314514
135	0xbcbfe2b9	-0.02342354
136	0xbc5e74be	-0.013577638
137	0xbdd4cdff	-0.10390853
138	0xbdb9856a	-0.0905865
139	0xbe22e33f	-0.15907
140	0xbe1edf02	-0.15514758
141	0xbe06504d	-0.1311657
142	0xbca044c7	-0.019564046
143	0xbc8a334e	-0.016870167
144	0xbb88dc9a	-0.0041766884
145	0xbe192ada	-0.14957753
146	0x3d13c61c	0.036077604
147	0xbdbe25c0	-0.09284544
148	0xbe0f04dc	-0.13966697
149	0xbde88585	-0.11353592
150	0xbd8ea4f2	-0.069650546
151	0xbda2406c	-0.07922444
152	0x3cb02dc7	0.021506203
153	0x3def731c	0.11691877
154	0x3e1aa3f1	0.15101601
155	0xbdae5c4b	-0.08513697
156	0xbd8ba6c6	-0.06818919
157	0xbd9dac80	-0.076989174
158	0xbc5bd2ec	-0.013416987
159	0xbdb7d940	-0.08976984
160	0x3decae0d	0.11556635
161	0xbe150303	-0.1455193
162	0xbd818fdd	-0.06326268
163	0x3cae0546	0.021242749
164	0xbb150819	-0.0022740422
165	0xbcdb5a1e	-0.02677637
166	0xbe11902f	-0.14215158
167	0x3db9fef4	0.090818316
168	0x3d1d25cf	0.038366135
169	0x3d571135	0.052506644
170	0x3d592748	0.053015977
171	0xbd4b1755	-0.049582798
172	0x3cb60f1f	0.022224007
173	0xbdf5819e	-0.11987613
174	0x3e069e08	0.13146222
175	0x3d1cd291	0.03828675
176	0x3e1cc0d7	0.15307938
177	0x3c5a94c5	0.0133411335
178	0x3d54d603	0.05196191
179	0xbc8becc0	-0.017080665
180	0x3deee49f	0.116647
181	0xbe82ff67	-0.25585482
182	0x3e0f0d22	0.13969854
183	0xbd3f7f68	-0.046752363
184	0xbd1f50d2	-0.038895436
185	0x3dfd3867	0.123642735
186	0xbe409005	-0.18804939
187	0xbe049503	-0.12947468
188	0xbe3eb476	-0.18623528
189	0x3de06b19	0.10957927
190	0x3bdae203	0.0066797747
191	0x3d6985f4	0.057012513
192	0x3d0a7be4	0.033809558
193	0x3c95a1ab	0.018265566
194	0x3d223f3e	0.039611094
195	0x3ea6d34f	0.3258309
196	0x3d081dde	0.03323161
197	0xbe1c8a87	-0.15287219
198	0xbbf9afc5	-0.0076198303
199	0xbd85bcf1	-0.06530178
200	0xbdb0a71e	-0.08625625
201	0x3daf89ac	0.08571181
202	0x3cbb4f4d	0.022864962
203	0xbe1185e1	-0.14211227
204	0x3cb3e2de	0.021958765
205	0xbd2d9eed	-0.04238789
206	0x3e2f7c27	0.17137204
207	0x3d8b0f92	0.06790079
208	0xbdc28740	-0.09498453
209	0x3d8ebd7f	0.06969737
210	0x3e0d0af1	0.13773705
211	0xbdd664b4	-0.10468426
212	0xbdc2116c	-0.09475979
213	0x3db60d33	0.08889236
214	0x3dd94da4	0.10610512
215	0xbc48fccc	-0.012267303
216	0x3c69543f	0.014241277
217	0x3d87f94e	0.06639348
218	0x3e3f786f	0.18698286
219	0x3d988c82	0.07448675
220	0xbddc081b	-0.107437335
221	0xbe68deb0	-0.22741199
222	0xbe00e4cc	-0.12587279
223	0x3f25f782	0.6483079
224	0xbe667066	-0.22503814
225	0xbd4f34e6	-0.050587557
226	0xbd6e32de	-0.05815398
227	0xbb70c6ee	-0.0036739665
228	0x3c8218c2	0.015880946
229	0xbe6bd4a2	-0.23030332
230	0xbd6d354f	-0.057912167
231	0xbd7e51a9	-0.062089596
232	0xbe489b34	-0.19590455
233	0xbdcc2a6c	-0.09969029
234	0xbd80dfc7	-0.06292682
235	0x3ddb9720	0.10722184
236	0xbe248d49	-0.16069521
237	0x3e25d4d9	0.16194476
238	0xbd834612	-0.06409849
239	0xbe480ccd	-0.19536133
240	0xbd43e492	-0.047825404
241	0xbde7f838	-0.11326641
242	0xbd86b1db	-0.06576892
243	0xbe17bb68	-0.14817584
244	0x3e611117	0.21979176
245	0x3da5cf19	0.08096141
246	0xbd0144d7	-0.03155979
247	0xbe5bafab	-0.21453731
248	0xbe37b7e4	-0.17941242
249	0x3da9a4cd	0.082833864
250	0x3dad8b31	0.08473814
251	0x3e1a8103	0.15088277
252	0xbe05ed95	-0.13078912
253	0x3d8771aa	0.066134766
254	0xbd4237dc	-0.047416553
255	0xbe779606	-0.24178323

lstm.weight_ih_l1 f4 [256, 64]
0	0xbe9f70bf	-0.31140706
1	0xbf0b9236	-0.54519975
2	0x3dff3222	0.12460734
3	0x3ed3761a	0.41301042
4	0x3efa2f07	0.48864004
5	0xbedf887c	-0.43658817
6	0xbf267382	-0.6502
7	0xbf0ccc66	-0.5499939
8	0x3d959901	0.07304574
9	0xbeac2f60	-0.33629894
10	0xbee7d65c	-0.4528073
11	0xbf2891ca	-0.65847456
12	0xbf1f3455	-0.6218923
13	0xbf25ce33	-0.6476776
14	0x3ec5f8cf	0.38666388
15	0xbb4d2425	-0.0031302061
16	0xbdaebbd0	-0.08531916
17	0xbf23bb8b	-0.6395804
18	0x3d9f73ec	0.07785782
19	0xbf091af3	-0.53556746
20	0xbf417975	-0.75575954
21	0x3eae4a06	0.3404085
22	0xbea4c8a3	-0.32184324
23	0x3f2690bf	0.65064615
24	0xbf2b7b4f	-0.6698503
25	0xbe3f93a0	-0.18708658
26	0xbe751aa6	-0.23935947
27	0x3ea87814	0.32904112
28	0xbeb0b582	-0.3451348
29	0x3def09be	0.1167178
30	0x3ed53802	0.41644293
31	0xbec2350f	-0.37931105
32	0xbdb3c4a5	-0.08777741
33	0xbed7a422	-0.4211741
34	0xbdd3ff5e	-0.10351442
35	0xbf0daaad	-0.55338556
36	0x3d2e6a24	0.042581692
37	0xbd631a54	-0.05544503
38	0x3e208e4e	0.15679285
39	0xbef2beaa	-0.4741109
40	0xbaafba86	-0.0013407029
41	0xbea95fc0	-0.33080864
42	0xbd944480	-0.07239628
43	0xbefc776e	-0.49309868
44	0xbc127e78	-0.008941285
45	0xbe4e6cb5	-0.20158656
46	0x3f051626	0.5198692
47	0x3eac0f81	0.3360558
48	0x3e2b9d92	0.16759327
49	0xbe784081	-0.24243356
50	0x3d9b658e	0.075877294
51	0x3f159ab6	0.58439195
52	0x3f01c137	0.5068545
53	0xbed76fa3	-0.4207736
54	0xbde99abd	-0.11406467
55	0x3daecf36	0.08535616
56	0x3f09e917	0.5387129
57	0x3f2302fc	0.6367643
58	0xbf0dfe2b	-0.55465955
59	0xbb97f173	-0.0046369373
60	0xbd2ec8e1	-0.04267204
61	0x3f204206	0.62600744
62	0x3efb14df	0.4903936
63	0x3e53b452	0.20674255
64	0xbe8a11e0	-0.26966763
65	0xbe546ede	-0.20745417
66	0xbe552ddc	-0.20818275
67	0x3d2bbb4c	0.041926667
68	0x3e9fce48	0.31212068
69	0xbde77d74	-0.11303225
70	0xbedeb814	-0.43499815
71	0xbd5fc171	-0.05462784
72	0x3dd317c2	0.10307266
73	0xbe70f19e	-0.2352967
74	0x3d1bf79f	0.038077947
75	0xbe6997d2	-0.22811821
76	0xbe6c2c1e	-0.23063704
77	0xbe01d772	-0.12679842
78	0x3e1fb671	0.1559694
79	0x3c5ebc63	0.01359472
80	0xbc10bfa4	-0.008834753
81	0xbda59fcb	-0.08087119
82	0xbe6f20bb	-0.2335233
83	0xbe8d37c7	-0.27581617
84	0xbe7f2717	-0.24917255
85	0x3ebf95fe	0.37419122
86	0x3d50800b	0.05090336
87	0xbd75be95	-0.059996206
88	0xbea7c8ff	-0.32770535
89	0x3df3a0d3	0.11895909
90	0x3e1927c2	0.14956573
91	0x3dbda116	0.0925924
92	0xbe867eb0	-0.2626853
93	0x3e2b6d85	0.16740997
94	0x3ea90847	0.33014128
95	0x3e5bd38f	0.21467422
96	0xbe014da0	-0.12627268
97	0xbeb79d91	-0.358624
98	0x3dfd0cd8	0.123559654
99	0xbead31aa	-0.33826953
100	0xbd94029f	-0.072270624
101	0xbe29aff9	-0.16571034
102	0xbe9aaf1d	-0.30211726
103	0xbe57f4b2	-0.21089438
104	0x3ddb4579	0.1070661
105	0xbe160254	-0.14649326
106	0xbedd2e83	-0.43199548
107	0xbdaa18ab	-0.08305486
108	0x3ec45913	0.38349208
109	0xbd7f3566	-0.062306784
110	0x3eb67c12	0.35641533
111	0x3f033a18	0.5126052
112	0x3ec3a83c	0.3821429
113	0xbecd8245	-0.4013845
114	0xbe08d417	-0.13362156
115	0x3eaafc9a	0.33395845
116	0x3df27abd	0.11839817
117	0xbef85ae9	-0.4850686
118	0xbc4facbf	-0.012675463
119	0x3e469fa1	0.19396831
120	0x3e6598b3	0.22421531
121	0x3ec15fba	0.37768346
122	0xbe97721a	-0.2957924
123	0x3e308544	0.17238337
124	0x3d91d821	0.071213014
125	0x3e2b3ce5	0.16722448
126	0xbe6db541	-0.23213674
127	0x3e1b7741	0.1518221
128	0xbf0abd6d	-0.5419529
129	0xbe98b749	-0.29827335
130	0xbd7b419a	-0.06134186
131	0xbc7f882c	-0.015596431
132	0x3e49a1ee	0.19690678
133	0xbd4c5b51	-0.049891774
134	0xbe883848	-0.2660544
135	0xbebed608	-0.37272668
136	0x3eb46c9a	0.35239106
137	0xbe8bcb9a	-0.27303773
138	0x3ccd2605	0.025042543
139	0xbeb64359	-0.35598257
140	0xbe93dd65	-0.28879848
141	0xbc75f550	-0.0150121
142	0x3ddebe88	0.10876185
143	0xbcc13f8d	-0.023589874
144	0xbe65ac68	-0.22429049
145	0xbe7198bb	-0.23593418
146	0xbe79ae9e	-0.24383017
147	0xbea2b430	-0.31778097
148	0xbee85bf5	-0.45382658
149	0x3e0f4470	0.1399095
150	0xbdaa25ea	-0.08308013
151	0x3eae89e6	0.34089583
152	0xbea97558	-0.3309734
153	0xbede271c	-0.43389213
154	0xbe87541f	-0.26431367
155	0x3e40624a	0.18787494
156	0xbe90be2c	-0.2827009
157	0xbcd9c768	-0.026584342
158	0x3e1425dc	0.14467567
159	0xbe485d59	-0.1956686
160	0x3e3c869f	0.18410729
161	0xbec9514d	-0.3931984
162	0x3e909d16	0.28244847
163	0xbeb473f0	-0.35244703
164	0x3da67694	0.08128086
165	0x3c8049ca	0.015660185
166	0x3e082410	0.13295007
167	0xbdaadfdd	-0.0834348
168	0x3e39a91b	0.18130915
169	0xbd37cfdc	-0.044875965
170	0x3c9abfb3	0.018890237
171	0xbe04a568	-0.12953722
172	0xbca50cfa	-0.02014779
173	0x3cdfd9b1	0.027325483
174	0x3e5271d2	0.20551232
175	0x3dc5e432	0.096626654
176	0x3f24491f	0.64174074
177	0xbd84fcf1	-0.06493557
178	0x3db3d1fa	0.08780284
179	0x3e9aca15	0.302323
180	0x3e25b662	0.16182855
181	0xbe070a21	-0.13187458
182	0x3c92f30d	0.017938161
183	0xbc4761c7	-0.012169308
184	0x3eabf24a	0.3358329
185	0x3e221796	0.1582931
186	0xbe9708e1	-0.29498962
187	0x3ce7e7a3	0.028308695
188	0x3c8cd135	0.017189601
189	0x3e9dd717	0.30828163
190	0xbba5c979	-0.005059418
191	0x3e0b0bed	0.13578768
192	0xbe531f25	-0.2061735
193	0xbee7d556	-0.4527995
194	0x3e2e5c9a	0.17027512
195	0x3e4ff9b4	0.20310098
196	0x3eb41a74	0.35176432
197	0xbf1f3b38	-0.62199736
198	0xbf428031	-0.75976855
199	0xbee4d82e	-0.44696182
200	0x3e2b392f	0.16721033
201	0xbecc54fc	-0.39908588
202	0xbeb917c2	-0.36150938
203	0xbf42de63	-0.76120585
204	0xbf48fccb	-0.7851073
205	0xbf188e3f	-0.5959205
206	0x3ede1e3a	0.43382436
207	0xbe6bde1f	-0.23033951
208	0x3e138385	0.1440564
209	0xbf374f54	-0.7160542
210	0x3e29ad17	0.16569935
211	0xbf2e287b	-0.6803052
212	0xbf10fd68	-0.5663667
213	0x3d5ed445	0.054401655
214	0xbe221d2b	-0.15831439
215	0x3f326772	0.69689095
216	0xbf5827a3	-0.8443548
217	0xbe8da903	-0.27668008
218	0xbeaeacc5	-0.34116188
219	0x3ee6b9fb	0.45063767
220	0xbef4e0a4	-0.47827637
221	0xbe0bf04e	-0.13665888
222	0x3ed1d3eb	0.40981993
223	0x3ce2e82b	0.027698597
224	0x3e3f8061	0.18701316
225	0xbee29a63	-0.44258413
226	0xbdc77a41	-0.09740115
227	0xbf40cece	-0.7531556
228	0x3e6a39fc	0.22873682
229	0x3d6c5ec8	0.057707578
230	0xbdb0ebe4	-0.086387426
231	0xbf0f71f3	-0.5603325
232	0x3ce2141c	0.02759748
233	0xbd91c863	-0.07118299
234	0x3d82a65e	0.06379388
235	0xbed4237b	-0.4143332
236	0x3d17998b	0.037011664
237	0xbd533340	-0.051562548
238	0x3f3a5f83	0.7280199
239	0x3e630d74	0.221731
240	0x3ec7bb0a	0.39009887
241	0xbe008ee6	-0.12554511
242	0x3eb73120	0.35779667
243	0x3f3880ec	0.7207172
244	0x3ee92ea7	0.45543405
245	0xbee1268f	-0.4397473
246	0x3ea0184d	0.3126854
247	0xbe734c13	-0.23759489
248	0x3eb79303	0.3585435
249	0x3eef9ba5	0.46798435
250	0xbf00672f	-0.50157446
251	0x3dbaa7ee	0.09114061
252	0xbdff63f9	-0.1247024
253	0x3f18cd1e	0.59687984
254	0x3eed8303	0.46389017
255	0x3cb83496	0.022486012

lstm.weight_hh_l1 f4 [256, 64]
0	0xbe839a75	-0.2570378
1	0x3d7c65db	0.061620574
2	0x3e37d555	0.17952473
3	0xbe40b6c6	-0.18819723
4	0x3dcefc5d	0.10106728
5	0x3e1b7834	0.15182573
6	0xbe6cadc0	-0.23113155
7	0x3e67d3e5	0.22639425
8	0x3cdf1a5c	0.027234249
9	0xbe0d5e77	-0.13805567
10	0xbeb3e8a4	-0.35138428
11	0x3d187498	0.037220567
12	0xbb29ab99	-0.0025889634
13	0xbca5d486	-0.02024294
14	0xbd484351	-0.048892323
15	0x3d647962	0.055779822
16	0x3ded8ee6	0.11599521
17	0xbe02e8c4	-0.12784106
18	0x3c039e1b	0.008033301
19	0xbe3066a1	-0.1722665
20	0x3d94be38	0.07262844
21	0x3d2f00e8	0.042725474
22	0xbd8598ea	-0.06523307
23	0x3de45601	0.111492164
24	0xbe0f5428	-0.13996947
25	0x3e639f10	0.22228646
26	0x3e4f1776	0.20223793
27	0xbd83e735	-0.064405836
28	0x3ceebff0	0.029144257
29	0xbecad7e4	-0.39617836
30	0xbe6041c1	-0.21900083
31	0xbecdbadc	-0.40181625
32	0x3e849d6b	0.2590135
33	0x3ddb0eb0	0.10696161
34	0x3e79cb40	0.2439394
35	0x3e8e8498	0.27835536
36	0x3c528068	0.012847997
37	0xbe4d0bf2	-0.20024088
38	0xbdf19f99	-0.11798019
39	0x3d2f0d8d	0.042737532
40	0x3e93755a	0.2880047
41	0x3eb8823b	0.36036858
42	0xbe466bf3	-0.19377117
43	0xbe54d4e1	-0.20784332
44	0xbe27c9a5	-0.16385515
45	0x3d611f19	0.054961298
46	0x3d6fbf2b	0.05853192
47	0xbe5375b0	-0.20650363
48	0x3dd8b2ef	0.10581004
49	0x3e11d5aa	0.14241663
50	0xbe2e70ee	-0.17035267
51	0x3e5fe605	0.21865089
52	0xbde388b9	-0.11110062
53	0x3d9210cd	0.07132111
54	0xbd17e315	-0.037081797
55	0x3e80c11e	0.25147337
56	0x3d848bc2	0.06471969
57	0xbe1299b5	-0.14316447
58	0xbe00c2d3	-0.1257432
59	0x3e61c251	0.22046782
60	0xbe00ebb4	-0.12589914
61	0xbe0e5686	-0.13900194
62	0xbe343431	-0.17598034
63	0xbe0c2be1	-0.13688613
64	0xbe2f6c77	-0.1713122
65	0x3da76229	0.081730194
66	0x3d86b4af	0.065774314
67	0xbe1f5824	-0.15560967
68	0xbb45a6fa	-0.003015934
69	0x3d5fadf9	0.054609273
70	0xbce8dbf3	-0.028425192
71	0x3df75756	0.12077205
72	0xbd16ee01	-0.036848072
73	0x3b9e6dad	0.0048348517
74	0xbde02631	-0.109447844
75	0x3e4e524a	0.20148578
76	0xbe0f9c55	-0.1402448
77	0xbca816b8	-0.020518646
78	0x3e016b66	0.12638626
79	0xbdbdd85e	-0.092697844
80	0xbdb597b2	-0.08866824
81	0xbdb63654	-0.08897081
82	0xbc531509	-0.012883433
83	0xbd74aca9	-0.059734974
84	0x3e8b1668	0.27165532
85	0xbe7e2f0f	-0.24822639
86	0xbda1fd57	-0.07909649
87	0xbea9fe31	-0.33201745
88	0xbca00127	-0.0195318
89	0x3e5b71bf	0.2143011
90	0xbc8cc58f	-0.017184047
91	0xbe51f198	-0.20502317
92	0x3bd89f08	0.006610755
93	0xbc310676	-0.010804763
94	0xbde50e72	-0.11184396
95	0x3d154665	0.036444087
96	0x3dffbbb0	0.124869704
97	0xbaa7af64	-0.0012793359
98	0x3c8f6c7f	0.01750779
99	0x3c5ecce3	0.0135986535
100	0xbc15c520	-0.009141237
101	0x3e339568	0.17537463
102	0x3c5857a2	0.013204487
103	0x3d37e54f	0.04489642
104	0xbbd0848e	-0.006363458
105	0xbd4d9f75	-0.0502009
106	0xbdd82524	-0.10553959
107	0xbdebecde	-0.11519788
108	0xbdcdf66c	-0.10056767
109	0xbe805ff5	-0.2507321
110	0x3e69d62a	0.22835603
111	0xbe34579a	-0.17611542
112	0x3e2bd2e9	0.16779675
113	0xbb95130e	-0.0045493906
114	0xbe0d89e8	-0.13822138
115	0x3e3b6f7d	0.18304248
116	0xbe3ca0f6	-0.18420777
117	0xbe5276ad	-0.20553084
118	0xbe15957e	-0.14607808
119	0xbca43d40	-0.020048738
120	0x3d07cfc8	0.03315714
121	0x3d99bc25	0.07506589
122	0x3e360ffe	0.17779538
123	0xbc6aa9e8	-0.014322735
124	0x3b7f5a91	0.0038963894
125	0x3e07de54	0.13268405
126	0xbbe2837f	-0.006912648
127	0xbe27e063	-0.1639419
128	0x3e49dd25	0.19713266
129	0xbc508246	-0.012726372
130	0x3d09b2ea	0.03361789
131	0x3daf8ce5	0.085717954
132	0xbda9868d	-0.08277617
133	0xbcbac442	-0.022798661
134	0xbbf5e652	-0.007504263
135	0x3e933913	0.28754482
136	0x3e2ac533	0.16676788
137	0xbe780da2	-0.2422395
138	0x3caceefd	0.021110052
139	0xbe3d2f7e	-0.18475148
140	0x3d55b3d6	0.052173458
141	0xbdb2e563	-0.08735158
142	0x3cc0508e	0.023475911
143	0x3e3979bb	0.18112843
144	0x3e08848f	0.13331817
145	0xbe41687c	-0.18887514
146	0x3e1cdb04	0.15317923
147	0x3e32c3c3	0.1745749
148	0xbd78b54b	-0.06071977
149	0x3de8800d	0.11352549
150	0x3cfbbdff	0.030730246
151	0xbe061254	-0.13092929
152	0xbca0b1c0	-0.019616008
153	0xbdffbbec	-0.12487015
154	0x3d5e0c46	0.054210924
155	0xbe318583	-0.17336087
156	0x3e272004	0.16320807
157	0x3e2d95ec	0.16951722
158	0xbdbafd25	-0.09130315
159	0x3d1c3e85	0.03814556
160	0xbc2e189f	-0.010625987
161	0x3a539640	0.00080714
162	0xbc2f182f	-0.010686918
163	0x3e58fc21	0.2118993
164	0xbdcadd17	-0.09905451
165	0x3d8f11d7	0.069858246
166	0xbe98dc19	-0.2985542
167	0xbdd29a32	-0.10283317
168	0xbdc80d6f	-0.09768187
169	0xbdf1dde5	-0.11809901
170	0x3dbc7c9b	0.09203454
171	0xbdef4c9a	-0.116845325
172	0xbdd4497e	-0.1036558
173	0xbdef630f	-0.11688816
174	0x3e16fda9	0.14745201
175	0xbe2fe7f6	-0.1717833
176	0xbdc35edf	-0.095395796
177	0xbd8004ed	-0.062509395
178	0xbcd84685	-0.026400814
179	0xbc862639	-0.016375648
180	0x3e495266	0.19660339
181	0x3cb0c65f	0.021578966
182	0x3e8908f2	0.26764637
183	0x3e2a3a48	0.16623795
184	0x3c9590be	0.018257495
185	0xbdaf7b79	-0.085684724
186	0xbdb87fa0	-0.090087175
187	0x3d174e75	0.036940057
188	0x3e04715a	0.12933865
189	0x3e1c1f05	0.15246208
190	0x3d855694	0.06510654
191	0xbd2f4574	-0.042790845
192	0x3cd6be49	0.026213782
193	0x3d2d7d17	0.042355623
194	0x3e9a789b	0.3017014
195	0xbe0fc693	-0.14040594
196	0x3e8dc40a	0.27688628
197	0x3e095326	0.13410625
198	0xbe1508f1	-0.14554192
199	0x3e9c1721	0.30486396
200	0x3e1d9702	0.15389636
201	0xbe5eb69f	-0.21749352
202	0xbe821b2f	-0.25411364
203	0x3e1d16eb	0.15340774
204	0xbe881c02	-0.26583868
205	0xbe335df0	-0.17516303
206	0x3e19e7ee	0.1502988
207	0x3e22ba55	0.15891393
208	0x3d01a125	0.03164782
209	0xbe905661	-0.28190902
210	0xbbcac149	-0.006187592
211	0x3d08a71b	0.03336249
212	0xbda89b38	-0.082327306
213	0x3d01c59d	0.0316826
214	0xbe9736b7	-0.29533932
215	0xbe62d5da	-0.2215189
216	0xbe8cca56	-0.2749812
217	0xbd25a935	-0.04044457
218	0x3d112818	0.035438627
219	0xbe61b8c9	-0.22043146
220	0x3d3074a0	0.043079972
221	0xbec0edcd	-0.37681428
222	0xbe6b0be2	-0.22953752
223	0xbe246bfa	-0.16056815
224	0x3e65583a	0.22396937
225	0x3da547e3	0.08070352
226	0x3ea87aa6	0.32906073
227	0x3e73ad7e	0.23796651
228	0x3e655d5c	0.22398895
229	0x3e13c3cc	0.1443016
230	0xbe31d6c3	-0.17367081
231	0xbe4eff53	-0.20214586
232	0x3ea995f5	0.3312222
233	0x3e7da906	0.24771509
234	0xbddaa851	-0.10676635
235	0xbe5b003d	-0.2138681
236	0xbb97f3af	-0.0046372036
237	0xbd859370	-0.06522262
238	0x3df04b74	0.117331415
239	0xbe1ccda0	-0.15312815
240	0x3e808afc	0.25106037
241	0x3e690706	0.22756585
242	0xbe03592b	-0.12826984
243	0x3e13889a	0.14407578
244	0x3dbf81d4	0.093509346
245	0xbdc21aab	-0.09477743
246	0x3bc5115a	0.0060140314
247	0xbdbd009d	-0.092286326
248	0x3e983657	0.29728958
249	0xbe65d738	-0.2244538
250	0xbb680b17	-0.0035407
251	0x3e2d37a5	0.16915758
252	0xbe2b3528	-0.16719496
253	0xbdce4b75	-0.10072986
254	0xbe905846	-0.28192347
255	0xbd150419	-0.03638086

lstm.bias_ih_l1 f4 [256]
0	0x3d81041c	0.06299612
1	0x3d9731e3	0.07382562
2	0x3e427d65	0.18993147
3	0x3e2f5295	0.17121346
4	0x3e225a89	0.15854849
5	0x3da4b71b	0.08042737
6	0x3e613a5e	0.21994922
7	0x3e3244b3	0.17409019
8	0xbd72e73e	-0.05930256
9	0xbb3787f8	-0.0028004628
10	0xbcbf448b	-0.023348114
11	0x3d65a54a	0.056065835
12	0x3e977e4e	0.2958855
13	0xbe52a282	-0.20569804
14	0x3c90ac2e	0.017660227
15	0xbdeb0bb2	-0.1147684
16	0xbe67623e	-0.2259607
17	0x3d6b80fd	0.05749606
18	0x3d16043e	0.03662514
19	0xbb223771	-0.0024752284
20	0x3dd48156	0.10376231
21	0x3e88f7d8	0.2675159
22	0x3e0321f3	0.1280592
23	0x3e86b823	0.2631236
24	0x3dc49c9f	0.096001856
25	0x3e392cba	0.18083468
26	0x3dc7b040	0.09750414
27	0x3e152a4e	0.14566919
28	0xbe127789	-0.14303412
29	0xbe148b79	-0.1450633
30	0xbe026fdc	-0.12737983
31	0x3c5c227a	0.013435954
32	0x3d9dd23f	0.07706117
33	0x3e6ee0f9	0.23328008
34	0xbdf52522	-0.11969973
35	0x3d4226d4	0.04740031
36	0x3e7bff87	0.24609195
37	0x3e7de709	0.24795164
38	0xbb3b0152	-0.0028534723
39	0x3d1a751f	0.03770935
40	0x3e128ad1	0.14310767
41	0x3e264235	0.16236193
42	0x3c8a95bf	0.016917108
43	0xbd90a5b4	-0.07062855
44	0xbe22ad40	-0.15886402
45	0x3d7530a7	0.05986085
46	0x3c306cca	0.010768125
47	0x3dc4082f	0.095718734
48	0xbb16e32a	-0.0023023584
49	0x3e15a9f7	0.14615618
50	0xbcba0b8e	-0.022710588
51	0x3e5b53ce	0.21418688
52	0x3d8ece7c	0.069729775
53	0x3e153c6b	0.14573829
54	0x3e76b314	0.2409175
55	0x3dc7f4da	0.097634986
56	0x3d3a7c49	0.045528684
57	0x3e036525	0.12831552
58	0x3cf03227	0.02932079
59	0xbce0757e	-0.027399775
60	0xbdcab76d	-0.09898267
61	0x3e155e6e	0.14586803
62	0x3e214a13	0.15750913
63	0x3de950d9	0.113923736
64	0x3d2e710e	0.042588286
65	0x3ebc4b61	0.3677626
66	0x3d51dbb7	0.051234927
67	0xbc9365d0	-0.017992884
68	0x3d018890	0.031624377
69	0xbd905794	-0.07047954
70	0x3da49dcc	0.0803791
71	0x3d8e88dd	0.06959698
72	0xbe763852	-0.24044922
73	0xbe81beaa	-0.25340778
74	0x3dd4bc2b	0.10387453
75	0x3e11de60	0.14244986
76	0x3bf52903	0.0074816956
77	0xbd015977	-0.03157946
78	0x3cc26192	0.023728166
79	0x3e103dc4	0.14086062
80	0x3e5dd984	0.21665007
81	0x3d30808f	0.043091353
82	0xbe421b52	-0.18955734
83	0x3da94142	0.082644
84	0xbe761720	-0.24032259
85	0x3d287d3e	0.041135065
86	0x3d9ee3eb	0.07758316
87	0xbe42a735	-0.19009097
88	0xbc31ed3e	-0.010859786
89	0x3c38157d	0.011235592
90	0xbd90b4b3	-0.07065716
91	0x3dd92528	0.1060279
92	0xbe4a338a	-0.19746223
93	0xbce34d37	-0.02774678
94	0x3de1d0d3	0.11026158
95	0x3e582b4b	0.21110265
96	0xbd7f0951	-0.062264744
97	0x3e6df86b	0.23239295
98	0x3e4d5fa9	0.20056023
99	0x3d1776a6	0.036978386
100	0xbd1788dd	-0.036995757
101	0xbe701612	-0.23445919
102	0xbd50f343	-0.051013242
103	0x3d432abe	0.047648184
104	0xbe4a7678	-0.19771755
105	0xbda7ad5a	-0.08187361
106	0xbd2b1133	-0.04176445
107	0x3e06a605	0.13149269
108	0x3dc6415f	0.09680437
109	0xbe1f6d01	-0.15568925
110	0x3dec4e7e	0.11538409
111	0x3da9b564	0.08286551
112	0x3df16cd8	0.117883384
113	0x3ca007f5	0.019535044
114	0xbe49fd7c	-0.19725603
115	0x3b465604	0.0030263672
116	0x3d8935fd	0.066997506
117	0xbcc9d8ca	-0.024639506
118	0xbbd12a5b	-0.006383223
119	0x3cce46ce	0.025180247
120	0x3dc48437	0.095955305
121	0x3e904540	0.28177834
122	0xbe6be124	-0.23035103
123	0xbe8b39b2	-0.27192456
124	0x3a2c40d7	0.0006570941
125	0xbc478ee3	-0.012180063
126	0x3d7fb6ca	0.06243018
127	0x3d772e24	0.060346738
128	0xbe5270a0	-0.20550776
129	0x3e55e91e	0.20889708
130	0x3e616f5e	0.2201514
131	0xbdad5c8b	-0.08464917
132	0x3e5a6e50	0.21331143
133	0x3def2ee7	0.11678868
134	0xbe48a9a2	-0.1959596
135	0x3dad96e1	0.084760435
136	0xbd4b5985	-0.04964592
137	0x3e0bce34	0.13652879
138	0xbe24b03c	-0.16082853
139	0x3ce09d34	0.02741871
140	0x3ce459ab	0.027874788
141	0xbd842ac3	-0.06453469
142	0xbbd53b35	-0.006507302
143	0x3bb59c09	0.0055422825
144	0x3c03ceae	0.008044882
145	0xbe566273	-0.20935993
146	0xbe6042f8	-0.21900547
147	0xbda427ae	-0.08015381
148	0x3d8a8ea2	0.06765486
149	0x3df7772b	0.12083276
150	0xbe698540	-0.22804737
151	0x3d884962	0.06654622
152	0xbe8b0116	-0.27149266
153	0x3c2216f1	0.009893165
154	0x3eae3849	0.34027317
155	0xbe3ef7d7	-0.18649231
156	0xbd919a1b	-0.071094714
157	0xbd7ba4ac	-0.06143634
158	0xbdc5d5cd	-0.0965992
159	0xbdbf5e3a	-0.09344144
160	0x3de4d1b0	0.11172807
161	0x3e4b97bd	0.19882102
162	0x3e04cce4	0.12968785
163	0x3dcd986f	0.1003884
164	0x3e9ecbc1	0.31014827
165	0xbe021277	-0.12702356
166	0xbda0fa46	-0.07860236
167	0xbdba1f40	-0.09087992
168	0x3e1e59c4	0.1546393
169	0x3e378a87	0.17923938
170	0xbd95c846	-0.0731359
171	0xbe2ed550	-0.1707356
172	0xbdcbbfd1	-0.099486955
173	0xbd921dcb	-0.07134589
174	0xbd475da3	-0.048673283
175	0xbde80e59	-0.113308616
176	0x3dd74d1a	0.10512753
177	0x3dbea428	0.09308654
178	0xbdf5be38	-0.11999172
179	0x3e4fcf92	0.20294026
180	0x3d79de74	0.061003163
181	0xbd063c93	-0.03277261
182	0xbd900d29	-0.0703376
183	0xbc82e8b5	-0.015980104
184	0x3e890dc8	0.26768327
185	0xbead985a	-0.33905298
186	0x3d885d62	0.06658436
187	0x3db91aa5	0.09038285
188	0xbe38e0e1	-0.18054534
189	0xbe81f0d6	-0.25379056
190	0xbe2aafda	-0.16668645
191	0x3d48a4c1	0.048985247
192	0x3ddb6a68	0.10713655
193	0x3d0a609d	0.033783544
194	0x3cf6721b	0.030083707
195	0x3d81085e	0.06300424
196	0x3878f95e	5.936005e-05
197	0x3da73ac2	0.08165504
198	0xbe56cc85	-0.20976456
199	0xbdeb509c	-0.114899844
200	0xbd1c477a	-0.038154103
201	0x3e7b67f1	0.24551369
202	0xbbec123e	-0.007204323
203	0xbd1deab2	-0.0385539
204	0x3d5ffb2d	0.0546829
205	0xbe976cc2	-0.29575163
206	0x3e35a72b	0.17739551
207	0x3e8eba93	0.2787672
208	0x3d6a1681	0.057150368
209	0xbe466e05	-0.19377907
210	0x3c967fc4	0.01837147
211	0xbdeffa27	-0.11717635
212	0x3e3d1de1	0.18468429
213	0x3e4203a4	0.18946701
214	0xbe968f42	-0.29406172
215	0x3ee13f08	0.43993402
216	0x3d33394b	0.04375581
217	0xba9f5f6c	-0.0012159175
218	0x3dca1f82	0.09869291
219	0xbd303f03	-0.043028843
220	0xbc4d7f8b	-0.012542616
221	0xbc867d63	-0.01641721
222	0xbe508c5b	-0.20366041
223	0xbe8329db	-0.2561787
224	0xbe0456d8	-0.12923753
225	0xbe986854	-0.29767096
226	0xbe9a4a97	-0.30135033
227	0xbc28be12	-0.010299223
228	0xbd7ccaa2	-0.061716683
229	0x3ee256cb	0.44206843
230	0xbc319541	-0.010838808
231	0x3dc9b67a	0.09849258
232	0x3dc5673a	0.096388295
233	0x3e762365	0.2403694
234	0x3dfa8fa8	0.122344315
235	0x3d784b0d	0.06061845
236	0x3ccca78f	0.024982242
237	0xb9813b73	-0.0002464909
238	0x3c543047	0.012950963
239	0x3c6a7f6d	0.014312607
240	0xbdecf745	-0.115706004
241	0x3d355a8b	0.0442758
242	0x3cf5ad56	0.02998988
243	0xbdfc5ca9	-0.12322361
244	0xbd7a3ad4	-0.06109126
245	0xbeb20cdb	-0.34775433
246	0x3dd24072	0.10266198
247	0xbcbd695a	-0.023121525
248	0x3d5aafc9	0.053390298
249	0xbb69b205	-0.0035659086
250	0xbdd53148	-0.1040979
251	0x3dd77e52	0.105221406
252	0xbd0d7432	-0.03453464
253	0xbca181e4	-0.019715257
254	0x3cb3d280	0.02195096
255	0x3e2ce773	0.16885166
