artifacts/lstm/lstm_v4_best.pt (torch, 80398 bytes, 6 tensors)

lstm.weight_ih_l0 f4 [256, 4]
0	0x3f2ad2d3	0.6672794
1	0x3dc6c404	0.09705356
2	0xbd55cc21	-0.052196626
3	0xbd9ef2a9	-0.077611275
4	0x3f80991c	1.0046725
5	0x3b3f6792	0.002920602
6	0xbe16d1f2	-0.14728525
7	0xbdb85a0f	-0.09001552
8	0xbdf9276d	-0.12165723
9	0x3e1ffb1d	0.15623136
10	0x3dd98238	0.106205404
11	0x3e81b843	0.25335893
12	0xbdeb7a65	-0.11497954
13	0xbd707b2c	-0.058711216
14	0x3d91bf1a	0.07116528
15	0xbe91293e	-0.28351778
16	0x3bed5553	0.0072428375
17	0x3ce14321	0.02749783
18	0x3e1ef141	0.15521719
19	0x3ea544ab	0.32278952
20	0x3e6fc4bf	0.23414896
21	0x3e7ffab2	0.24997976
22	0x3e97f55e	0.29679388
23	0xbeb2ce84	-0.34923184
24	0x3fb70a9b	1.4300112
25	0xbd9d7bec	-0.07689652
26	0x3ddcc3e2	0.10779549
27	0xbdc9dadd	-0.09856198
28	0x3e3d84b0	0.18507648
29	0xbcbdddff	-0.023177145
30	0xbde838bc	-0.11338946
31	0xbe5ff2b7	-0.21869932
32	0x3f3e63c2	0.7437097
33	0x3eea0ba0	0.45711994
34	0x3ead5642	0.33854872
35	0x3e653272	0.22382525
36	0x3f38c817	0.7218031
37	0x3e11d5ed	0.14241762
38	0x3dfe3fc8	0.12414509
39	0x3e37fb20	0.1796689
40	0x3f0231b6	0.508571
41	0x3dc0079f	0.093764536
42	0xbd7417cd	-0.05959301
43	0x3eb4aa05	0.35285965
44	0x3f89b427	1.0758103
45	0xbe2e39cf	-0.1701424
46	0x3ee9c340	0.45656776
47	0xbe7aac0d	-0.24479695
48	0x3e917dec	0.28416383
49	0x3ee3b828	0.44476438
50	0xbea77c35	-0.3271195
51	0xbd94c819	-0.07264728
52	0x3eb13f15	0.3461844
53	0xbde40d56	-0.11135356
54	0x3d7ecd44	0.062207475
55	0x3e21b865	0.15792997
56	0x3ea0060f	0.31254622
57	0x3cc102dd	0.023560936
58	0x3e57d25a	0.21076337
59	0x3d1219ef	0.035669263
60	0x3f165832	0.58728325
61	0x3d9afb1a	0.07567425
62	0x3d070ce6	0.032971285
63	0x3e7bb5a3	0.24581008
64	0x3ec2a4d9	0.38016394
65	0xbe4639c1	-0.19357969
66	0x3e50e885	0.20401199
67	0x3e0d1963	0.13779216
68	0x3fa563a6	1.2921035
69	0x3ed6560b	0.4186252
70	0x3e14941f	0.14509629
71	0x3e3202f5	0.1738394
72	0x3e7e99e9	0.248634
73	0x3d4e5800	0.050376892
74	0x3d8836ce	0.06651078
75	0xbd93e58e	-0.072215185
76	0x3eb79c38	0.35861373
77	0x3e10dabb	0.14145939
78	0xbdeb216e	-0.114809856
79	0x3d7d54fb	0.06184862
80	0xbdaf4cec	-0.085595936
81	0x3e714f26	0.23565349
82	0xbd92a6a5	-0.07160691
83	0x3df9ff6d	0.12206922
84	0x3e9f020d	0.31056252
85	0xbc23825a	-0.009979809
86	0xbe1b91b5	-0.15192302
87	0xbf1ced96	-0.6130003
88	0x3ec91c50	0.39279413
89	0xbdf7af24	-0.12093952
90	0x3d0d678f	0.03452259
91	0xbbff4fcc	-0.007791495
92	0x3e891d3c	0.26780117
93	0x3e49de36	0.19713673
94	0x3e4da0cb	0.20080869
95	0x3ed9c104	0.42530072
96	0x3d6cb083	0.057785522
97	0xbd840bce	-0.06447564
98	0xbc358483	-0.011078957
99	0xbeab9c6f	-0.33517787
100	0x3fd3e652	1.6554663
101	0xbdee041b	-0.11621877
102	0x3d5f0914	0.054452017
103	0xbdb91a61	-0.090382345
104	0xbebdf48d	-0.3710064
105	0x3db71ca8	0.089410126
106	0x3dc47edb	0.09594508
107	0x3ef381c6	0.47559947
108	0x3ed0bf9e	0.40771192
109	0xbe35fd08	-0.17772305
110	0xbadf1dfb	-0.0017022485
111	0xbd115b7a	-0.03548763
112	0xbe5748c0	-0.21023846
113	0xbe3a084a	-0.18167225
114	0x3c874e48	0.01651682
115	0xbc1a405f	-0.009414761
116	0x3bc3e1d4	0.0059778485
117	0x3e2a1b3d	0.16611953
118	0xbeb83d2f	-0.3598418
119	0x3e9ecf6c	0.31017625
120	0x3e60211e	0.21887633
121	0xbe08b70b	-0.13351075
122	0x3d0fc763	0.03510226
123	0x3ebfeae7	0.37483904
124	0xbe2318e2	-0.15927461
125	0x3d211ee6	0.039336108
126	0x3d93a8c3	0.07209923
127	0xbed3c0a3	-0.41357908
128	0x3f03b054	0.5144093
129	0xbc83cccb	-0.016088864
130	0x3d562894	0.052284792
131	0x3dfcccee	0.12343775
132	0x3e2be681	0.16787149
133	0xbe277390	-0.16352677
134	0x3ba1c0c5	0.00493631
135	0x3f19f6ee	0.6014241
136	0xbe89c43e	-0.26907533
137	0xbae296da	-0.0017287389
138	0xbcb37fd2	-0.021911535
139	0xbe59af5e	-0.21258304
140	0x3f33a8a4	0.701792
141	0xbe13e5df	-0.14443158
142	0xbe3fb394	-0.18720847
143	0x3d91a90c	0.07112321
144	0xbdedb205	-0.1160622
145	0x3c8105ef	0.0157499
146	0x3da13347	0.078711085
147	0x3d9fe483	0.07807257
148	0x3f72ad97	0.9479613
149	0x3dfb1698	0.12260169
150	0x3e1677e2	0.14694169
151	0xbd95ed4f	-0.07320654
152	0x3f920763	1.1408504
153	0xbbf9c2e1	-0.0076221083
154	0x3d788a2b	0.060678642
155	0x3e15554d	0.14583321
156	0xbd947be7	-0.07250195
157	0xbd8c976a	-0.068648174
158	0xbd59bb83	-0.05315734
159	0xbd4efa7d	-0.050531853
160	0x3c1b619c	0.009483721
161	0x3e14902a	0.14508119
162	0x3c315304	0.010823015
163	0x3e58b284	0.21161848
164	0x3f89da85	1.0769812
165	0x3c27264e	0.010202004
166	0x3d2ca87c	0.042152867
167	0x3e4db6a9	0.2008921
168	0xbd812993	-0.06306758
169	0xbcfeb547	-0.0310923
170	0x3c4a037a	0.01232993
171	0xbe41ec88	-0.18937886
172	0x3f1da52f	0.61580175
173	0xbe42f908	-0.1904031
174	0xbdd913b7	-0.105994634
175	0x3d077208	0.033067733
176	0x3f59d6e3	0.85093516
177	0xbe61c2b2	-0.22046927
178	0xbd96fbbd	-0.07372234
179	0x3cd1fc67	0.02563305
180	0xbdffbdb8	-0.12487358
181	0xbe05d823	-0.13070731
182	0xbd4384de	-0.047734134
183	0x3c983374	0.018579222
184	0x3f6559a5	0.8958991
185	0xbc9a2c4d	-0.018819952
186	0x3d94bd2c	0.07262644
187	0xbc93b9fb	-0.018033018
188	0x3e5ccce9	0.21562542
189	0x3d199686	0.037497066
190	0xbd8ac83f	-0.06776475
191	0x3e39e059	0.18151988
192	0x3eb597e1	0.35467437
193	0xbd6adfdc	-0.057342395
194	0xbc52445a	-0.012833679
195	0x3eaadf1e	0.3337335
196	0x3e6f9356	0.23396048
197	0x3da6e9a7	0.081500344
198	0x3d673ff2	0.056457467
199	0x3d8d9755	0.0691363
200	0x3f06c3a2	0.5264226
201	0x3c9138df	0.017727314
202	0x3dec2d18	0.115320385
203	0x3e202673	0.15639667
204	0xbd4e5a88	-0.050379306
205	0x3e2367bd	0.15957542
206	0xbdca844f	-0.09888517
207	0xbd9991a4	-0.07498482
208	0x3e82a194	0.255139
209	0x3da77ba9	0.08177883
210	0x3e647a19	0.22312202
211	0xbe1c6183	-0.15271573
212	0x3d235a5d	0.0398811
213	0x3cfe2ce0	0.031027257
214	0xbe581201	-0.21100618
215	0x3d3a503c	0.045486674
216	0x3ec5d9b3	0.38642654
217	0x3ee531b6	0.4476449
218	0x3dd353a0	0.103186846
219	0xbe0f3153	-0.1398366
220	0x3e7b10dd	0.24518152
221	0xbda74995	-0.081683315
222	0x3df91b78	0.121634424
223	0x3aaa560a	0.0012995612
224	0x3e278e60	0.16362906
225	0x3e6e9964	0.23300701
226	0x3eacbf75	0.3373982
227	0x3e84a70c	0.25908697
228	0x3d00f78c	0.03148608
229	0xbe3146a1	-0.17312099
230	0xbe60d908	-0.21957791
231	0x3e9916af	0.2990012
232	0xbd398bed	-0.04529946
233	0x3a6663ac	0.0008788656
234	0x3e786292	0.24256352
235	0x3caeb21f	0.02132517
236	0x3f1dd136	0.61647356
237	0xbe2900bf	-0.16504191
238	0x3e12c0ea	0.14331403
239	0x3b7b8302	0.0038377647
240	0x3f8807a8	1.0627337
241	0x3d18ac1a	0.037273504
242	0x3e8c5ca5	0.27414432
243	0x3dead969	0.11467249
244	0x3f23dd6a	0.64009726
245	0x3d49bef7	0.049254384
246	0x3db55891	0.08854783
247	0x3ed06306	0.4070055
248	0xbdbfda98	-0.09367865
249	0x3d3a6876	0.045509778
250	0xbd8a9d80	-0.06768322
251	0x3bbede5c	0.005824847
252	0x3dab9cde	0.083795294
253	0xbe442ea3	-0.19158415
254	0xbdbae737	-0.09126132
255	0x3c00a7b0	0.00785248

lstm.weight_hh_l0 f4 [256, 64]
0	0xbe7867c1	-0.24258329
1	0x3cefa232	0.029252145
2	0x3e1eefe8	0.15521204
3	0x3e4ec663	0.20192866
4	0xbed7ac33	-0.42123565
5	0xbd7d6658	-0.06186518
6	0x3d7f05c8	0.062261373
7	0x3dfb4c24	0.12270382
8	0x3df8dc9f	0.12151455
9	0x3dd36258	0.10321492
10	0xbcd22ffe	-0.02565765
11	0x3e79b25d	0.24384446
12	0x3e4e4735	0.20144351
13	0xbd982b8c	-0.07430181
14	0xbe0c6d2d	-0.13713522
15	0xbe3b3eb5	-0.1828564
16	0xbcec4cff	-0.028845308
17	0x3d38c039	0.045105193
18	0x3e6f07d3	0.23342828
19	0xbe027eaf	-0.12743638
20	0xbedd33f5	-0.43203703
21	0xbda88f18	-0.08230418
22	0xbe1f5cf8	-0.15562809
23	0xbc01d0a2	-0.007923277
24	0xbd859523	-0.06522586
25	0xbe1be0e7	-0.15222512
26	0x3ed1de4c	0.40989912
27	0xbe1ac303	-0.15113454
28	0x3e0b5419	0.136063
29	0xbcfe4a4a	-0.031041283
30	0x3e0664fb	0.13124458
31	0xbd19227a	-0.037386395
32	0xbe062db8	-0.13103378
33	0xbe1ebb09	-0.15501036
34	0x3e1e0f53	0.15435533
35	0x3e0b749c	0.13618702
36	0xbdb1e6a9	-0.08686573
37	0xbdc8a45a	-0.097969726
38	0x3db45b5c	0.08806488
39	0x3d797595	0.06090315
40	0xbe19059d	-0.14943548
41	0x3da22b0d	0.079183675
42	0x3ee011cd	0.4376358
43	0x3e780e1b	0.24224131
44	0x3e536362	0.2064338
45	0xbdb76d1d	-0.089563586
46	0xbddfebd0	-0.109336495
47	0xbdf0a212	-0.117496625
48	0xbddfaea7	-0.10921984
49	0xbbdc1dc1	-0.006717414
50	0x3e0be0c8	0.13659966
51	0x3e5911be	0.21198174
52	0xbda00527	-0.07813483
53	0x3e6efa10	0.23337579
54	0x3d508384	0.050906673
55	0x3cc05313	0.023477113
56	0xbe4e0226	-0.20118007
57	0x3e31f2eb	0.17377822
58	0x3e3b9d8a	0.18321815
59	0xbe827519	-0.25479963
60	0x3db33e20	0.08752084
61	0x3dc01f1d	0.093809344
62	0xbb02dad8	-0.0019966867
63	0x3db88626	0.09009962
64	0x3d89260b	0.06696709
65	0x3b345295	0.0027515043
66	0x3e49a454	0.19691592
67	0x3cc5dab8	0.024152145
68	0xbe59cfba	-0.21270648
69	0xbc3d3b7d	-0.011549828
70	0x3d98b90b	0.07457169
71	0xbe081079	-0.13287534
72	0x3d82ebac	0.06392607
73	0x3e5818ef	0.21103261
74	0x3e89fb5c	0.26949584
75	0xbda43b49	-0.0801912
76	0xbcc148ca	-0.023594279
77	0x3c5d6725	0.013513361
78	0x3e379346	0.17927274
79	0xbdf58729	-0.119886704
80	0x3ecd4c19	0.4009712
81	0x3ea1f67b	0.31633362
82	0x3d9ad987	0.07561021
83	0x3d4e94b5	0.050434787
84	0xbe3fbacc	-0.18723601
85	0xbdcea01c	-0.10089132
86	0x3dce1847	0.10063224
87	0x3d3da040	0.046295404
88	0xbe4190d7	-0.18902908
89	0xbe84e7d4	-0.2595812
90	0x3dbeebfb	0.093223535
91	0x3d2e49e4	0.042550936
92	0xbceec8d7	-0.029148502
93	0xbd9ae552	-0.07563271
94	0x3d32ac6d	0.04362147
95	0xbe01875c	-0.12649292
96	0xbc8f2600	-0.017474174
97	0xbda580ca	-0.08081205
98	0x3d290a46	0.041269563
99	0x3cae6a8b	0.021291038
100	0x3dc37cb4	0.095452696
101	0x3ddd5851	0.10807861
102	0x3d318276	0.043337308
103	0xbd58c525	-0.052922387
104	0xbf1097ae	-0.56481445
105	0x3e617a22	0.22019246
106	0x3c33781b	0.010953928
107	0x3ce0fa81	0.0274632
108	0x3ea52079	0.32251337
109	0xbdd643d5	-0.10462157
110	0x3c13d814	0.009023685
111	0xbd8124c5	-0.06305841
112	0x3cdfdc6a	0.027326781
113	0xbd54dd4a	-0.05196885
114	0xbd87372e	-0.066023216
115	0x3e33fd22	0.17577031
116	0x3de2c354	0.11072412
117	0xbd22d406	-0.039752983
118	0xbe490bb8	-0.19633377
119	0x3df439c4	0.119250804
120	0x3b5f63b5	0.003408653
121	0x3cf9840c	0.030458473
122	0xbd474251	-0.04864723
123	0xbe1ed9e2	-0.15512803
124	0x3e88dbfc	0.26730335
125	0xbde2ffad	-0.110839225
126	0xbf0f0d77	-0.5587992
127	0x3d45dbef	0.04830545
128	0x3e3a70c3	0.18207078
129	0xbbb353b5	-0.005472625
130	0x3d998c70	0.074974895
131	0xbd3267f6	-0.043556176
132	0x3e9d7865	0.30755916
133	0x3ee24117	0.44190285
134	0xbe3c752c	-0.18404073
135	0xbed666b0	-0.4187522
136	0x3e7e3ee8	0.24828684
137	0x3e100482	0.1406422
138	0xbdf510d2	-0.11966099
139	0x3e21ba52	0.15793732
140	0xbe24d31a	-0.16096154
141	0xbedb7aa1	-0.42866996
142	0xbda94ef5	-0.08267013
143	0x3e90a2e0	0.28249264
144	0x3e8fc4be	0.2807979
145	0xbc2da02c	-0.01059727
146	0x3ed68ef5	0.41905943
147	0xbda58655	-0.080822624
148	0x3df191d8	0.117953956
149	0x3eb7fac7	0.35933515
150	0xbe7c691f	-0.24649476
151	0xbe4adc1c	-0.19810528
152	0x3e286c6d	0.16447611
153	0xbe3512bb	-0.17682926
154	0x3dc28ce9	0.09499533
155	0xbd833dca	-0.0640827
156	0xbec6b8f9	-0.38812998
157	0x3d8bb406	0.06821446
158	0x3e843439	0.25821093
159	0x3e5a8fe3	0.21343951
160	0xbde7cb36	-0.11318056
161	0xbe1d016b	-0.15332572
162	0xbdc70e69	-0.097195454
163	0xbdb04d8f	-0.08608543
164	0x3deb3333	0.11484375
165	0x3efb4370	0.49074888
166	0xbd18af52	-0.037276573
167	0xbe456074	-0.19275075
168	0x3f95a667	1.1691407
169	0xbc76377a	-0.015027875
170	0x3e6423aa	0.2227923
171	0x3e0f97d8	0.14022768
172	0xbd22f47f	-0.03978395
173	0x3cc71e5b	0.024306467
174	0x3d2b41d1	0.041810814
175	0xbc6b0dc1	-0.014346541
176	0xbda5018e	-0.08056937
177	0x3e2266d0	0.15859532
178	0xbe203898	-0.15646589
179	0xbe3f5fc3	-0.18688874
180	0x3e1c7f92	0.15283039
181	0xbe427c98	-0.18992841
182	0xbb220d44	-0.0024727145
183	0xbd4fceb9	-0.050734255
184	0x3e5c76da	0.21529713
185	0xbe392408	-0.18080151
186	0x3e6ed9a1	0.23325206
187	0x3dabf48d	0.08396254
188	0xbed6f96a	-0.41987163
189	0x3d3d5dc6	0.046232007
190	0x3f0f4c52	0.5597583
191	0x3e882b13	0.26595363
192	0x3f023b67	0.5087189
193	0x3f0bdc84	0.54633355
194	0xbf10daa2	-0.5658361
195	0x3e32a730	0.1744659
196	0x3e5668a6	0.20938358
197	0x3db152cd	0.08658371
198	0xbe8a882c	-0.27057016
199	0xbe204712	-0.15652111
200	0xbdfcd2de	-0.12344907
201	0xbf030cd4	-0.5119145
202	0xbec695e7	-0.3878624
203	0x3da64dd1	0.08120311
204	0xbd628109	-0.05529884
205	0x3ebd846b	0.3701509
206	0xbd7e63be	-0.06210684
207	0xbeb0b647	-0.34514067
208	0x3e84174b	0.2579902
209	0xbf2aa9a9	-0.6666513
210	0xbe88ecdb	-0.26743206
211	0x3db08f21	0.0862105
212	0x3d3b4741	0.04572225
213	0xbec1757f	-0.37784955
214	0x3e3a287a	0.18179503
215	0x3dce5ce7	0.100763135
216	0xbe66daa4	-0.22544342
217	0x3f317177	0.6931376
218	0xbc84f9c5	-0.01623238
219	0x3de5a51a	0.11213131
220	0x3dd43987	0.10362535
221	0x3e4de536	0.20106968
222	0xbd91508b	-0.070954405
223	0xbe22b314	-0.15888625
224	0xbd8d19c4	-0.0688968
225	0xbd3993ae	-0.045306854
226	0x3d9bb4d5	0.0760285
227	0xbdde3d5d	-0.10851548
228	0x3e2f1dce	0.17101213
229	0xbf35827a	-0.70902216
230	0xbe06fdaa	-0.13182703
231	0xbe7d835e	-0.24757144
232	0xbd8d8f7b	-0.06912132
233	0xbf17ada8	-0.59249353
234	0xb801edce	-3.097747e-05
235	0xbde761fb	-0.11297985
236	0xbb60fe85	-0.0034331393
237	0xbdf6f00e	-0.120575055
238	0x3e9bd2a7	0.30434152
239	0x3e8c8663	0.2744628
240	0x3c8c9071	0.017158719
241	0x3ea3cdbb	0.31992897
242	0xbe05a595	-0.13051446
243	0x3ed2e3cf	0.4118943
244	0x3ed98ef5	0.4249188
245	0x3bebdcbc	0.0071979444
246	0xbccb4e30	-0.024817556
247	0x3e7b41de	0.24536845
248	0xbed517e1	-0.4161978
249	0xbe5403b1	-0.20704533
250	0x3d9d3882	0.07676794
251	0xbdc17e2d	-0.09447894
252	0x3e4b2d8c	0.19841594
253	0xbe10da35	-0.1414574
254	0xbe835c68	-0.25656438
255	0x3cab6d20	0.020926058

lstm.bias_ih_l0 f4 [256]
0	0xbce067ef	-0.02739331
1	0xbe5bb25e	-0.2145476
2	0xbe1c1d90	-0.15245652
3	0xbe50de1a	-0.20397225
4	0xbe200dc4	-0.15630251
5	0xbe03d762	-0.12875131
6	0xbd914d4b	-0.070948206
7	0xbd80f6df	-0.06297087
8	0xbeab0fb2	-0.33410412
9	0xbe0eae55	-0.1393369
10	0xbe4b2cd4	-0.1984132
11	0xbe672b8a	-0.22575203
12	0xbd32df67	-0.043670084
13	0xbdee4a71	-0.11635292
14	0x3d211531	0.03932685
15	0x3dada48b	0.0847865
16	0xbdef3d62	-0.1168163
17	0xbd4ee23a	-0.050508715
18	0xbd46b75c	-0.04851471
19	0x3dbb8051	0.09155334
20	0x3dfc94e1	0.12333084
21	0xbd89306c	-0.06698689
22	0x3e1b8da0	0.15190744
23	0xbdac770e	-0.084211454
24	0xbdb561d0	-0.08856547
25	0xbe069b9c	-0.13145298
26	0xbe047730	-0.12936091
27	0x3e5545ff	0.20827483
28	0xbe8f3bb9	-0.27975252
29	0x3e7b0c8b	0.24516504
30	0xbdb65f3d	-0.08904884
31	0x3de970b9	0.11398453
32	0x3cf06ada	0.029347826
33	0x3e87af76	0.26501054
34	0xbc1742e3	-0.009232256
35	0xbd116a1b	-0.03550158
36	0xbe0a77d3	-0.13522272
37	0xbe398b74	-0.18119603
38	0xbc5ae8c1	-0.013361157
39	0x39359897	0.0001731835
40	0xbe2be9ba	-0.16788378
41	0xbe779abb	-0.24180119
42	0xbd93546a	-0.07193835
43	0xbd82b618	-0.06382388
44	0xbe678d24	-0.22612435
45	0xbda757eb	-0.08171066
46	0xbdd8f1ef	-0.1059302
47	0x3e002895	0.12515481
48	0xbbde2aec	-0.006780019
49	0xbe07e2c9	-0.13270105
50	0x3db3e6c2	0.08784248
51	0xbe02b4f5	-0.12764342
52	0x3e9f6bea	0.3113702
53	0x3cc9d230	0.024636358
54	0x3dc428b1	0.09578074
55	0x3e296180	0.165411
56	0xbec6660b	-0.38749728
57	0x3dcca20a	0.09991844
58	0x3dcc5987	0.099780135
59	0x3dc78ad2	0.09743275
60	0x3c181e12	0.009284513
61	0xbd60fee3	-0.05493058
62	0x3bdef950	0.0068046227
63	0xbd399f92	-0.045318194
64	0xbd84e495	-0.06488911
65	0xbdd6e838	-0.10493511
66	0x3d6aae80	0.057295322
67	0x3d126057	0.035736408
68	0x3e125629	0.1429068
69	0x3de9ad33	0.11409988
70	0x3e5f2071	0.21789719
71	0xbddcf308	-0.10788542
72	0xbe952083	-0.29126367
73	0xbe2c6200	-0.16834259
74	0xbeb09ed4	-0.34496176
75	0xbd7e70b9	-0.06211922
76	0x3d2298c4	0.03969647
77	0xbe88ef2a	-0.26744968
78	0xbade7415	-0.0016971851
79	0xbda8e888	-0.08247477
80	0x3e23f88e	0.16012785
81	0x3ce08b19	0.027410077
82	0xbd1e0fbf	-0.038589235
83	0x3ddcf985	0.107897796
84	0x3c7affc3	0.015319767
85	0x3e918170	0.28419065
86	0xbd1b1e2d	-0.037870575
87	0xbd68aadf	-0.05680358
88	0xbdbd5fec	-0.09246811
89	0xbdd34a22	-0.10316874
90	0x3d37d944	0.044884935
91	0x3cec30b3	0.028831815
92	0x3c6e686f	0.014551266
93	0x3e8690da	0.26282388
94	0xbc6de6bb	-0.014520342
95	0x3e8815c1	0.26579097
96	0xbd2e60ed	-0.042572904
97	0x3df88f7e	0.12136744
98	0x3e2b467b	0.16726105
99	0xbe5d4e4e	-0.21611902
100	0xbcf8a569	-0.030352311
101	0xbe05a1c5	-0.13049991
102	0xbccdcbce	-0.025121596
103	0xbe04bab0	-0.1296184
104	0x3de91e79	0.11382765
105	0xbdb6f91a	-0.08934231
106	0xbdd05015	-0.101715244
107	0xbd08aef3	-0.03336997
108	0xbe559858	-0.20858896
109	0x3d60b3f3	0.054859113
110	0x3d91e04e	0.07122861
111	0xbcd35849	-0.025798934
112	0x3be8db6e	0.007106236
113	0xbe828e66	-0.25499266
114	0x3d592c68	0.053020865
115	0x3d15fcb2	0.036617942
116	0x3dbe410c	0.092897505
117	0x3dc77ba2	0.09740378
118	0x3e2680e1	0.16260101
119	0x3e7184a0	0.23585749
120	0xbdc8be11	-0.09801877
121	0x3e8c9bd9	0.27462652
122	0x3e0e3bad	0.13889952
123	0xbd0eadd8	-0.03483376
124	0xbe89f123	-0.26941785
125	0xbd150a47	-0.036386754
126	0xbbe93056	-0.007116358
127	0x3e493f33	0.19653015
128	0xbbcd756b	-0.006270101
129	0xbe2b6ca2	-0.16740659
130	0xbd9652bf	-0.07340001
131	0x3e3d515b	0.18488066
132	0xbd91a0e7	-0.07110768
133	0x3e0e39db	0.13889258
134	0x3dfd5a8f	0.12370788
135	0x3d6fd6c5	0.05855443
136	0xbc9e794f	-0.019344954
137	0x3dccdb1a	0.10002728
138	0x3bfd8eee	0.007737986
139	0x3d43a5f3	0.047765683
140	0x3da59910	0.08085835
141	0xbbb9d618	-0.005671274
142	0xbe6fc6b9	-0.2341565
143	0x3e061188	0.13092625
144	0xbe528b14	-0.20560867
145	0xbd3c2e1e	-0.04594242
146	0xbdf11235	-0.11771051
147	0xbe59f4f3	-0.21284847
148	0xbdad9f0a	-0.084776
149	0x3d97ccc5	0.074121036
150	0xbd6b450c	-0.057438895
151	0xbca614af	-0.020273535
152	0x3c33ddd4	0.010978181
153	0xbdf538ab	-0.11973699
154	0x3d8fe437	0.070259504
155	0xbd9bec65	-0.07613448
156	0xbceaa30e	-0.028642204
157	0xbea948a3	-0.3306323
158	0x3dba6eb8	0.09103149
159	0x3d716311	0.058932368
160	0xbe50e5e1	-0.20400192
161	0x3e962dfc	0.29331958
162	0xbd862843	-0.06550648
163	0x3e093aa4	0.13401276
164	0xbd053521	-0.03252137
165	0x3e098b33	0.13432007
166	0x3e9aa2ec	0.30202425
167	0x3de33377	0.110938005
168	0xbcbbae55	-0.022910276
169	0x3cf9b468	0.030481532
170	0x3d856d39	0.06514973
171	0x3e53bbd9	0.20677127
172	0x3c6270de	0.013820855
173	0x3cc83497	0.02443914
174	0xbe1db822	-0.15402272
175	0xbda35e9d	-0.079770304
176	0xbe158a5a	-0.14603558
177	0xbdd5a09c	-0.104310244
178	0x3e203a66	0.15647277
179	0xbd2cb146	-0.04216125
180	0xbe0e4b54	-0.13895923
181	0x3dbc5b63	0.09197118
182	0x3d735704	0.059409156
183	0xbe8d20ac	-0.2756399
184	0x3e01dfd8	0.12683046
185	0x3d8847b0	0.06654298
186	0xbb79af74	-0.0038098963
187	0x3e0a24ff	0.13490675
188	0xbe43e246	-0.19129285
189	0x3e1b6e50	0.151788
190	0x3e5c41e6	0.21509513
191	0xbd4271b8	-0.047471732
192	0x3d99a29d	0.07501719
193	0x3e03d9cc	0.12876052
194	0xbd56aba0	-0.052409768
195	0x3c3ae334	0.0114067085
196	0xbd7697d4	-0.06020339
197	0xbd187064	-0.03721656
198	0x3e93cc68	0.28866887
199	0x3d13e9b0	0.036111534
200	0xbc95aedc	-0.018271856
201	0xbd909b4d	-0.07060871
202	0xbdfa4185	-0.12219528
203	0x3dee14a2	0.11625029
204	0x3dd985b8	0.10621208
205	0xbddb8bb0	-0.10720003
206	0x3e07d666	0.1326538
207	0x3d4016c7	0.046896722
208	0xbd754b7d	-0.059886444
209	0xbdffcd4c	-0.12490329
210	0x3cdd6899	0.027027415
211	0x3e183f5f	0.14867924
212	0x3dc76457	0.09735935
213	0x3d8c6ab4	0.068562895
214	0xbd1b44ab	-0.037907284
215	0xbd82146b	-0.06351551
216	0x3dea6ae0	0.11446166
217	0x3e07547b	0.1321582
218	0x3d818d58	0.06325787
219	0x3e89f2bd	0.26943007
220	0x3e1bc691	0.15212466
221	0x3e973f57	0.29540512
222	0xbeb466fb	-0.35234818
223	0x3cb5ed96	0.022208016
224	0xbd869a73	-0.065724276
225	0x3e4d60f5	0.20056517
226	0x3eacd5ca	0.33756858
227	0x3e4fa4dd	0.20277734
228	0xbb15bcc1	-0.0022848102
229	0xbaa5c75a	-0.0012647912
230	0x3ea1fff5	0.31640592
231	0xbdc4d0e1	-0.09610153
232	0x3c7b91d0	0.015354589
233	0x3da174e9	0.07883627
234	0xbd15200b	-0.03640751
235	0xbcce2814	-0.025165595
236	0x3d3a095a	0.045419075
237	0xbdeeba8e	-0.11656676
238	0x3ad599ac	0.0016296408
239	0xbd4356b7	-0.04769012
240	0x3dc92a89	0.09822566
241	0xbc77619d	-0.015098956
242	0x3d007b38	0.03136751
243	0xbd9ca026	-0.076477334
244	0xbcfd46ff	-0.030917643
245	0x3d86fe3e	0.065914616
246	0xbca176c3	-0.01970995
247	0xbb8de214	-0.004329929
248	0x3c3d0907	0.011537797
249	0x3da311bb	0.07962366
250	0xbe0512c1	-0.12995435
251	0xbe31dc0b	-0.17369096
252	0x3e0cef0a	0.13763061
253	0x3dd2acd9	0.10286874
254	0xbb823521	-0.0039736186
255	0xbe5af2bb	-0.21381657

lstm.bias_hh_l0 f4 [256]
0	0xbe1c4794	-0.1526168
1	0xbe33212d	-0.17493124
2	0xbd4b53e1	-0.04964054
3	0xbd970da6	-0.0737565
4	0xbdff9b3f	-0.12480783
5	0xbc023db6	-0.007949283
6	0x3df94f36	0.121733114
7	0xbdb7073d	-0.089369275
8	0xbe57d23b	-0.2107629
9	0xbe15e2f0	-0.14637351
10	0xbe873d82	-0.26414114
11	0xbda4af01	-0.08041192
12	0x3da83aa4	0.0821431
13	0xbe04c431	-0.12965466
14	0x3d706b0f	0.05869585
15	0x3df3df28	0.11907798
16	0xbd989e98	-0.07452124
17	0xbdcbee0d	-0.09957514
18	0x3d9ddb4c	0.07707843
19	0x3e315118	0.17316091
20	0x3d9195ea	0.07108672
21	0xbe0f3474	-0.13984853
22	0x3d0ed2f6	0.034869157
23	0x3c98dae2	0.018659059
24	0xbda2dae8	-0.07951909
25	0xbd614d7c	-0.055005535
26	0x3d6df4a5	0.05809464
27	0x3e2d61b0	0.16931796
28	0xbd3688a1	-0.044563893
29	0x3e7bdc90	0.24595857
30	0xbd8aa589	-0.067698546
31	0x3d53642a	0.051609196
32	0xbd84e3d7	-0.064887695
33	0x3d88fbf6	0.06688683
34	0xbcce5ad4	-0.025189795
35	0x3e05cf49	0.13067354
36	0xbd9a62da	-0.07538386
37	0xbc9b7684	-0.018977411
38	0xbe188b74	-0.14896947
39	0xbde0e1ef	-0.109805934
40	0x3d1fc6f7	0.039008107
41	0xbe98234b	-0.29714426
42	0xbca42c11	-0.020040544
43	0xbcd9c2ce	-0.026582148
44	0xbd04791d	-0.032342065
45	0xbb952e8e	-0.004552669
46	0xbe5aa2fe	-0.21351239
47	0x3c9de470	0.019273967
48	0x3942067d	0.00018503699
49	0xbd92b8d2	-0.07164158
50	0xbd1dd961	-0.038537387
51	0xbc7c97cd	-0.0154170515
52	0x3d9af778	0.07566732
53	0xbce2ef5a	-0.027702022
54	0x3e2b995b	0.16757719
55	0x3dd0aa7e	0.10188769
56	0xbe7638e3	-0.24045138
57	0x3cab7cfa	0.020933617
58	0x3e0fd1dd	0.140449
59	0x3d993c1b	0.07482167
60	0x3dbdc5e1	0.09266258
61	0x3bd53adf	0.006507262
62	0x3dfefa81	0.124501236
63	0xbd8b4dcc	-0.06801948
64	0xbdb046dc	-0.08607265
65	0xbd27a6f5	-0.040930707
66	0xbdbc6948	-0.09199768
67	0xb97baf1e	-0.00024002462
68	0x3e36206f	0.1778581
69	0x3d3e2d58	0.046429962
70	0x3d264d70	0.040601194
71	0x3c48f88d	0.01226629
72	0xbe090835	-0.13382037
73	0xbe64a57f	-0.22328757
74	0xbea7516b	-0.32679304
75	0x3e15fc86	0.14647111
76	0x3cec280d	0.028827691
77	0xbe6972e5	-0.22797735
78	0x3db5fbc8	0.08885914
79	0xbbd142f7	-0.0063861567
80	0x3e356b8b	0.17716806
81	0x3dd9c555	0.10633341
82	0xbdac7705	-0.08421139
83	0x3dcaf2b1	0.09909571
84	0x3de5a9b6	0.112140104
85	0x3e7ac9a9	0.2449099
86	0x3b7addf8	0.0038279276
87	0xbe8ed489	-0.27896526
88	0xbe045b3d	-0.1292543
89	0xbe166839	-0.14688195
90	0xbe1056d0	-0.14095616
91	0x3e401ef3	0.18761806
92	0xbcf23abe	-0.029569026
93	0x3ea141d0	0.31495523
94	0x3dcdef18	0.10055369
95	0x3e9515e5	0.29118267
96	0x3d05c8b6	0.032662116
97	0x3dc4d3f4	0.09610739
98	0x3e5705a8	0.20998251
99	0xbe30c74a	-0.17263523
100	0xbc744213	-0.014908331
101	0xbdf54a04	-0.11977008
102	0xbd492571	-0.049107973
103	0xbe50682c	-0.20352238
104	0x3e01ab18	0.12662923
105	0xbe14cd96	-0.1453155
106	0xbdeddbd1	-0.11614192
107	0xbd74515d	-0.059647907
108	0xbe375418	-0.17903173
109	0x3d942065	0.07232741
110	0xbb9bc356	-0.0047535105
111	0xbe41db05	-0.18931206
112	0x3e259913	0.16171674
113	0xbeb0321b	-0.34413227
114	0x3d2e1479	0.042499993
115	0x3de8216c	0.113345
116	0x3e479d1b	0.19493525
117	0x3e2a8ca4	0.16655213
118	0xbcebddb6	-0.028792243
119	0x3ddaa027	0.10675078
120	0xbe5abc73	-0.2136095
121	0x3e8d1051	0.2755151
122	0x3d3305e5	0.043706793
123	0xbdf3d8ae	-0.11906563
124	0xbdd1f9eb	-0.10252746
125	0xbdc76971	-0.09736908
126	0x3e70dd51	0.23521926
127	0x3e39ef03	0.18157582
128	0xbde3992c	-0.111131996
129	0xbe1df266	-0.15424499
130	0x3c60a33a	0.013710791
131	0x3e5e7391	0.21723773
132	0xbd9dc2b2	-0.07703151
133	0x3dda2312	0.106512204
134	0x3e68b949	0.2272693
135	0xbdd3ab19	-0.10335369
136	0x3dc3134d	0.09525166
137	0x3d37cd64	0.04487361
138	0x3e328648	0.17434037
139	0xbd3597c0	-0.044334173
140	0x3dd5def7	0.10442918
141	0xbdf7b5f6	-0.12095253
142	0xbe409a7e	-0.18808934
143	0x3da3fa6f	0.08006751
144	0xbe21e8f4	-0.15811521
145	0x3d3e6d4e	0.04649096
146	0x3d5ea43a	0.054355837
147	0xbc676171	-0.014122353
148	0x3cd01f02	0.02540541
149	0x3e02e700	0.12783432
150	0xbe1b40c9	-0.15161432
151	0x3b65f33f	0.0035087613
152	0xbd914d54	-0.07094827
153	0xbdbef96b	-0.093249165
154	0xbdd84886	-0.10560708
155	0xbe1f8ec6	-0.15581807
156	0xbdd51f2a	-0.10406335
157	0xbe9116f9	-0.2833784
158	0x3d0d2708	0.03446105
159	0x3da9a99c	0.082843035
160	0xbe58168c	-0.21102351
161	0x3e3cd263	0.18439631
162	0xbcf562aa	-0.029954273
163	0xbc089f6f	-0.008338793
164	0xbd9b4204	-0.07580951
165	0x3d92b1bb	0.07162806
166	0x3ea95475	0.33072248
167	0x3e0ab4ee	0.13545582
168	0x3e4f1a6c	0.20224923
169	0x3e41836c	0.1889779
170	0xbca42e07	-0.020041479
171	0x3d75d390	0.060016215
172	0x3e139703	0.14413075
173	0xbd8e1240	-0.06937075
174	0xbdd84f8e	-0.10562049
175	0x3ca37701	0.019954206
176	0xbdcb1971	-0.09916962
177	0xbda8b4f1	-0.08237637
178	0x3e32a782	0.17446712
179	0xbe6811b3	-0.22663002
180	0xbd4f7f7f	-0.0506587
181	0x3cca7c05	0.02471734
182	0x3e7b2be1	0.24528457
183	0xbe160c91	-0.14653231
184	0x3d16757a	0.036733128
185	0xbd00e673	-0.031469774
186	0x397b1928	0.00023946597
187	0x3d4900cb	0.04907302
188	0xbe0d32a5	-0.1378885
189	0x3e134fec	0.14385957
190	0x3e02e7d4	0.12783748
191	0xbc4956ff	-0.012288808
192	0xbd51435c	-0.05108963
193	0x3d791777	0.060813393
194	0x3d628a4a	0.055307664
195	0xbdaa7a75	-0.08324138
196	0x3e0bee50	0.13665128
197	0x3d8743cd	0.06604729
198	0x3ea7c36e	0.3276629
199	0xbd02cda6	-0.031934403
200	0x3d1859b9	0.03719494
201	0x3d9d19ca	0.076709345
202	0xbe2de31c	-0.16981167
203	0x3e48fbeb	0.19627349
204	0x3df34395	0.118781246
205	0xbe829e64	-0.25511467
206	0x3d859297	0.065221004
207	0xbc08a757	-0.008340678
208	0xbcf0fe27	-0.029418064
209	0xbdb0be12	-0.08630003
210	0xbbd3d98c	-0.0064651426
211	0x3e0bca1b	0.13651316
212	0xbd2aac10	-0.041667998
213	0x3e2d0cd4	0.16899425
214	0x3d5d34e5	0.054005522
215	0x3d8072cb	0.06271895
216	0x3e1a2916	0.15054736
217	0x3ce8812f	0.028381912
218	0x3c8c673d	0.017139072
219	0x3de01fb0	0.10943544
220	0x3debf27b	0.11520859
221	0x3e8d9fd5	0.27661005
222	0xbeae3538	-0.34024978
223	0x3e24a7fc	0.16079706
224	0xbd00442f	-0.031315025
225	0x3ed972da	0.42470437
226	0x3eab78ea	0.33490688
227	0x3e8825db	0.2659138
228	0xbe490af9	-0.19633092
229	0xbdd4dc57	-0.10393589
230	0x3e8abbd4	0.27096426
231	0xbd29d3c4	-0.04146172
232	0x3de15f68	0.110045254
233	0x3dcf5816	0.10124223
234	0xbe11f5b7	-0.14253889
235	0x3d2e9530	0.042622745
236	0xbd261299	-0.04054508
237	0x3c40eba7	0.011774934
238	0x3c08f1c4	0.008358423
239	0x3dbfd776	0.09367268
240	0x3dc1d83a	0.0946507
241	0x3dba8329	0.09107048
242	0x3e2dcbcf	0.16972278
243	0x3d94aeb9	0.07259888
244	0x3e1491b5	0.14508708
245	0xbd46157a	-0.048360325
246	0xbd608bc8	-0.054820806
247	0xbdf012a8	-0.117223084
248	0xbdb9c2c4	-0.09070352
249	0x3e5934f1	0.21211602
250	0xbd8c58a5	-0.06852845
251	0xbdd30c64	-0.10305098
252	0x3d8c6405	0.06855015
253	0x3dc15a87	0.09441095
254	0x3df42eea	0.11923011
255	0xbdbc52a7	-0.09195452

head.weight f4 [24, 64]
0	0xc1b7fed0	-22.99942
1	0xc1b7b4be	-22.963253
2	0x41b7aa91	22.958284
3	0xc0f61070	-7.6895065
4	0xc15a485a	-13.642664
5	0x4104991a	8.287378
6	0x41b6ef93	22.86698
7	0xc16923fc	-14.571285
8	0x418a820c	17.3135
9	0x41b8f6a7	23.120436
10	0x41b80257	23.001143
11	0x4079203d	3.8925927
12	0x41b65ae7	22.794386
13	0xc1b7e0c6	-22.984753
14	0xc1b7d981	-22.981203
15	0x41b7597a	22.91869
16	0xc19dcf30	-19.726166
17	0x41b4e284	22.610603
18	0x41b7c470	22.970917
19	0xc1b79718	-22.948776
20	0xc1b72a2b	-22.89559
21	0x41b6e5ea	22.862263
22	0xc1b726a8	-22.893875
23	0xc1b890c1	-23.07068
24	0x40a06567	5.012378
25	0xc1b7be47	-22.967909
26	0x4180fc09	16.123064
27	0xc1b6bc4b	-22.84194
28	0xc1829831	-16.324312
29	0xc1b7b5b9	-22.963732
30	0x41959ea6	18.702465
31	0x413526e1	11.321992
32	0xc1b72102	-22.891117
33	0x41b6bc75	22.84202
34	0xc1b158c0	-22.168335
35	0x41b7b3a7	22.96272
36	0xc15d3389	-13.825082
37	0x41b6f0e0	22.867615
38	0x41b785f1	22.940401
39	0x415b48b8	13.705254
40	0x41b848bd	23.035517
41	0x41b8c3b5	23.09556
42	0x41b7f7e5	22.996042
43	0x41b7894c	22.94204
44	0x41b7b995	22.965616
45	0x415b2344	13.69611
46	0xc1b7e2a9	-22.985674
47	0xc1b8c48d	-23.095972
48	0xc1b812b2	-23.009129
49	0xc1b773da	-22.931568
50	0x41b8883d	23.066523
51	0xc1b66440	-22.79895
52	0xc15becfc	-13.7453575
53	0xc1b7dffa	-22.984364
54	0x41731830	15.193405
55	0xc1b76bd8	-22.927658
56	0x41b2e431	22.361422
57	0x41b6a251	22.829256
58	0xc15dbce5	-13.858617
59	0x41b78907	22.941908
60	0xc15d8fe2	-13.847628
61	0x41b83be9	23.029253
62	0x41b68282	22.813725
63	0x41b80353	23.001623
64	0xc1b7bdec	-22.967735
65	0xc1b7fa67	-22.997267
66	0x41b6a7a0	22.831848
67	0xc0ea11aa	-7.3146563
68	0xc15d8cfe	-13.846922
69	0x4105e579	8.368524
70	0x41b7c921	22.973207
71	0xc16aa771	-14.665879
72	0x4189d4dc	17.228935
73	0x41b7b79b	22.964651
74	0x41b89f15	23.077677
75	0x407f27b8	3.9867992
76	0x41b6e711	22.862825
77	0xc1b6f8e0	-22.871521
78	0xc1b79760	-22.948914
79	0x41b80dbf	23.006712
80	0xc19e6d56	-19.803387
81	0x41b65f75	22.79661
82	0x41b6f620	22.870178
83	0xc1b84aa9	-23.036455
84	0xc1b7e52c	-22.9869
85	0x41b7fa9e	22.997372
86	0xc1b7efa6	-22.992016
87	0xc1b8b9d8	-23.090744
88	0x40a42131	5.1290517
89	0xc1b74607	-22.909193
90	0x41821f39	16.265245
91	0xc1b80337	-23.00157
92	0xc182dfd4	-16.359291
93	0xc1b6282f	-22.76962
94	0x4194da07	18.606459
95	0x4136103f	11.378966
96	0xc1b6cb6e	-22.84933
97	0x41b6edcd	22.866114
98	0xc1b0db34	-22.107033
99	0x41b7caab	22.973959
100	0xc15acc34	-13.674854
101	0x41b83bc8	23.02919
102	0x41b7e5b5	22.987162
103	0x415b270b	13.697032
104	0x41b6f95b	22.871756
105	0x41b8a9ec	23.08297
106	0x41b6a0ad	22.828455
107	0x41b851a2	23.03986
108	0x41b6d7ae	22.855312
109	0x415bc50f	13.73561
110	0xc1b6f783	-22.870855
111	0xc1b895eb	-23.073202
112	0xc1b714e1	-22.885195
113	0xc1b8c7ff	-23.097654
114	0x41b6f5e1	22.870058
115	0xc1b7f8ff	-22.99658
116	0xc15dd714	-13.865009
117	0xc1b7e950	-22.988922
118	0x41713f61	15.077973
119	0xc1b8460c	-23.034203
120	0x41b34ba0	22.411926
121	0x41b7faae	22.997402
122	0xc15e7828	-13.904335
123	0x41b87ada	23.059986
124	0xc15e3383	-13.887576
125	0x41b791e8	22.946243
126	0x41b7aaaa	22.958332
127	0x41b70af3	22.880346
128	0xc1b7fb00	-22.997559
129	0xc1b790e2	-22.945744
130	0x41b7b37a	22.962635
131	0xc0db2e4f	-6.849403
132	0xc15ad5ec	-13.677227
133	0x410838d4	8.513874
134	0x41b7f14e	22.992825
135	0xc1683973	-14.514026
136	0x41897fd1	17.18741
137	0x41b882b3	23.063818
138	0x41b7a05e	22.953304
139	0x40830d09	4.095341
140	0x41b7b806	22.964855
141	0xc1b8a84e	-23.08218
142	0xc1b6c008	-22.843765
143	0x41b7f805	22.996103
144	0xc19e06a8	-19.75325
145	0x41b522af	22.641935
146	0x41b8a323	23.079657
147	0xc1b6a318	-22.829636
148	0xc1b86ef4	-23.054176
149	0x41b68aee	22.817837
150	0xc1b75bcb	-22.91982
151	0xc1b8e115	-23.109903
152	0x40a00be7	5.001453
153	0xc1b6d30c	-22.85305
154	0x41821011	16.257845
155	0xc1b811ba	-23.008656
156	0xc1835896	-16.418255
157	0xc1b706d3	-22.878332
158	0x41947f31	18.562105
159	0x41367f10	11.406021
160	0xc1b760a5	-22.92219
161	0x41b73056	22.898602
162	0xc1b1e6b8	-22.237656
163	0x41b8668a	23.050068
164	0xc15e2d9a	-13.886133
165	0x41b7f270	22.993378
166	0x41b716e7	22.886183
167	0x415c8ff2	13.785143
168	0x41b6613d	22.79748
169	0x41b806a3	23.00324
170	0x41b732b3	22.899755
171	0x41b6bb5d	22.841486
172	0x41b86f2b	23.054281
173	0x415cd579	13.802117
174	0xc1b6ebee	-22.8652
175	0xc1b6fbfb	-22.873037
176	0xc1b7a1f3	-22.954077
177	0xc1b6f11f	-22.867735
178	0x41b80633	23.003027
179	0xc1b751c2	-22.91492
180	0xc15b662b	-13.712443
181	0xc1b74a93	-22.911413
182	0x4173303b	15.199275
183	0xc1b728ef	-22.894987
184	0x41b389d3	22.442297
185	0x41b74e8e	22.913357
186	0xc15c7775	-13.779164
187	0x41b7cebd	22.975946
188	0xc15dfe74	-13.874622
189	0x41b7c110	22.969269
190	0x41b5f58d	22.744898
191	0x41b74495	22.908487
192	0xc1b796a7	-22.94856
193	0xc1b86ddf	-23.053648
194	0x41b83b93	23.029089
195	0xc0d1bb8d	-6.5541444
196	0xc15b7bb2	-13.717699
197	0x41088041	8.531312
198	0x41b6adb7	22.834822
199	0xc1644c0d	-14.268567
200	0x4189e53c	17.23693
201	0x41b71532	22.88535
202	0x41b839aa	23.028156
203	0x4080dbb5	4.0268197
204	0x41b77ccd	22.935938
205	0xc1b720d0	-22.891022
206	0xc1b78c61	-22.943544
207	0x41b86406	23.04884
208	0xc19ccf12	-19.601109
209	0x41b5274f	22.644194
210	0x41b6ec1e	22.865292
211	0xc1b74950	-22.910797
212	0xc1b8478b	-23.034933
213	0x41b6fea1	22.87433
214	0xc1b79677	-22.94847
215	0xc1b7f369	-22.993853
216	0x409f86e5	4.9852166
217	0xc1b6c2c7	-22.845106
218	0x4180f8ea	16.12154
219	0xc1b7dd37	-22.983015
220	0xc183dc56	-16.482586
221	0xc1b7943c	-22.94738
222	0x41948b88	18.56813
223	0x41360dd4	11.378376
224	0xc1b7f70d	-22.99563
225	0x41b7f036	22.99229
226	0xc1b25383	-22.290777
227	0x41b875e4	23.057564
228	0xc15a8896	-13.658346
229	0x41b7ee01	22.991213
230	0x41b659ef	22.793913
231	0x415b054d	13.688794
232	0x41b7a947	22.957655
233	0x41b7563d	22.917109
234	0x41b8138c	23.009544
235	0x41b641a4	22.782051
236	0x41b6da3c	22.85656
237	0x415ae5b2	13.681078
238	0xc1b7abba	-22.95885
239	0xc1b7ca47	-22.973768
240	0xc1b848dc	-23.035576
241	0xc1b6d5f4	-22.85447
242	0x41b7f19d	22.992975
243	0xc1b687d1	-22.816317
244	0xc15d3562	-13.825533
245	0xc1b7ec0e	-22.990261
246	0x41718733	15.095508
247	0xc1b6d14a	-22.852192
248	0x41b3f215	22.493204
249	0x41b67cae	22.810879
250	0xc15d18d9	-13.818566
251	0x41b82581	23.018312
252	0xc15dd324	-13.864048
253	0x41b7bb5d	22.966486
254	0x41b64766	22.784863
255	0x41b816a2	23.011051

head.bias f4 [24]
0	0x41b6416c	22.781944
1	0x41b677fd	22.808588
2	0x41b599b4	22.70005
3	0x41b69301	22.82178
4	0x41b6ce82	22.850834
5	0x41b60ef6	22.757305
6	0x41b54a6d	22.66134
7	0x41b632d8	22.774826
8	0x41b5af69	22.71065
9	0x41b70de3	22.88178
10	0x41b6d159	22.85222
11	0x41b549ee	22.661098
12	0x41b53c70	22.65451
13	0x41b5ede1	22.741152
14	0x41b6b82b	22.839926
15	0x41b54c11	22.662142
16	0x41b6b644	22.838997
17	0x41b6186d	22.761927
18	0x41b51a94	22.637978
19	0x41b68c69	22.81856
20	0x41b597f0	22.699188
21	0x41b69757	22.823896
22	0x41b6c8cf	22.848051
23	0x41b56f61	22.679384
