artifacts/lstm/run1_best.pt (torch, 80371 bytes, 6 tensors)

lstm.weight_ih_l0 f4 [256, 4]
0.45347005 0.0059073265 0.26842856 0.35268202 0.6496044 0.056625295 -0.20732136 -0.17014645
0.3975058 0.31037146 -0.13045467 0.058566887 0.44467443 -0.06542465 0.1657834 -0.0031529674
0.96657467 -0.07191765 0.010100389 0.08377465 0.64431006 0.23174629 0.38012692 -0.03074118
0.68674517 0.5907311 -0.034024164 0.23936944 0.4923206 0.084284164 -0.2634405 0.3971901
0.7601152 0.10546742 -0.076207705 0.06265683 0.65370125 -0.14540222 0.05132935 0.23627456
0.2724711 -0.33555242 -0.23772974 0.1931851 0.6380082 0.09367453 0.036149617 0.1690301
0.8861726 -0.15179484 0.10855106 0.85805976 -0.31225228 0.026609162 -0.16367185 -0.03467726
0.5968122 0.02750605 0.16736218 0.16955616 0.62422717 0.5867353 -0.3620953 0.434945
-0.03261012 0.049602263 0.054854695 -0.14576441 0.6160563 0.40267777 0.32436705 -0.10941794
0.62070197 0.1218166 -0.25512886 0.60226667 0.4958688 0.16975483 0.08348188 0.27967033
0.74441963 0.24898793 0.020279652 0.27085897 0.5880627 -0.054358188 0.040569186 -0.09176922
0.71393174 0.645291 0.5600582 -0.013754376 0.27266642 -0.0324463 0.19226843 0.1977373
1.1006881 0.35582572 -0.17721751 0.17656094 0.69698715 0.20281777 0.08571519 0.17499118
0.268988 0.025493348 0.01807017 0.065700956 0.5244234 -0.3486519 0.00707201 0.21367373
0.11208889 -0.11607474 0.17751937 0.3508069 0.90627444 -0.06198929 -0.24221337 0.41721392
1.2950704 -0.10809405 0.20705874 -0.13676849 0.7571959 0.0310408 0.022186536 -0.40129894
0.60935783 0.30762854 -0.124458045 -0.03245056 0.6517613 -0.21495332 -0.2305229 0.07700972
0.3910419 0.17349972 -0.2220996 -0.03128992 0.42501026 0.028322669 -0.017217463 0.15435472
0.5803394 0.13822375 -0.025375627 0.07347698 0.46983358 0.02296317 -0.06331649 0.21667331
0.14849012 0.09564811 0.036927484 0.23147124 0.23112878 0.22485943 0.4051616 0.24307524
0.58070177 -0.11525885 0.05139733 0.019792479 0.6343419 0.287778 0.4407137 -0.09041112
0.5821951 0.12783377 -0.14743729 0.29166067 0.99283355 -0.07187001 0.105740964 0.21562712
0.79853153 0.23600127 -0.24286732 0.13590372 0.70980996 0.17162675 0.08412432 0.27971706
1.0479347 0.12620088 0.094314605 -0.019698316 0.522033 0.29938903 -0.04309607 0.3509649
0.4888742 0.2954633 0.031199211 0.07286343 -0.17165245 0.1512752 -0.24541044 0.3596479
0.64002126 -0.025519181 0.088992774 0.16730626 0.72189283 -0.025522778 0.041866567 0.22580425
1.9136716 -0.024051541 -0.013110129 -0.008646979 0.38391098 -0.073614895 -0.2836191 0.33643985
1.4284332 -0.14562052 -0.12963226 -0.43442175 0.31604236 0.7395916 0.26221076 0.11777196
0.249301 0.08380324 0.17999959 0.24532433 0.48775208 0.24676768 0.027352272 0.089471675
0.32821256 0.014914208 0.11024082 0.20928723 1.031953 0.40384382 -0.091996975 0.12548667
0.6570606 -0.12856318 -0.31683138 0.25190848 0.7000497 -0.06511183 0.08546212 0.10011211
0.22308294 -0.19439544 0.4043653 0.18246426 0.56881744 -0.12856118 0.09600655 0.29520574
00000000: 3a2d e83e 3f92 c13b 786f 893e bd92 b43e
00000010: 794c 263f edef 673d 0d4c 54be df3a 2ebe
00000020: e185 cb3e 02e9 9e3e e995 05be d5e3 6f3d
00000030: 5eac e33e 5cfd 85bd 20c3 293e 04a2 4ebb
00000040: 7071 773f 9049 93bd 1a7c 253c 0b92 ab3d
00000050: 81f1 243f e64e 6d3e ff9f c23e edd4 fbbc
00000060: 88ce 2f3f 273a 173f ec5c 0bbd 431d 753e
00000070: 7211 fc3e 2d9d ac3d ace1 86be 805c cb3e
00000080: e996 423f 4dff d73d c912 9cbd 3952 803d
00000090: f758 273f 52e4 14be b93e 523d f5f1 713e
000000a0: 5581 8b3e 87cd abbe 6d6f 73be 51d2 453e
000000b0: 8154 233f 6fd8 bf3d 9f11 143d 3a16 2d3e
000000c0: 35dc 623f 1b70 1bbe 0550 de3d cea9 5b3f
000000d0: 88df 9fbe 75fb d93c 9899 27be be09 0ebd
000000e0: afc8 183f 5e54 e13c fe60 2b3e 21a0 2d3e
000000f0: 5acd 1f3f 4934 163f 8e64 b9be 1cb1 de3e
00000100: 3092 05bd be2b 4b3d 51af 603d 4443 15be
00000110: deb5 1d3f c82b ce3e 7013 a63e 8316 e0bd
00000120: 53e6 1e3f fb7a f93d 40a0 82be 262e 1a3f
00000130: 84e2 fd3e 36d4 2d3e 8cf8 aa3d f330 8f3e
00000140: 4992 3e3f b1f6 7e3e 8321 a63c 07ae 8a3e
00000150: 478b 163f b1a6 5ebd e02b 263d 80f1 bbbd
00000160: 3bc4 363f ca31 253f f95f 0f3f 095a 61bc
00000170: ef9a 8b3e 69e6 04bd 04e2 443e a67b 4a3e
00000180: 59e3 8c3f ca2e b63e 8278 35be 64cc 343e
00000190: c06d 323f 76af 4f3e 728b af3d e330 333e
000001a0: ccb8 893e 6dd7 d03c e507 943c 398e 863d
000001b0: 9d40 063f 8082 b2be 52bc e73b 49cd 5a3e
000001c0: dc8e e53d 98b8 edbd a3c7 353e f69c b33e
000001d0: 9a01 683f 7be8 7dbd c806 78be 109d d53e
000001e0: dec4 a53f 6a60 ddbd 3507 543e 0a0d 0cbe
000001f0: 97d7 413f 4749 fe3c 8ac0 b53c 0e77 cdbe
00000200: e0fe 1b3f 7d81 9d3e dce3 febd e1ea 04bd
00000210: d4d9 263f b91c 5cbe 320e 6cbe 46b7 9d3d
00000220: a536 c83e e9a9 313e 146e 63be dc29 00bd
00000230: f29a d93e f104 e83c a30b 8dbc 2a0f 1e3e
00000240: 1f91 143f 878a 0d3e 8ce0 cfbc 197b 963d
00000250: 078e f03e 421d bc3c 13ac 81bd 9cdf 5d3e
00000260: cb0d 183e 28e3 c33d 4641 173d cc06 6d3e
00000270: 06ad 6c3e 8d41 663e 5771 cf3e b7e8 783e
00000280: dfa8 143f d50c ecbd 0286 523d d623 a23c
00000290: 3b64 223f a357 933e 3aa5 e13e 7729 b9bd
000002a0: bd0a 153f dbe6 023e cdf9 16be 8c54 953e
000002b0: 572a 7e3f 9530 93bd b88e d83d 5bcd 5c3e
000002c0: 906c 4c3f 51aa 713e 36b2 78be 582a 0b3e
000002d0: 1bb6 353f ecbe 2f3e 5f49 ac3d 1337 8f3e
000002e0: b922 863f ce3a 013e 0428 c13d 5d5e a1bc
000002f0: f4a3 053f 8549 993e 8185 30bd acb1 b33e
00000300: b84d fa3e f746 973e 7d95 ff3c 6c39 953d
00000310: a9c5 2fbe e3e7 1a3e e04c 7bbe c523 b83e
00000320: 6fd8 233f 9a0d d1bc d841 b63d 5552 2b3e
00000330: f8cd 383f 2515 d1bc 477c 2b3d 3b39 673e
00000340: 31f3 f43f bd07 c5bc decb 56bc 0fac 0dbc
00000350: fb8f c43e 68c3 96bd 8636 91be d841 ac3e
00000360: e6d6 b63f 8c1d 15be 52be 04be 876c debe
00000370: 4ed0 a13e e055 3d3f 7d40 863e 6d32 f13d
00000380: c348 7f3e 08a1 ab3d d051 383e 4d36 7b3e
00000390: a4ba f93e abb0 7c3e df11 e03c ed3c b73d
000003a0: 7a0b a83e b95a 743c f0c5 e13d 644f 563e
000003b0: 0917 843f 9ec4 ce3e e968 bcbd 947f 003e
000003c0: 2035 283f 11a6 03be b937 a2be 26fa 803e
000003d0: 7536 333f 5a59 85bd c406 af3d 9407 cd3d
000003e0: db6f 643e 990f 47be f808 cf3e e9d7 3a3e
000003f0: 059e 113f 8ba5 03be 159f c43d 3525 973e

lstm.weight_hh_l0 f4 [256, 64]
0.3077865 -0.15677084 -0.01943411 -0.035035893 -0.21811716 -0.081052884 -0.05289439 0.13121247
0.06851291 0.03698685 0.13221699 -0.024360806 0.14931042 0.32218444 -0.0038590515 -0.028552916
0.14169703 0.15507764 0.026622724 0.31839854 -0.15860435 0.10675079 -0.019393066 -0.15166873
-0.19975105 -0.1596979 0.20552768 -0.025629705 0.18805261 -0.067202024 -0.15107869 -0.07979055
0.09934007 -0.19184789 0.07284324 0.20889956 -0.20780484 0.20285985 0.21702136 -0.16477309
0.1545279 0.18171574 0.06612409 0.04458663 0.16233632 0.25132623 -0.13464943 -0.15500982
-0.007379737 -0.21993198 -0.084795944 0.05364244 -0.24733844 0.06790197 0.13455689 0.025154643
-0.27310714 0.06354651 0.20183043 0.060524102 -0.055984516 0.24681482 -0.27367875 -0.14618182
-0.35983014 0.13713102 0.21167226 -0.030443316 0.08317611 0.08960566 -0.11906218 -0.37024114
-0.20838039 0.21470454 0.122233525 -0.6033915 0.054528527 -0.13121565 0.36224118 -0.509005
-0.05420259 0.46852297 0.3039995 -0.22554058 -0.06282908 0.17851494 -0.31761298 0.25367007
-0.059193823 0.38080227 0.20094876 0.047028024 -0.049121115 -0.38274205 0.09950457 -0.24796467
-0.166256 0.13706625 -0.09702308 0.09900097 0.2928477 -0.0953123 0.0074967113 -0.12566318
-0.111145265 -0.30689943 -0.066389285 0.096215665 -0.28332517 -0.058126047 -0.13273516 0.2631664
-0.0026985547 0.06574467 0.1002536 -0.010939289 -0.24305749 0.26508227 0.21258548 -0.11373226
0.016759818 -0.22104202 0.18674996 -0.045807816 -0.17297128 0.19544774 0.0028518853 -0.035012938
0.24474506 -0.0077469866 -0.24658199 0.032263074 -0.26528457 -0.20696422 -0.27886003 -0.010424065
0.227287 0.26944032 0.25239736 -0.22477995 0.29682997 0.17512262 -0.1133507 0.07405786
-0.056224577 -0.24784642 -0.12887518 0.292164 -0.2685277 -0.3048162 -0.091031075 -0.31699666
0.06880613 -0.2382578 0.24159127 0.042195097 0.3249686 -0.015638629 -0.18746121 0.11437891
0.08914205 -0.14425032 0.016579669 0.48646745 -0.14048053 0.15713175 0.16858804 -0.19604021
0.16616681 0.007141123 -0.018459601 0.14773306 0.26303482 0.19470803 -0.32041028 -0.13081464
-0.061744694 -0.06273741 -0.0038663426 -0.20799895 -0.22111467 -0.015146338 0.06509493 0.17321475
-0.14335491 0.3273972 0.07297218 0.030109303 0.31770012 0.07507978 -0.10702791 -0.10006579
0.0033732553 0.63497365 0.04726663 -0.18969388 -0.16056572 0.27296603 0.103889786 -0.5315626
0.07452528 0.5434448 0.4767476 -0.5011224 0.15365359 0.06845909 0.0100634815 -0.32207063
0.07193633 0.13027212 0.08548503 0.08288596 -0.16376506 0.08973461 -0.17104928 -0.045245286
-0.14981565 0.08448223 0.01830003 -0.12684917 -0.1224841 0.05353168 -0.07059704 -0.046126507
-0.30892244 -0.26880714 -0.28691542 0.43372947 0.2892447 0.30006677 -0.04641085 -0.2282645
0.1098719 -0.039396606 0.3296316 0.31727126 0.17781751 -0.028653232 -0.32148957 -0.2231985
-0.07947851 0.08345867 0.42099217 -0.011735902 -0.050928723 0.6197506 0.2546346 -0.00046909685
-0.15173142 0.06031155 0.24819182 -0.2507418 0.14284594 0.38866246 0.0010686264 0.012469527
00000000: 3196 9d3e 8988 20be 4834 9fbc cc81 0fbd
00000010: 1b5a 5fbe 0eff a5bd caa7 58bd 905c 063e
00000020: 7f50 8c3d 867f 173d e463 073e 5090 c7bc
00000030: d5e4 183e 5cf5 a43e 24e8 7cbb cee7 e9bc
00000040: 0719 113e accc 1e3e e617 da3c 2205 a33e
00000050: 2e69 22be 28a0 da3d 35de 9ebc 0c4f 1bbe
00000060: 8a8b 4cbe d987 23be d975 523e 63f5 d1bc
00000070: dd90 403e 37a1 89bd 5fb4 1abe 3a69 a3bd
00000080: ce72 cb3d c673 44be d62e 953d c4e9 553e
00000090: cbca 54be 7eba 4f3e d93a 5e3e 47ba 28be
000000a0: 903c 1e3e b113 3a3e 116c 873d 78a0 363d
000000b0: 7e3b 263e d5ad 803e 8ae1 09be e5ba 1ebe
000000c0: b9d1 f1bb d935 61be 7fa9 adbd 2db8 5b3d
000000d0: 4a46 7dbe 3010 8b3d 48c9 093e 1c11 ce3c
000000e0: b3d4 8bbe ac24 823d a3ac 4e3e 1fe8 773d
000000f0: 0550 65bd 06bd 7c3e 9f1f 8cbe b0b0 15be
00000100: a83b b8be 136c 0c3e 9dc0 583e 4364 f9bc
00000110: 3d58 aa3d 2c83 b73d dfd6 f3bd 3f90 bdbe
00000120: ab61 55be 82db 5b3e 9255 fa3d de77 1abf
00000130: 4e59 5f3d 655d 06be ad77 b93e 274e 02bf
00000140: 8903 5ebd 3ee2 ef3e d3a5 9b3e 1cf4 66be
00000150: 88ac 80bd 9fcc 363e 2b9e a2be 0be1 813e
00000160: 3975 72bd 84f8 c23e 83c5 4d3e 75a0 403d
00000170: 3933 49bd c4f6 c3be 0dc9 cb3d 73ea 7dbe
00000180: 033f 2abe 185b 0c3e 09b4 c6bd 05c1 ca3d
00000190: 22f0 953e 1833 c3bd f9a6 f53b d9ad 00be
000001a0: 21a0 e3bd ec21 9dbe 1bf7 87bd b80c c53d
000001b0: ff0f 91be 9415 6ebd baeb 07be bfbd 863e
000001c0: 3cda 30bb 24a5 863d c251 cd3d b43a 33bc
000001d0: 10e4 78be ddb8 873e 02b0 593e 76ec e8bd
000001e0: e34b 893c d758 62be 623b 3f3e faa0 3bbd
000001f0: 621f 31be 7423 483e b2e6 3a3b ba69 0fbd
00000200: 739e 7a3e 6fda fdbb fd7f 7cbe 4926 043d
00000210: 61d3 87be 6eee 53be bec6 8ebe b3c9 2abc
00000220: ecbd 683e 15f4 893e 3a3a 813e b72c 66be
00000230: 19fa 973e 5853 333e 6924 e8bd a6ab 973d
00000240: be4b 66bd 74cb 7dbe dbf7 03be 8596 953e
00000250: 767c 89be de10 9cbe 806e babd 634d a2be
00000260: 3aea 8c3d daf9 73be b463 773e c4d4 2c3d
00000270: 4962 a63e 951c 80bc d5f5 3fbe 7d3f ea3d
00000280: 1b90 b63d 5bb6 13be 16d2 873c 4312 f93e
00000290: 21da 0fbe 25e7 203e 58a2 2c3e c4be 48be
000002a0: a227 2a3e 1500 ea3b 9738 97bc 5647 173e
000002b0: 80ac 863e 8b61 473e d10c a4be 46f4 05be
000002c0: 01e8 7cbd 797c 80bd 7762 7dbb adfd 54be
000002d0: e26b 62be 5928 78bc 7e50 853d 355f 313e
000002e0: a1cb 12be 9ba0 a73e 7072 953d c9a7 f63c
000002f0: 97a9 a23e 6dc3 993d 7331 dbbd 4bef ccbd
00000300: d511 5d3b a28d 223f a79a 413d 1d3f 42be
00000310: 576b 24be 34c2 8b3e 2bc4 d43d 7d14 08bf
00000320: b6a0 983d 331f 0b3f 4318 f43e 8f49 00bf
00000330: 5e57 1d3e 4834 8c3d 4de1 243c 71e6 a4be
00000340: 5b53 933d 0e66 053e c712 af3d 1dc0 a93d
00000350: 07b2 27be c7c6 b73d 8b27 2fbe 1f53 39bd
00000360: 4669 19be 0505 ad3d f2e9 953c c0e4 01be
00000370: f2d8 fabd 0944 5b3d 2e95 90bd 26ef 3cbd
00000380: 152b 9ebe 17a1 89be 94e6 92be ca11 de3e
00000390: e217 943e 5aa2 993e 4e19 3ebd 2bbe 69be
000003a0: 8504 e13d 565e 21bd 79c5 a83e 6171 a23e
000003b0: cb15 363e 2fba eabc 489a a4be 268e 64be
000003c0: a1c5 a2bd 61ec aa3d 498c d73e f147 40bc
000003d0: a39a 50bd faa7 1e3f 775f 823e 1df1 f5b9
000003e0: 7b5f 1bbe 3e09 773d ff25 7e3e 3b61 80be
000003f0: 3546 123e c4fe c63e 2711 8c3a fd4c 4c3c

lstm.bias_ih_l0 f4 [256]
0.3584719 -0.045616675 0.2631823 0.19246663 0.13460118 -0.15723236 -0.06382096 0.10737839
0.1327958 0.08395419 0.10972461 -0.010604931 -0.018613804 0.14442003 0.24346326 -0.2539236
-0.08728174 -0.17317146 0.05998467 0.35671926 0.05072083 0.010617898 -0.37809175 -0.13526295
-0.16696812 -0.07149093 -0.1613479 0.0014364816 -0.34461832 -0.18277365 -0.22964197 0.1846199
-0.01153508 -0.037780542 -0.27266857 0.13776994 0.121773526 0.16759348 -0.013469618 -0.033349834
-0.11130927 -0.24119596 0.039791062 0.06772222 -0.01721548 0.11979305 0.11735641 0.1305982
-0.19485392 -0.072689414 0.05822256 0.06124067 -0.098382816 -0.05867295 -0.036451872 -0.10638346
-0.22734466 0.011886795 -0.06361836 -0.05877547 0.13981122 0.11728646 -0.004342612 -0.26976413
0.3861875 -0.15731913 0.194023 0.021781873 0.23329395 -0.15259427 -0.33819452 0.16849071
0.011518155 0.06699086 0.34270138 -0.1790232 0.21969852 -0.004573625 0.19383919 0.086085476
-0.22918473 0.007392067 0.09642444 0.09015695 0.10364447 -0.15179075 -0.24459471 -0.22994088
-0.072968096 -0.006156963 -0.260146 0.08092943 0.16165863 -0.15604174 -0.19064635 0.099363185
-0.031318173 -0.0122187305 -0.21109869 -0.05701574 0.3126778 0.002122951 -0.1487393 -0.048565555
-0.026446706 -0.22097911 0.16312394 0.15295042 0.14469057 0.03806192 -0.09023976 0.17141119
-0.16882022 0.06409382 -0.14486918 -0.09158307 0.056696385 0.20696671 0.018568397 -0.08137101
-0.15938832 0.20860435 0.19170558 -0.14664096 0.14678246 -0.028843978 0.14409283 0.107317924
0.3611751 0.016573155 -0.3349319 0.15425725 -0.22053102 0.18944296 -0.10918819 0.13597776
0.09717765 0.10758087 0.11595195 -0.11949806 0.12808423 0.2015137 -0.3122675 0.017861513
-0.05274802 -0.087820955 0.18827586 0.3630804 -0.28465304 0.025540285 0.11189629 0.097235344
-0.07539918 -0.19803256 -0.0365636 -0.103975624 0.14537089 0.11498919 -0.07227656 0.45945883
-0.024023764 -0.16032094 -0.115917094 0.24540155 -0.5123583 0.10270086 0.033609696 -0.25702453
0.14524108 0.04475516 0.18685912 0.2877217 0.2617564 0.23432706 -0.27950484 -0.31168994
-0.19049597 -0.19073412 0.13473314 -0.0015855234 -0.18735886 0.007865948 0.21251932 0.089325614
-0.060105607 0.0789946 0.00928584 -0.0887473 0.101952285 0.08118529 -0.10943566 0.034068614
0.054692756 0.046590857 0.07604233 0.18956392 0.11895036 0.1934724 0.07210156 0.05424679
0.024194583 -0.06458446 0.26029366 -0.08544939 -0.021624975 0.117705226 0.18131626 0.11355153
-0.12219699 0.2950689 0.04788991 0.1622294 -0.13476093 -0.05083079 0.05071262 -0.06194625
-0.007861067 -0.054682218 -0.029833587 -0.037260093 -0.091506355 0.15362604 0.017921094 -0.03117487
0.07090307 0.052060593 -0.13380331 0.024292005 0.17051011 0.14550033 0.02226155 -0.052922264
-0.056886107 0.15945482 0.2625331 0.17399806 -0.01915431 -0.105687894 -0.019407466 0.12739211
-0.17017731 0.14586143 -0.10127946 -0.16256431 0.29929885 0.086484715 0.13173942 -0.049522247
-0.10745745 -0.008431083 -0.07231808 -0.2267796 0.12735023 -0.059900254 -0.019473342 -0.17623268
00000000: a189 b73e 8dd8 3abd d5bf 863e f915 453e
00000010: e4d4 093e 8501 21be 90b4 82bd 34e9 db3d
00000020: 9ffb 073e 2df0 ab3d 4cb7 e03d 4ec0 2dbc
00000030: fa7b 98bc d8e2 133e 6f4e 793e 4602 82be
00000040: c5c0 b2bd dc53 31be 7cb2 753d e8a3 b63e
00000050: a5c0 4f3d b1f6 2d3c 3e95 c1be 5f82 0abe
00000060: b1f9 2abe d669 92bd 6238 25be 5348 bc3a
00000070: d071 b0be 0429 3bbe 4427 6bbe 000d 3d3e
00000080: a2fd 3cbc c5bf 1abd 379b 8bbe 9013 0d3e
00000090: 6664 f93d a09d 2b3e acaf 5cbc d699 08bd
000000a0: 1df6 e3bd 13fc 76be f4fb 223d f3b1 8a3d
000000b0: 7a07 8dbc 0f56 f53d 8f58 f03d 89bb 053e
000000c0: c987 47be 30de 94bd c77a 6e3d 7fd7 7a3d
000000d0: ee7c c9bd 0c53 70bd 8f4e 15bd 92df d9bd
000000e0: 0acd 68be d5c0 423c 584a 82bd 8cbe 70bd
000000f0: ac2a 0f3e e233 f03d 784c 8ebb 861e 8abe
00000100: 5eba c53e 4418 21be f7ad 463e e66f b23c
00000110: 9ce4 6e3e ac41 1cbe d527 adbe d488 2c3e
00000120: a5b6 3c3c 8132 893d 8e76 af3e dc51 37be
00000130: a6f8 603e 59de 95bb c87d 463e 954d b03d
00000140: 67af 6abe 2739 f23b 2d7a c53d 35a4 b83d
00000150: 8d43 d43d 096f 1bbe 0977 7abe 9f75 6bbe
00000160: 4c70 95bd 59c0 c9bb db31 85be 54be a53d
00000170: d789 253e 68c9 1fbe cc38 43be ed7e cb3d
00000180: 7c47 00bd 1231 48bc 412a 58be 5689 69bd
00000190: 4e17 a03e 3521 0b3b 1d4f 18be adec 46bd
000001a0: c3a6 d8bc 5948 62be f609 273e 099f 1c3e
000001b0: c429 143e d1e6 1b3d a0cf b8bd 6a86 2f3e
000001c0: 35df 2cbe 9f43 833d 9658 14be e88f bbbd
000001d0: 783a 683d 15ef 533e c01c 983c d8a5 a6bd
000001e0: b136 23be 619c 553e 784e 443e 0c29 16be
000001f0: 244e 163e 354a ecbc 128d 133e 80c9 db3d
00000200: f1eb b83e 6dc4 873c 327c abbe 9df5 1d3e
00000210: e2d2 61be 56fd 413e 0f9e dfbd c13d 0b3e
00000220: 1305 c73d 5c53 dc3d 3778 ed3d 66bb f4bd
00000230: 8328 033e 9b59 4e3e 87e1 9fbe 4f52 923c
00000240: 4f0e 58bd 79db b3bd 63cb 403e ade5 b93e
00000250: 0bbe 91be dc39 d13c e229 e53d 5323 c73d
00000260: e36a 9abd 0cc9 4abe b7c3 15bd 2cf1 d4bd
00000270: 1bdc 143e 747f eb3d bc05 94bd 303e eb3e
00000280: 7ccd c4bc 2c2b 24be f165 edbd 8b4a 7b3e
00000290: ea29 03bf d454 d23d 52aa 093d b898 83be
000002a0: 14ba 143e 3051 373d ff57 3f3e 4250 933e
000002b0: ef04 863e 6ff3 6f3e 421b 8fbe d395 9fbe
000002c0: 6011 43be ce4f 43be 7cf7 093e 56d1 cfba
000002d0: 00db 3fbe 2de0 003c aa9e 593e 59f0 b63d
000002e0: 4c31 76bd ecc7 a13d a323 183c 25c1 b5bd
000002f0: 5ccc d03d 7944 a63d ce1f e0bd 888b 0b3d
00000300: 8305 603d 0ed6 3e3d 15bc 9b3d 0b1d 423e
00000310: 3f9c f33d a11d 463e fca9 933d e231 5e3d
00000320: b833 c63c db44 84bd 3645 853e 1700 afbd
00000330: dc26 b1bc 700f f13d f8aa 393e b48d e83d
00000340: 6a42 fabd 4513 973e 3628 443d 771f 263e
00000350: c5fe 09be f233 50bd 09b8 4f3d 5abb 7dbd
00000360: b4cb 00bc 76fa 5fbd 9165 f4bc 0a9e 18bd
00000370: af67 bbbd 2550 1d3e 42cf 923c 7162 ffbc
00000380: a135 913d 7d3d 553d bc03 09be 0700 c73c
00000390: 349a 2e3e 0afe 143e db5d b63c 04c5 58bd
000003a0: 6801 69bd 2048 233e bd6a 863e 8c2c 323e
000003b0: 80e9 9cbc e572 d8bd 68fc 9ebc 1473 023e
000003c0: f642 2ebe b35c 153e 9b6b cfbd 4277 26be
000003d0: b33d 993e e61e b13d b3e6 063e d7d7 4abd
000003e0: a712 dcbd 8622 0abc 801b 94bd e938 68be
000003f0: 1968 023e f859 75bd 8f86 9fbc 5776 34be

lstm.bias_hh_l0 f4 [256]
0.24566866 -0.16219151 0.31741744 0.14267628 -0.10808639 -0.3519072 -0.077008486 0.09785484
-0.070599936 -0.03642171 0.14526321 0.09632938 -0.14953348 0.10022494 0.015809627 -0.32281575
-0.14262521 -0.20865531 0.11251832 0.19585457 0.14969179 -0.14594118 -0.39849773 -0.19993174
-0.13413838 0.12073229 0.017229252 -0.11529887 -0.341108 -0.028567206 -0.24126975 0.2717081
0.12922537 -0.019525133 -0.12854438 0.038066674 0.2641484 0.13164805 -0.05392141 -0.051929783
-0.0034294082 -0.24751681 -0.0046175523 0.08568825 0.11965455 0.11775673 -0.034422636 0.17376219
-0.1836762 -0.16940972 0.061293658 -0.016985435 0.03005462 0.03731084 -0.16017495 -0.2454377
-0.07209384 0.02491491 -0.1210638 -0.016881436 0.01313601 0.11645477 -0.11162214 -0.125451
0.39887762 0.06843731 0.13832735 -0.17683282 0.2024026 -0.007888068 -0.32224306 0.12110394
-0.15475254 -0.12750569 0.15718786 -0.2025882 0.12159576 0.14301921 0.044961408 0.24377112
-0.15143487 -0.0007609229 0.17246984 0.07058851 0.07924868 -0.21274287 -0.1762153 -0.25851688
-0.09714761 -0.0036532918 -0.3367452 -0.042264998 0.10377104 -0.15811554 -0.23155928 0.20086671
-0.20330502 0.01972579 -0.059281867 0.101061516 0.18741232 0.1902197 -0.2626295 0.015635319
-0.10069505 -0.10002682 0.058232896 -0.0037241096 -0.011892723 0.15808086 -0.038513307 0.10088367
-0.04020211 0.04198588 -0.14658658 -0.19136083 -0.10926982 0.103907645 0.041720238 -0.18776602
-0.20124084 0.02112321 0.17663758 -0.20053242 0.12758383 0.063413315 0.2558094 -0.037925288
0.44003648 0.13507444 -0.24121043 0.17705514 -0.29669124 0.02267211 -0.13040842 0.00074999203
0.17202197 0.12567106 0.04122293 -0.056061704 0.052624606 0.247653 -0.25513944 0.009186963
0.079525426 -0.07610133 0.10704174 0.33576867 -0.44846335 0.2466262 0.2513782 -0.03619758
-0.12838772 -0.2643896 -0.07807389 -0.03887161 0.08219266 0.1828404 -0.13719578 0.32038462
0.023624096 -0.13929975 -0.08955954 0.03549442 -0.3642809 0.1593102 -0.040915012 -0.048250493
0.082209624 -0.07151495 0.17529818 0.2959163 0.2672729 0.32775915 -0.24007626 -0.3700689
-0.079021156 -0.042726696 0.1323405 -0.09616825 -0.047847033 0.05624864 0.12046745 0.012078506
-0.14987762 0.19706184 -0.1672475 -0.08716331 0.20971672 0.22903396 -0.016635455 -0.050378483
0.08989756 0.049295496 0.08309161 0.18462715 0.12724553 0.033787094 0.0971709 0.10742215
-0.096840836 -0.033122156 0.2610742 0.061934065 0.077212706 0.12084384 0.11528222 0.10996627
-0.078122444 0.31615666 0.10825743 0.01475149 0.05574816 -0.19300202 0.061245564 0.13564491
0.0046677743 0.005105278 0.03038569 0.18320261 0.011698987 0.00561577 -0.09851302 0.07365477
0.14993115 0.01362364 -0.084130794 0.106526256 0.055377997 -0.012506574 0.009974558 -0.115540355
-0.07952244 -0.05303272 0.17893785 0.08047925 -0.12960948 -0.000808458 -0.07133343 0.20045726
-0.078852154 0.07907323 0.07789704 -0.18925801 0.10952422 0.19563448 0.07300401 -0.04890861
0.0692918 0.09864875 -0.07595299 -0.052258365 1.6737202e-05 -0.053247955 0.031227365 -0.18202779
00000000: 9190 7b3e 8815 26be 8a84 a23e bb19 123e
00000010: 665c ddbd 2e2d b4be a0b6 9dbd 1e68 c83d
00000020: b396 90bd ee2e 15bd e1bf 143e 5748 c53d
00000030: 4e1f 19be bc42 cd3d 3183 813c 1b48 a5be
00000040: 580c 12be bda9 55be 0170 e63d 1a8e 483e
00000050: ce48 193e 9b71 15be e507 ccbe e8ba 4cbe
00000060: 925b 09be 7e42 f73d 5c24 8d3c d021 ecbd
00000070: b5a5 aebe c605 eabc 6b0f 77be 531d 8b3e
00000080: a853 043e 2cf3 9fbc 23a1 03be cdeb 1b3d
00000090: 763e 873e bfce 063e b2dc 5cbd 53b4 54bd
000000a0: ecbf 60bb 0c75 7dbe d64e 97bb 527d af3d
000000b0: 720d f53d 712a f13d c0fe 0cbd b7ee 313e
000000c0: 9d15 3cbe be79 2dbe 0f0f 7b3d 0a25 8bbc
000000d0: 1b35 f63c 40d3 183d e704 24be 0554 7bbe
000000e0: efa5 93bd 5a1a cc3c 4cf0 f7bd f04a 8abc
000000f0: 6b38 573c d77f ee3d 269a e4bd 3a76 00be
00000100: b039 cc3e dc28 8c3d afa5 0d3e aa13 35be
00000110: a142 4f3e f53c 01bc 0bfd a4be 5805 f83d
00000120: 7377 1ebe da90 02be dbf5 203e 4873 4fbe
00000130: 3307 f93d a173 123e 7429 383d 239f 793e
00000140: be11 1bbe ac78 47ba ef9b 303e b590 903d
00000150: 224d a23d 44d9 59be c971 34be 535c 84be
00000160: 53f5 c6bd 116c 6fbb de69 acbe 101e 2dbd
00000170: e985 d43d 0ae9 21be e01d 6dbe 01b0 4d3e
00000180: 312f 50be fb97 a13c 8bd1 72bd 57f9 ce3d
00000190: 04e9 3f3e f4c8 423e 6077 86be a415 803c
000001a0: 3539 cebd ddda ccbd 9e85 6e3d 3110 74bb
000001b0: b2d9 42bc f3df 213e 21c0 1dbd 199c ce3d
000001c0: f8aa 24bd 63f9 2b3d cb1a 16be 18f4 43be
000001d0: dbc8 dfbd 88cd d43d d7e2 2a3d bc45 40be
000001e0: 1412 4ebe 950a ad3c 7be0 343e 5f58 4dbe
000001f0: 56a5 023e d7de 813d 73f9 823e 8c57 1bbd
00000200: 764c e13e f450 0a3e deff 76be f14d 353e
00000210: eae7 97be dcba b93c c989 05be 1d9b 443a
00000220: 8726 303e eaaf 003e 60d9 283d f5a0 65bd
00000230: e68c 573d bf98 7d3e a3a1 82be ea84 163c
00000240: 3ade a23d 04db 9bbd b338 db3d dfe9 ab3e
00000250: fd9c e5be 948b 7c3e a5b4 803e ea43 14bd
00000260: 1278 03be 135e 87be 34e5 9fbd d637 1fbd
00000270: a054 a83d 843a 3b3e 0d7d 0cbe 7409 a43e
00000280: 5287 c13c 98a4 0ebe fe6a b7bd 9962 113d
00000290: 0783 babe 3722 233e 8096 27bd 4fa2 45bd
000002a0: 855d a83d 6e76 92bd 5e81 333e 5782 973e
000002b0: fed7 883e 0cd0 a73e 8dd6 75be ac79 bdbe
000002c0: d8d5 a1bd 3002 2fbd 4584 073e dcf3 c4bd
000002d0: 40fb 43bd f964 663d a3b7 f63d ede4 453c
000002e0: 8579 19be 94ca 493e ee42 2bbe ad82 b2bd
000002f0: fbbf 563e e187 6a3e 1447 88bc ab59 4ebd
00000300: 361c b83d 13ea 493d ef2b aa3d e60e 3d3e
00000310: a74c 023e 5664 0a3d 8901 c73d 2500 dc3d
00000320: 7d54 c6bd 19ab 07bd 84ab 853e 93ae 7d3d
00000330: b221 9e3d fa7c f73d 1619 ec3d ff35 e13d
00000340: a9fe 9fbd 49df a13e 12b6 dd3d 3cb0 713c
00000350: 2f58 643d 52a2 45be a1dc 7a3d 80e6 0a3e
00000360: 21f4 983b 2d4a a73b 69eb f83c 7799 3b3e
00000370: 1cad 3f3c 7e04 b83b 32c1 c9bd 50d8 963d
00000380: 8d87 193e b035 5f3c c44c acbd 702a da3d
00000390: 0ad4 623d 60e8 4cbc 546c 233c 6ca0 ecbd
000003a0: a9dc a2bd d638 59bd 7c3b 373e 4ed2 a43d
000003b0: 59b8 04be b3ee 53ba 4317 92bd ab44 4d3e
000003c0: 3d7d a1bd 25f1 a13d 7c88 9f3d dacc 41be
000003d0: 3c4e e03d 6854 483e 2083 953d 6554 48bd
000003e0: dce8 8d3d 5b08 ca3d 3e8d 9bbd de0c 56bd
000003f0: de66 8c37 871a 5abd 88d0 ff3c 7e65 3abe

head.weight f4 [24, 64]
22.134783 21.945038 -22.23821 22.19311 -22.110937 22.031248 22.125935 -22.005554
22.117018 21.951157 21.963554 -22.0162 22.032143 -22.097767 -22.10946 -21.989323
-22.23261 22.06717 22.048174 22.05665 -22.181828 22.039818 -22.080189 22.289543
-21.96879 -22.174578 -22.178635 -22.113049 -22.010891 -21.988842 -22.07675 22.121992
-22.035004 -22.089594 -22.01929 21.993107 -22.103952 21.984495 -22.22686 -22.145937
-22.069696 -22.226414 22.160528 22.012913 22.140255 21.965534 -22.208261 -22.16291
-22.230408 22.108965 22.00646 -22.102869 -22.304052 22.041832 22.09927 -22.159771
22.208101 22.088812 10.663434 -22.106976 22.04988 22.149755 -10.55419 -22.033651
21.995867 22.002892 -22.073994 22.166767 -22.064625 21.999636 22.046955 -22.064344
22.060768 22.034887 21.867632 -22.115278 22.114925 -22.155338 -22.139217 -21.94501
-22.100847 22.044115 22.09358 21.951424 -22.184149 22.12228 -22.177807 22.019768
-22.06521 -21.984392 -22.232391 -22.164635 -22.055729 -22.10421 -22.087315 21.960886
-22.092016 -22.013353 -22.090948 22.11126 -22.178326 22.033642 -22.090094 -22.006565
-22.268942 -22.010595 22.152767 22.131031 22.168072 21.97256 -22.145426 -22.135653
-22.13957 22.091562 21.994486 -22.157726 -22.331068 21.90604 22.127853 -22.027344
22.094501 21.99269 10.601148 -21.984673 22.15605 22.099874 -10.53029 -22.139648
21.976717 22.086924 -22.231941 22.159363 -22.066988 22.12199 22.224285 -22.055532
22.131516 22.069021 22.078457 -21.99098 22.031199 -22.10831 -22.120752 -21.984713
-22.160843 22.166142 21.892742 22.135048 -22.094452 21.963161 -22.17026 21.990854
-22.084967 -22.183073 -22.038273 -21.969025 -22.13774 -22.126818 -22.12368 21.984163
-22.110662 -22.003134 -22.078976 22.077553 -22.167053 22.070404 -22.188131 -21.949493
-22.127441 -22.030163 22.091574 22.09981 22.095154 21.978937 -22.015251 -22.032187
-22.184475 22.081747 21.899324 -21.98912 -22.204979 21.953709 22.070309 -22.04646
21.988153 22.090855 10.604364 -22.165958 22.094095 22.032972 -10.602815 -22.044348
22.114147 22.031988 -22.061226 22.080826 -22.070349 22.075768 22.145407 -22.082443
22.160652 22.093292 22.01672 -22.07866 22.002249 -22.153543 -22.108812 -22.093111
-22.141972 22.055843 21.92178 22.133522 -22.041283 22.174137 -22.165064 22.0511
-21.93662 -22.134628 -21.985693 -22.041304 -22.11561 -22.04833 -22.133154 22.118341
-22.014502 -22.06933 -22.107552 22.06682 -21.990387 22.111103 -22.209818 -22.048113
-22.028357 -22.080097 21.974705 22.073507 22.007954 22.055592 -22.036436 -21.973047
-22.109003 22.025791 21.94554 -21.954622 -22.29837 21.915773 21.999002 -22.130482
22.114113 22.089281 10.643399 -22.060984 21.92134 21.883907 -10.492429 -22.00098
00000000: 0914 b141 708f af41 dbe7 b1c1 7d8b b141
00000010: 33e3 b0c1 ff3f b041 ea01 b141 600b b0c1
00000020: a7ef b041 f89b af41 5cb5 af41 2d21 b0c1
00000030: d441 b041 3ac8 b0c1 2de0 b0c1 22ea afc1
00000040: 63dc b1c1 9089 b041 a962 b041 0574 b041
00000050: 6274 b1c1 8c51 b041 3aa4 b0c1 fc50 b241
00000060: 15c0 afc1 8965 b1c1 d86d b1c1 86e7 b0c1
00000070: 4e16 b0c1 26e9 afc1 2f9d b0c1 d7f9 b041
00000080: b047 b0c1 7db7 b0c1 8227 b0c1 e2f1 af41
00000090: e5d4 b0c1 3fe0 af41 9cd0 b1c1 e12a b1c1
000000a0: bd8e b0c1 b2cf b1c1 c348 b141 721a b041
000000b0: 3e1f b141 6ab9 af41 85aa b1c1 a44d b1c1
000000c0: e0d7 b1c1 29df b041 3b0d b041 add2 b0c1
000000d0: b36e b2c1 ac55 b041 4ecb b041 3647 b1c1
000000e0: 31aa b141 e3b5 b041 6d9d 2a41 16db b0c1
000000f0: 2766 b041 b332 b141 f6dd 28c1 eb44 b0c1
00000100: 89f7 af41 ec05 b041 8a97 b0c1 8a55 b141
00000110: 5a84 b0c1 41ff af41 2a60 b041 c783 b0c1
00000120: 747c b041 7347 b041 e9f0 ae41 17ec b0c1
00000130: 5eeb b041 223e b1c1 1e1d b1c1 618f afc1
00000140: 89ce b0c1 595a b041 a7bf b041 849c af41
00000150: 2379 b1c1 6efa b041 266c b1c1 7c28 b041
00000160: 8d85 b0c1 09e0 afc1 f0db b1c1 2c51 b1c1
00000170: 2272 b0c1 6cd5 b0c1 d2b2 b0c1 e5af af41
00000180: 73bc b0c1 591b b0c1 43ba b0c1 dce3 b041
00000190: 366d b1c1 e644 b041 83b8 b0c1 720d b0c1
000001a0: cb26 b2c1 b315 b0c1 de38 b141 5a0c b141
000001b0: 3658 b141 cec7 af41 d529 b1c1 d115 b1c1
000001c0: d71d b1c1 85bb b041 b5f4 af41 0643 b1c1
000001d0: 07a6 b2c1 923f af41 d805 b141 0038 b0c1
000001e0: 8ac1 b041 07f1 af41 4d9e 2941 9ce0 afc1
000001f0: 973f b141 8bcc b041 117c 28c1 001e b1c1
00000200: 51d0 af41 05b2 b041 04db b1c1 6046 b141
00000210: 3189 b0c1 d6f9 b041 56cb b141 bb71 b0c1
00000220: 580d b141 5b8d b041 aea0 b041 87ed afc1
00000230: e53f b041 d2dd b0c1 4df7 b0c1 b1e0 afc1
00000240: 6849 b1c1 4254 b141 5624 af41 9414 b141
00000250: 70c1 b0c1 8eb4 af41 b15c b1c1 45ed af41
00000260: 03ae b0c1 ef76 b1c1 624e b0c1 90c0 afc1
00000270: 171a b1c1 b903 b1c1 4cfd b0c1 91df af41
00000280: a3e2 b0c1 6b06 b0c1 bea1 b0c1 d49e b041
00000290: 2056 b1c1 3090 b041 4b81 b1c1 9098 afc1
000002a0: 0005 b1c1 c63d b0c1 8bbb b041 69cc b041
000002b0: e0c2 b041 ddd4 af41 3c1f b0c1 eb41 b0c1
000002c0: ce79 b1c1 6ba7 b041 d131 af41 b8e9 afc1
000002d0: cca3 b1c1 32a1 af41 fe8f b041 265f b0c1
000002e0: bde7 af41 12ba b041 7aab 2941 e253 b1c1
000002f0: b5c0 b041 8743 b041 21a5 29c1 d35a b0c1
00000300: c6e9 b041 8341 b041 647d b0c1 88a5 b041
00000310: 1390 b0c1 2c9b b041 cb29 b141 d8a8 b0c1
00000320: 0449 b141 10bf b041 3e22 b041 18a1 b0c1
00000330: 9b04 b041 753a b1c1 d9de b0c1 b1be b0c1
00000340: c222 b1c1 5e72 b041 ce5f af41 7411 b141
00000350: 8c54 b0c1 a264 b141 0d52 b1c1 a768 b041
00000360: 337e afc1 b813 b1c1 b3e2 afc1 9754 b0c1
00000370: c5ec b0c1 fb62 b0c1 b310 b1c1 5df2 b041
00000380: b31d b0c1 fd8d b0c1 44dc b0c1 d988 b041
00000390: 50ec afc1 8ae3 b041 b5ad b1c1 8962 b0c1
000003a0: 133a b0c1 0aa4 b0c1 32cc af41 8b96 b041
000003b0: 4a10 b041 da71 b041 9f4a b0c1 cdc8 afc1
000003c0: 3ddf b0c1 d234 b041 7790 af41 11a3 afc1
000003d0: 1063 b2c1 8153 af41 f5fd af41 3a0b b1c1
000003e0: b4e9 b041 d9b6 b041 5d4b 2a41 e57c b0c1
000003f0: e85e af41 3e12 af41 fde0 27c1 0202 b0c1

head.bias f4 [24]
21.881521 21.881584 21.794014 21.933134 21.832932 21.748064 21.949347 21.872744
21.750929 21.826605 21.936655 21.926277 21.899502 21.780163 21.781567 21.870506
21.9427 21.751333 21.83007 21.923517 21.95387 21.748554 21.768015 21.744873
00000000: 5b0d af41 7c0d af41 245a ae41 0f77 af41
00000010: d8a9 ae41 09fc ad41 4398 af41 61fb ae41
00000020: e701 ae41 e39c ae41 457e af41 0469 af41
00000030: 2e32 af41 c63d ae41 a640 ae41 ccf6 ae41
00000040: a68a af41 bb02 ae41 fca3 ae41 5d63 af41
00000050: 87a1 af41 0afd ad41 e524 ae41 80f5 ad41
